rl_agent/output/dqn/episode_300/model_weights.pth (torch, 59972 bytes, 6 tensors)

fc1.weight f4 [128, 43]
000000 81 bf 37 3c 36 d6 81 bd f0 0d fe bd 86 9f 11 3e
       0.011215092 -0.063396856 -0.12405002 0.1422101
000010 30 97 11 be ec 3f 81 bd 09 15 19 be 68 64 d9 bd
       -0.1421783 -0.0631102 -0.1494943 -0.10614854
000020 b5 10 26 be ff 04 c3 bd 23 07 3c 3e 73 fe 28 3d
       -0.1621731 -0.09522437 0.18362097 0.041258287
000030 9c 96 3b bd 04 71 30 3d 7d f6 13 3e 8a ff c2 bd
       -0.04579793 0.04307653 0.14449497 -0.095213965
000040 86 12 c3 3d fd 05 0e 3e a5 e1 97 3d 33 7e ec 3d
       0.095250174 0.13869472 0.07416085 0.11547508
000050 fe b9 cd bd 0f f6 e4 bd 4d e7 ee 3d 3e 63 fe bc
       -0.10045241 -0.111797445 0.11665211 -0.031053182
000060 97 4a ca 3c e0 fd 11 bd 1c 9c 8a bd 80 0e fd 3b
       0.02469377 -0.035642505 -0.06768057 0.007722676
000070 de a0 a4 bd d5 48 f7 bd d4 a2 d8 3d 8b b4 ca 3d
       -0.080384955 -0.120744385 0.10577932 0.09897717
000080 ea a0 22 3e 89 87 ba bd 80 77 0a 3c 9f cd a7 bd
       0.15881696 -0.091078825 0.008451343 -0.08193516
000090 5b 71 20 3c c8 b2 ba 3d 6d 2b 29 bd 61 a9 2d bc
       0.009792651 0.09116131 -0.04130118 -0.010599465
0000a0 65 ac 9f bc 10 2e 79 3d b1 97 e5 bd f1 cb 25 3e
       -0.019491384 0.060834944 -0.112105735 0.16191079
0000b0 5e c8 1b 3e 96 e0 d1 3d 9e 40 7f 3d b7 01 b5 3d
       0.15213153 0.102479145 0.062317483 0.08838218
0000c0 77 eb 52 be c0 1a 07 3d 9d a0 f7 bd 55 c5 00 3e
       -0.20597635 0.032984495 -0.120911814 0.12575276
0000d0 76 58 7d 3d 05 30 52 be 9b a8 c8 bd 5b 54 60 be
       0.06185194 -0.2052613 -0.09797784 -0.21907179
0000e0 cf e3 05 be 7b ca 9f bd 63 e7 c2 3d 1d f8 d1 3d
       -0.13075183 -0.07802292 0.0951679 0.10252402
0000f0 4f 4e 57 be 4e 5f 9a 3d 25 bf 2a be 4f f6 f1 bd
       -0.21025966 0.07537709 -0.16674478 -0.11814558
000100 ad f9 e5 3c f6 cd 62 3c 36 2a 09 3d 90 97 56 3d
       0.028073156 0.01384305 0.03348752 0.052390635
000110 8e 74 2e be da 0d 43 bc 10 9a 60 3d 3f ba 16 3e
       -0.1703665 -0.011905158 0.054834425 0.14719485
000120 8a cc 9f bb 14 3d b8 bc 4b ef 36 be 7f 21 2a 3e
       -0.004876678 -0.022490062 -0.1786472 0.1661434
000130 58 a1 e9 3c d8 d3 40 bd 70 71 81 3d f3 d0 42 3d
       0.028519318 -0.04707703 0.063204646 0.04756255
000140 50 76 16 be db c5 1c bc bc a8 06 be c1 26 16 be
       -0.1469357 -0.009568657 -0.13150305 -0.14663221
000150 04 8f 0f be 26 2a bd bd cd 77 5e bd 7c 8d e4 bc
       -0.140194 -0.09236555 -0.05431347 -0.027899496
000160 ae fd 40 3e da 09 42 bc 1e f2 e2 3d e4 59 fb bc
       0.18846771 -0.011843169 0.110813364 -0.030682512
000170 ac 24 07 3e 9f 26 ba 3d dd dd 25 3d 10 24 df 3d
       0.13197583 0.09089398 0.04049479 0.1089555
000180 9c ec b4 bd 1f ff df 3d 5f f8 03 be 40 5d e5 3b
       -0.08834192 0.10937332 -0.12887715 0.0069996417
000190 78 21 8c 3d 54 96 7f bd a8 16 18 3e e8 4f a5 bb
       0.06842321 -0.062399223 0.14852393 -0.005044926
0001a0 44 33 bc 3d 7e f2 5b bd d8 2d 95 3c 89 0f 03 be
       0.09189466 -0.053698055 0.018210337 -0.12798895
0001b0 60 22 2e be 83 69 27 3e ee 07 df bd 8d c8 75 3b
       -0.170053 0.16348843 -0.10890184 0.003750357
0001c0 fa c0 25 be a4 a1 cd 3d 12 36 0c 3e 3a 0a 8e bd
       -0.16186896 0.10040596 0.13692501 -0.06935544
0001d0 f7 78 2f be e7 fe 5e bd c9 c3 da 3d b3 a8 e4 bc
       -0.17135988 -0.054442313 0.10681874 -0.027912473
0001e0 28 0b 18 3e 1e c0 22 be 76 0b da 3d c5 a2 c2 bd
       0.14848006 -0.158936 0.10646717 -0.09503702
0001f0 45 d1 73 3d 4e d7 fd bb ba 63 be bd 70 b9 6c 3c
       0.059525747 -0.0077466136 -0.09296365 0.014448509
000200 60 91 9f 3d 73 4c 7b 3e a3 32 08 3e 93 3f 10 be
       0.077914 0.24540882 0.13300566 -0.14086752
000210 c4 4d 57 be 8a 90 11 3e 24 52 95 3c c0 dc e8 3c
       -0.21025759 0.14215294 0.018227644 0.028425574
000220 e1 8d 3f 3e 4b c7 d8 bd 16 01 3b bd 57 65 1e be
       0.18706466 -0.10584887 -0.045655333 -0.15468346
000230 45 e8 aa bc ef 2d b9 bd b0 73 cb 3d c3 ad 02 3e
       -0.020862708 -0.09041964 0.09934175 0.12761597
000240 81 18 67 3e ea b1 32 bd 6a 20 bd bd 88 14 8e 3d
       0.22567941 -0.043626703 -0.09234698 0.0693751
000250 94 b2 65 bd 04 c5 08 3e 58 42 e4 bc 04 f7 f8 bd
       -0.05607851 0.13356405 -0.027863666 -0.121564895
000260 68 6b c3 3d 43 cb b6 bc 8f f6 ba bd 0a 4f 99 bd
       0.095419705 -0.02231372 -0.091290586 -0.07485779
000270 6a 5d 03 be 89 e0 f8 3d a1 d2 47 3d 75 1c 7b b9
       -0.12828603 0.12152202 0.048784856 -0.00023947826
000280 48 a3 6f 3d 08 a7 29 be 86 da 8c bc af 02 aa bd
       0.058505327 -0.16567624 -0.017194044 -0.08301293
000290 fc c2 34 be dd 1d 1a 3e ed 6f c8 bd 28 7b 2f bd
       -0.17652506 0.15050454 -0.09786973 -0.04284206
0002a0 4f f7 37 bd d6 e3 c2 3d 80 5d cf bb 67 80 73 bd
       -0.044913586 0.095161125 -0.0063282847 -0.059448626
0002b0 5d 54 c7 bd 51 b9 2f 3e c9 4b 89 3c 96 35 99 3e
       -0.09732888 0.17160536 0.01675977 0.29923695
0002c0 2e f0 50 bd 01 bb 79 3e dc 43 e0 3d 64 6e bc bc
       -0.051010303 0.24387743 0.10950443 -0.023001857
0002d0 a6 cb 01 be 99 66 8a bd 47 cf 3f 3d ba 09 78 3d
       -0.12675342 -0.0675785 0.046828534 0.06055615
0002e0 88 ea f7 3d c4 85 e0 3d ff 94 d3 bc 75 28 c2 bd
       0.1210528 0.10963014 -0.025827883 -0.09480373
0002f0 8d bd cd 3d d9 7e ac bc 1e 7c 1c 3e d2 6f 10 bc
       0.100459196 -0.02105658 0.15281722 -0.008815723
000300 48 7b d7 bc a2 21 90 3d f3 cb 01 3e 25 db 76 3d
       -0.026303902 0.07037665 0.12675457 0.060267586
000310 83 47 21 bd 49 54 da 3d e2 67 34 bc e0 f7 dd bc
       -0.03937484 0.10660607 -0.011011096 -0.027095735
000320 5b c0 07 3d 5c de 9b bd 9f ce a4 3d 92 55 2f bd
       0.03314243 -0.07610771 0.08047222 -0.042806216
000330 fb 0b 15 3e d3 5c e6 bd f6 92 c1 3d b3 1b 9e bd
       0.14555351 -0.112481736 0.09451859 -0.07720127
000340 0d a5 f7 bd 46 06 c9 3d ea 02 c3 bc c6 6d 1a bd
       -0.12092028 0.0981565 -0.0238051 -0.037702344
000350 6b 73 b9 3d a4 25 e3 bd 3c 98 0d 3c 5e d5 78 3e
       0.09055217 -0.11091164 0.008642253 0.24300143
000360 b4 ad 9d b9 b7 29 05 bc cd 9a 17 bd 93 7e 1a 3e
       -0.00030074792 -0.008127621 -0.037012864 0.15087347
000370 3a 22 c7 bc b9 e2 b1 bd 33 ab f7 3d 5c 91 09 be
       -0.024308313 -0.08685822 0.120932005 -0.13434356
000380 4b 97 cc bb c2 14 35 bc 47 ca bf bd f1 5e d4 3d
       -0.0062436215 -0.011052312 -0.09364753 0.10369671
000390 c0 93 89 bb fa a0 06 3e ad b0 0b bc 84 2e 88 bd
       -0.0041985214 0.13147345 -0.0085260095 -0.06649497
0003a0 00 36 23 be 7b fb 13 bd 6a 7b 2d be d4 8d 4d 3d
       -0.15938568 -0.036128502 -0.1694161 0.050184086
0003b0 78 b0 14 bc f5 44 1c be c3 b7 be 3c e0 fc 31 3c
       -0.009075277 -0.1526068 0.023280984 0.010863513
0003c0 cc 40 3c bd c3 2e c2 bd 0a 18 8c 3d c8 08 0a 3e
       -0.045960233 -0.09481575 0.068405226 0.13479912
0003d0 43 a4 0e bd e6 b3 94 3d 1a 78 1f be f9 8f 2a 3d
       -0.03482462 0.072608754 -0.15573159 0.04164121
0003e0 81 60 79 3d 80 22 4c 3b 0f c4 0e 3d 54 db 27 3d
       0.06088305 0.0031148493 0.034854945 0.040980652
0003f0 87 43 18 be 6a 5f 3d 3e d5 9c 28 bb c3 2e 2b be
       -0.1486951 0.18493429 -0.0025728245 -0.16717057

fc1.bias f4 [128]
000000 2c 02 1d bb a4 60 54 3e ba a7 99 bd 69 7b fe 3d
       -0.0023957593 0.2073999 -0.075026944 0.12425882
000010 b2 8b 89 bb c5 bb 8a 3e fe c1 85 3c 8f 42 93 3e
       -0.004197561 0.27096382 0.016327854 0.28761718
000020 d4 a9 28 3e 81 09 f2 bd 23 f9 2f 3e dc 51 41 3e
       0.16471034 -0.11818219 0.17184882 0.18878883
000030 bb 8e 8e 3e 99 1e 27 3e 29 12 9a 3e 71 99 dd 3d
       0.2784327 0.16320266 0.3009198 0.10820282
000040 43 b8 12 3e e2 96 8d 3e 7b 75 c7 3e f4 2d 50 3e
       0.14328103 0.27654177 0.38956818 0.2033003
000050 93 99 1e 3e 70 6d ff bd ff 41 04 3e a5 ab 87 3e
       0.15488271 -0.124720454 0.129158 0.26498142
000060 be 56 0b 3e 39 ec b9 bd 20 86 cb bc d4 89 af 3c
       0.13607308 -0.09078259 -0.02484423 0.021428026
000070 d5 e8 13 3e 83 85 43 bc d5 db 57 3d 58 29 f4 bb
       0.14444287 -0.011933687 0.052699883 -0.0074512176
000080 3d 5d 3c 3e b2 e6 29 3e ca a7 7a bd 74 50 f8 3d
       0.18394943 0.1659191 -0.061195172 0.1212472
000090 3e 37 cf 3d 36 8f 55 3e 92 99 31 3e b3 ad 05 3f
       0.101179585 0.20855412 0.17343739 0.5221817
0000a0 59 f9 a5 bd 6f f8 19 be 88 6f 71 3e de 2f 22 3e
       -0.081042 -0.15036176 0.23577702 0.15838572
0000b0 e8 67 3f 3e 3d 30 36 bd 3c f2 ee bd ef a1 e2 bd
       0.18691981 -0.044479597 -0.11667296 -0.11066043
0000c0 32 74 44 3e d5 d0 e1 bd 09 a1 13 be ae f8 10 3e
       0.1918495 -0.1102616 -0.14416899 0.14157364
0000d0 f5 17 52 3e ed 07 7f 3e 71 7d 52 3d b4 d6 6a 3e
       0.20516951 0.24905367 0.05138916 0.22933465
0000e0 4e 62 94 3e 09 1f e9 3d e3 3b 20 3c b5 26 55 bd
       0.2898125 0.113828726 0.009779903 -0.052038867
0000f0 66 87 3a 3e d7 15 8b 3e ac 1e c5 3e c0 b0 ad 3d
       0.18215713 0.271651 0.38499963 0.08480978
000100 02 a6 0c bd 3f b0 68 3e 94 45 71 bd 82 c5 b7 bd
       -0.034338005 0.22723483 -0.058904245 -0.089732185
000110 ab eb 09 be 53 1b f7 bc ef 36 9d 3e 2a 7f 84 3c
       -0.13468806 -0.030164396 0.30705974 0.016173918
000120 10 12 cb 3d c6 11 95 3e f4 4f 68 3e 7b 0e d1 3d
       0.099155545 0.29115123 0.2268675 0.1020784
000130 fb b7 c6 3c 1e 45 af 3e b0 2e 88 3e 20 0c 0e 3d
       0.02425765 0.3423242 0.2659812 0.034679532
000140 89 f7 2f 3e 0b 16 2a 3e 23 3e 20 3e 33 31 8d 3e
       0.17184271 0.16609971 0.15648703 0.275766
000150 a3 42 12 3d 73 fb f9 3d b5 4a 3e bd 2d 38 2f be
       0.03570808 0.12206163 -0.046457965 -0.17111273
000160 9f 50 de 3c 2e 0b d3 bd 5d df e0 3d 6f 99 8d bd
       0.027138053 -0.10304867 0.10980103 -0.06914031
000170 4e 21 31 bc 51 59 6e 3d f9 57 0c 3e 28 d1 7e 3d
       -0.010811163 0.058190648 0.13705434 0.062211186
000180 b4 e8 1f 3e cc d3 c6 3e a2 f6 8d 3d 97 66 6e 3e
       0.15616113 0.38833463 0.06931807 0.23281322
000190 20 80 ec bc 37 01 1a 3e 59 5e 86 3e 4e e6 87 3c
       -0.028869689 0.15039526 0.26243857 0.01658931
0001a0 46 3e 29 3d c0 da 60 3e 54 bf 48 3e 0c 9f 02 3e
       0.041319154 0.21958447 0.19604236 0.12755984
0001b0 b5 82 96 3e b5 c1 86 3e 3d 54 93 3d 5b 72 9c ba
       0.29396597 0.26319662 0.071938016 -0.0011935936
0001c0 50 67 5c 3e 93 1a 44 3e a4 e1 a8 3e a7 e7 56 3c
       0.21523786 0.19150762 0.3298465 0.013116754
0001d0 eb 91 e9 3d e4 83 9e 3d 83 7c 99 bd 59 d9 0f 3e
       0.11404785 0.0774 -0.07494452 0.14047755
0001e0 da b0 06 bd 16 72 59 3e d4 ec 4c bd c8 fa 0e be
       -0.032883503 0.21234927 -0.050030544 -0.13962853
0001f0 70 02 08 bd 19 67 3d 3e 9a c6 a0 3d cb 60 bd bd
       -0.03320545 0.1849636 0.0785038 -0.092469774

fc2.weight f4 [64, 128]
000000 97 8b 5c 3d 06 46 88 3d 62 43 46 3d d2 26 d6 3c
       0.05384406 0.06653981 0.048404105 0.026141558
000010 ff 0f fd 3d 60 05 eb 3d ef 20 14 3e d1 bd a2 3d
       0.12356567 0.114756346 0.14465688 0.07946361
000020 14 e3 a2 3d d9 51 53 bc 5c cf 05 3e 46 08 78 3d
       0.07953468 -0.012897932 0.13067383 0.060554765
000030 b5 b7 08 3e 87 96 53 3c 46 83 5c 3e 4a 31 f8 3c
       0.13351329 0.0129143065 0.21534452 0.03029694
000040 8c 4a 05 3d 50 f0 44 3e d8 cd cc 3d 25 ed 77 3d
       0.032541797 0.19232297 0.10000199 0.060528893
000050 df 94 30 3d c0 35 47 bb 37 5f 09 3e 0c c3 8f 3d
       0.043110725 -0.0030397028 0.13415228 0.07019624
000060 84 f2 c5 3b da 3a 93 bc 2a 8b a1 3d b2 ce d4 3d
       0.006040873 -0.017972399 0.078878716 0.103909865
000070 a6 7a 06 bc a2 a9 84 3d 39 69 52 bc 9d 7a 78 3d
       -0.008207953 0.064776674 -0.01284247 0.060663808
000080 9c 3c 97 3d e9 ce 9b 3d a5 84 9f bc d6 66 ad 3d
       0.07384607 0.07607824 -0.01947243 0.0846688
000090 94 1f 06 bd d7 8d f8 3d a3 10 61 bc 1b 38 3d 3e
       -0.03274496 0.12136429 -0.013736877 0.18478434
0000a0 ca de d1 3d ac 53 59 bd 46 70 8d 3c 54 ab ca 3d
       0.10247572 -0.05305831 0.01726545 0.098959595
0000b0 7a 65 c8 3d 87 34 44 3d 8d 9d 36 3d e5 96 00 3e
       0.0978498 0.047901656 0.044583846 0.12557562
0000c0 dd 6d 04 3d 36 27 d9 3d 16 e4 42 3d 6a 88 70 3d
       0.032331336 0.10603182 0.0475808 0.058723845
0000d0 90 e7 47 3e 54 44 7b 3d 36 72 f5 3b f7 60 0d 3e
       0.19521928 0.06134446 0.0074904216 0.1380652
0000e0 7b 3b 07 3e d3 67 26 3e 65 6a d0 3d c3 9c 42 3d
       0.13206284 0.16250543 0.10176543 0.04751278
0000f0 37 18 18 3e 48 ef 51 3e 12 eb 08 3e 23 87 bf 3c
       0.14852987 0.20501435 0.13370922 0.023379868
000100 33 54 f2 3d fc fe d5 3d 03 41 11 3d d7 b6 2f bc
       0.11832466 0.10449025 0.03546239 -0.010724745
000110 7e ff 6c bd 8d c7 8c 3c d2 ee 26 3e f0 6a a2 3c
       -0.057860844 0.017184997 0.1630204 0.019826382
000120 5d 7e ca 3c b6 c0 40 3e f3 12 b8 3d ab b8 21 3b
       0.024718458 0.18823513 0.08987989 0.002467672
000130 0a df f0 3d 41 2e 05 3e 22 0c 3a 3e 01 59 3c 3d
       0.11761291 0.13005926 0.18168691 0.04598332
000140 5c 99 b6 3c 24 cc 12 3e 0e 29 4b 3d ac 53 35 3e
       0.022289924 0.14335686 0.0495997 0.177077
000150 fe 43 9d 3d 9d 3f 16 bd 31 0e b7 3d 49 fe 39 3d
       0.07678984 -0.03668176 0.08938254 0.04540852
000160 5d dc aa 3d 00 03 d7 3c 2c f9 23 3e 0d 47 d2 3d
       0.08342812 0.026246548 0.1601302 0.10267458
000170 3c 98 87 3d a3 ce 0c 3e ee a0 c9 3d f8 ef cc bc
       0.06620833 0.137507 0.09845148 -0.02501677
000180 fe 6a 02 3e ce c9 58 3e d7 0f 32 3c 34 1f a8 3d
       0.12736127 0.21170732 0.010868034 0.082090765
000190 15 c0 76 3c 80 a3 dc 3d ea 36 d8 3d a7 c9 2a 3e
       0.015060444 0.10773373 0.10557349 0.16678487
0001a0 81 86 20 3e 9f 11 50 3d 02 82 3e 3e e6 27 46 bc
       0.15676309 0.050798055 0.18604282 -0.0120944735
0001b0 dc 4f 2c 3e 6e ca ff 3d 34 18 20 3e 18 1a 8f 3a
       0.16827339 0.12489782 0.15634233 0.0010917811
0001c0 fa 1c 2f 3e c1 39 b7 3d 9e 5e 4d 3e 13 98 6c 3d
       0.17100897 0.089465626 0.20055625 0.057762217
0001d0 29 fd 14 bd eb b8 f4 3c e9 b7 fd bc 67 57 2b 3c
       -0.036374245 0.029873332 -0.030971484 0.01045785
0001e0 17 41 23 bd 87 c7 f0 3d bd 8b 91 3b 24 09 ae 3c
       -0.039856996 0.11756807 0.004441707 0.021244593
0001f0 3f f0 44 3b d5 86 f2 3d 25 51 88 bc 4a c4 b8 3c
       0.0030050424 0.118421234 -0.016640255 0.022554535
000200 94 d2 4c bc 23 f5 30 3d c6 84 8f 3d 36 f1 ea 3d
       -0.012501378 0.04320253 0.070077464 0.114717886
000210 fe 30 fd 3c 8b eb 63 3d b8 ac 35 bd 5c 79 02 3e
       0.03090715 0.055644553 -0.04435417 0.12741607
000220 bd a9 05 3e 54 ed dc bc 12 c6 55 3e 43 b3 b3 bb
       0.13053031 -0.026968636 0.20876339 -0.005484016
000230 7b 6c 4f 3e 5e 35 1b 3e e6 ec 35 3e 9f de ad 3d
       0.20256226 0.15157077 0.17766151 0.08489727
000240 e4 86 35 3d a4 96 81 3d 03 97 6c 3e e3 fe 6d 3d
       0.044318095 0.063275605 0.23104481 0.058104407
000250 3a 6f a4 3d 43 ef 96 3d fc 4d e7 3d 4a 24 11 3e
       0.08029027 0.07369854 0.11294171 0.14174
000260 d2 93 1a 3e fb b9 c4 3d 66 a9 24 3d 46 09 a2 3c
       0.15095451 0.096057855 0.040200613 0.019779813
000270 31 eb 10 3e 56 d7 ff 3d a3 2c b0 3d 26 7b 54 3e
       0.14152218 0.12492244 0.08602264 0.20750102
000280 54 9c 57 3e 90 8a 5d 3e 83 0c 1e bd 5f 86 e0 3d
       0.21055728 0.21634889 -0.03858615 0.10963129
000290 fe a2 f2 3d 4b 87 d4 3d a5 8b a5 3d 21 a8 b4 3e
       0.118474945 0.103773676 0.08083276 0.35284522
0002a0 e9 04 f3 3d 92 e8 31 3d b6 78 f6 3d 0e 49 cc 3d
       0.11866171 0.043434687 0.120347425 0.099748716
0002b0 3d 47 55 3e 1e a0 11 3e 15 cf f5 3c eb 60 cc 3d
       0.20827956 0.14221236 0.030005971 0.09979423
0002c0 2c 03 16 bd e6 8b a7 3d 72 e5 07 3e 3f bb 04 3e
       -0.03662412 0.081809804 0.1327112 0.12962054
0002d0 97 fc 14 3e ca 73 8e b9 69 5a d1 3d a7 cd a3 bc
       0.1454948 -0.0002717062 0.102223225 -0.019995524
0002e0 b0 90 dc 3d de ac 84 3d f0 b4 71 3b 65 5e cd 3d
       0.107697845 0.06478284 0.0036881529 0.1002777
0002f0 fe 09 af bc 12 82 27 3e 33 70 78 3e 72 81 0b bc
       -0.02136707 0.16358212 0.2426155 -0.008514749
000300 42 98 3e 3d 2e da bc 3d 72 cb 10 3e 91 a5 d6 bc
       0.046531923 0.09221302 0.14140108 -0.026201995
000310 eb 18 d2 3d 90 66 1e 3e 12 5a e2 3c 5b f4 ad 3d
       0.10258659 0.15468812 0.02763084 0.08493873
000320 a3 09 ed 3d 76 55 9e 3d 29 33 4b 3e 0d d4 a8 3d
       0.11574104 0.07731144 0.19843735 0.082435705
000330 f0 0c ac 3d 79 c4 e2 3d 7c ad e9 3d 82 41 3e bc
       0.08400905 0.110726304 0.11410043 -0.011612298
000340 11 75 20 3e 32 cf da 3d fa f5 24 3e 39 f8 94 3e
       0.15669657 0.106840506 0.16109458 0.2909563
000350 d5 d4 68 3d ab 0a 17 3d 5a 9a 9c 3d a3 d4 db 3c
       0.056843597 0.03687541 0.07646628 0.026834792
000360 9c 6f 4a 3c f5 ae 89 bd 7f 29 90 3d d9 73 34 bd
       0.012355711 -0.067228235 0.07039165 -0.044055793
000370 09 d3 0a 3e 0e e2 b1 bc bd fe 39 3e 07 fa 0d 3e
       0.13557066 -0.021714237 0.18163581 0.13864909
000380 b3 f0 cc 3c 27 ba a3 3d 28 d4 23 3e 39 0b 65 3d
       0.025017118 0.0799449 0.159989 0.055918906
000390 db f9 41 3d eb 03 d5 3d c5 dd 05 3e 6d cc 35 bd
       0.04735742 0.10401138 0.1307288 -0.04438441
0003a0 c0 5b 22 3d e0 b7 1a 3d 83 54 ed 3d be 56 59 bd
       0.03963828 0.037773013 0.11588385 -0.05306124
0003b0 cd ab ba 3d 64 ff 50 3d a0 93 2d 3d cf e9 d5 3d
       0.091148 0.05102481 0.042377114 0.10444986
0003c0 65 51 af 3d 94 ef bc 3d 1d 36 ed 3d 94 07 e7 3d
       0.08560447 0.092253834 0.11582587 0.11280742
0003d0 10 e1 ac 3b c4 81 28 bb ee 13 01 bc 52 8a 11 b9
       0.005275853 -0.0025712112 -0.007878287 -0.00013879806
0003e0 9c 8d 26 3d da f3 fd bb 89 5f 37 bd e0 f9 d2 3c
       0.040662393 -0.0077500166 -0.044768844 0.025753915
0003f0 f7 f9 e4 3d ed 7c 34 3e c8 ac 18 3e 13 4e ed 3a
       0.111804895 0.1762578 0.14909661 0.0018104933

fc2.bias f4 [64]
000000 c5 fc 87 3e e3 d1 55 3e d0 9e b9 bd 81 5a 7a 3e
       0.26560035 0.20880847 -0.09063494 0.24448587
000010 f0 60 49 3e 55 95 81 bd 6d b5 4c 3e e3 22 a5 bd
       0.19665885 -0.06327311 0.19991083 -0.08063295
000020 af f4 4d 3b 52 a0 cb bd 85 86 88 bd c8 02 4c 3e
       0.003142636 -0.09942688 -0.066662826 0.19922936
000030 1f c6 9c bc d8 21 a7 3c 8a c4 5d 3e 17 84 4d 3e
       -0.01913744 0.02040188 0.21657005 0.2006992
000040 96 d7 d3 bb d3 7c 29 bc 47 77 65 3d 1f 6e 13 3e
       -0.006464909 -0.010344702 0.056021955 0.14397477
000050 cc 70 b7 3d 52 d6 80 bd b0 e9 36 3d 40 77 0e 3e
       0.08957061 -0.06290878 0.044656456 0.13912678
000060 19 38 da 3c 18 8d 42 bd 4e ae c4 3d 19 92 d3 3d
       0.026638078 -0.04749784 0.096035585 0.103306
000070 0e c6 8c 3c e7 15 33 3e ba 07 a9 3d 3b cc 64 3d
       0.017184284 0.17488824 0.08253427 0.05585883
000080 21 a8 cb bd 3d 92 a2 3d 24 da 46 bd 0b 7c 6d 3c
       -0.099441774 0.07938049 -0.04854788 0.014494906
000090 6a 9c 47 bd 92 3c 4f bc b0 d6 4f 3c 33 cc 1d bb
       -0.048733152 -0.012648718 0.012685463 -0.002407801
0000a0 cf 91 b0 3c f8 b2 8e bd 88 2a 0f 3c 9b 08 16 bc
       0.021553902 -0.06967729 0.008738168 -0.009157325
0000b0 7a 93 27 3e 69 53 f0 3d 36 9e 55 3d 4c e0 d2 3c
       0.16364852 0.11734659 0.052152835 0.025741719
0000c0 00 61 00 3e 36 9c 03 3e 03 51 c8 bd 42 b4 6d bd
       0.12537003 0.12852558 -0.09781077 -0.058033235
0000d0 72 6a 46 3d 5e 5e a6 3d b2 ec dc 3d 1a 7d e8 bc
       0.048441358 0.08123468 0.107873335 -0.028379966
0000e0 10 1a a7 bd cd 3c 25 3c 40 3d 32 3e c7 34 e4 bc
       -0.08159268 0.010085297 0.17406178 -0.027857197
0000f0 a3 33 58 3c 4b 14 0b be d9 d5 69 3e b0 f6 f2 3d
       0.013195905 -0.1358196 0.22835483 0.11863458

fc3.weight f4 [7, 64]
000000 11 65 4b 3e 57 a0 56 3d ca 27 af bd 3f ed 81 3d
       0.19862773 0.052399006 -0.08552511 0.06344079
000010 57 7e e5 3c 0d ea 1c bd 41 a1 ab 3c 62 47 5e bd
       0.028014345 -0.038309146 0.020950915 -0.054267295
000020 0d 45 de 3d 05 85 76 bd 56 62 b8 bd 1a 21 b3 3c
       0.10853014 -0.06018545 -0.09003131 0.02186637
000030 30 80 75 3c a2 1a 8b bb 27 15 9b 3d 58 bd 1a 3e
       0.014984176 -0.0042451182 0.07572394 0.15111291
000040 52 77 fb bd 7a 5f 50 bc 64 72 8b bd 4b e8 fd 3d
       -0.12278618 -0.012718076 -0.06808928 0.12397822
000050 a0 a9 03 3e d3 b4 93 bd d3 f4 b5 bd a7 bc 3e 3e
       0.12857676 -0.07212224 -0.08884587 0.18626653
000060 6e c1 a2 bc 85 36 91 3c f6 b7 8c 3d dc c8 bb 3d
       -0.019867625 0.017726192 0.06871025 0.0916917
000070 cc fa b1 bd d8 1f 03 3d 06 19 8f 3d 84 db a2 3d
       -0.08690414 0.03201279 0.06987195 0.079520255
000080 8c 34 63 bc da 92 f7 bc e3 11 80 3c a4 14 6b 3d
       -0.013867509 -0.030221391 0.015633529 0.05739273
000090 83 ae ac bd c4 7c 91 bc 6e 15 77 3d 71 24 0d 3e
       -0.08431723 -0.017759688 0.06032317 0.13783433
0000a0 16 36 ac 3d fa 61 74 3c d1 4a f9 bc 0c 51 96 bc
       0.084087536 0.014915938 -0.030431183 -0.018349193
0000b0 e0 14 9a bc 7c 4e 91 3d 57 4b 06 3e b8 b1 af bd
       -0.018808782 0.07095048 0.13114677 -0.08578819
0000c0 09 51 f2 3c 62 28 45 3d 66 d2 63 bd 8c 8b 39 3d
       0.029579656 0.048134215 -0.055620573 0.045299098
0000d0 2e 1e 65 bd f4 f0 2e 3e 79 c0 c4 3d 80 04 c4 3d
       -0.055936985 0.17084104 0.09607024 0.09571171
0000e0 bc 06 bb 3d 09 d1 e2 bd e7 f7 85 3d 44 50 9d bd
       0.09132144 -0.110750265 0.06541424 -0.07681325
0000f0 3f fb 19 bd e6 cd 86 bd b2 a3 1e 3e 22 29 bd 3d
       -0.037593123 -0.06582241 0.15492132 0.09236361
000100 d8 91 2a 3e 96 bf 4d 3e ad 15 af bd 3d b2 79 3d
       0.16657197 0.20092615 -0.08549056 0.060960997
000110 f2 84 5f 3d 37 7e b6 bc 50 0a 45 3e 7c c3 de bd
       0.054570146 -0.02227698 0.19242215 -0.108771294
000120 6d e8 28 3e e4 1a 82 bc 30 bd 7c bd b0 3b 21 3e
       0.16494913 -0.015881963 -0.06170386 0.15745425
000130 44 16 79 bd 97 92 27 bd 32 17 b3 3d 16 26 48 3e
       -0.06081225 -0.040911283 0.087446585 0.19545779
000140 13 e7 9e bc 4f 70 fa 3d 80 3d 26 bc 53 56 a9 3d
       -0.019397294 0.122284524 -0.010146499 0.08268418
000150 06 0b d5 3d 45 e1 fa 3d 2f c2 1c 3d e3 99 b1 bc
       0.10402493 0.12249998 0.038271125 -0.021679824
000160 3c ef e8 3d 0a e0 ba 3d d9 ca 82 3d 51 55 6d bd
       0.11373755 0.09124763 0.06386346 -0.057942692
000170 f7 2c eb 3d ff 2f de 3d 28 f9 52 3d 43 0f 7c bd
       0.11483186 0.10848998 0.051507145 -0.061537992
000180 39 ad 96 3c f0 9e 9c bb 43 92 d2 3c b8 5d ac bd
       0.018393146 -0.004779689 0.025704509 -0.08416313
000190 ac bc ae 3d 38 09 b3 bd 11 2b 0f bd af d5 0c bd
       0.0853208 -0.08741993 -0.03495318 -0.034383472
0001a0 8a 56 0c bd 1d e4 cf 3c 62 3b 04 3c c9 d3 e6 bd
       -0.034262218 0.025377328 0.008070799 -0.112708636
0001b0 dd b4 e9 3d da ea 13 3e 93 90 26 3d 8f 77 06 3e
       0.1141145 0.14445058 0.04066522 0.13131545
0001c0 72 ff 91 3d 01 62 01 3e e9 2a f0 bd b8 d0 04 3e
       0.071288005 0.12635042 -0.117269345 0.12970245
0001d0 86 b4 f4 3d e2 48 54 3e 37 d4 0b bd 34 b9 9f bc
       0.119484946 0.20730928 -0.03413793 -0.019497491
0001e0 2f e5 e0 3c 1f f6 15 3d bc 5a 26 3c 1d 23 92 bd
       0.027453033 0.036611672 0.010153469 -0.071356036
0001f0 48 aa 89 3d 00 b9 1a be 96 b9 5f bb 0f af c3 3d
       0.06721932 -0.15109634 -0.0034137717 0.09554874
000200 33 48 5d 3e 34 17 e7 3d 5b 46 db 3d b2 a5 2d 3e
       0.21609573 0.112837225 0.107067786 0.16957739
000210 37 b8 97 3d 5d a1 80 3c 51 fd a4 3d cf 22 22 3c
       0.07408183 0.015701944 0.08056129 0.009895994
000220 3b ab 36 3d 0b 2c 50 3d b2 74 f6 3d fc ce ae 3c
       0.04459689 0.050823253 0.120339766 0.021338932
000230 70 d9 df bd 00 9d 86 3d c1 c9 27 3e 0d d3 4a 3b
       -0.10930145 0.06572914 0.16385557 0.003094855
000240 c8 7b b3 3c b3 85 00 3e bb fd 8e 3d bf bb 1d 3e
       0.02190961 0.12551002 0.06981989 0.1540365
000250 12 ed eb bc 4e 6f f1 3d 82 13 b7 bb da 7f a0 3d
       -0.028799567 0.11788808 -0.0055870423 0.07836886
000260 e1 e0 0f 3d c5 6c b7 3d df c5 11 3e 1c 5e c4 3d
       0.03512657 0.08956293 0.14235638 0.095882624
000270 fc 27 d0 3d 53 e2 ff 3c 5f 45 47 bd 24 ac 2a 3d
       0.101638764 0.03123585 -0.04865014 0.041668072
000280 d2 d7 5f bd 74 a7 9e 3d 75 5a 1e 3d db 62 a2 bd
       -0.05464918 0.07746783 0.038660485 -0.079290114
000290 11 b7 1f 3e 53 25 e3 bd ee 35 a0 bd 09 d0 f5 bd
       0.15597178 -0.110911034 -0.07822786 -0.1200257
0002a0 72 93 43 bd ad f9 d8 3d ba 81 a2 bd 52 cb 89 bc
       -0.047748037 0.10594497 -0.079349 -0.016820583
0002b0 28 31 14 3e 11 07 b5 3a 66 de fd bc ce b1 d1 3d
       0.14471877 0.001381131 -0.030989837 0.10238992
0002c0 39 fc c5 3d b1 b8 99 bc db c3 85 3b 92 60 26 bd
       0.09667248 -0.018764826 0.0040821857 -0.04061944
0002d0 3a 57 02 3e 8d cb b2 3c de 38 a5 3d 06 c9 db bd
       0.12728587 0.021825576 0.08067487 -0.107317016
0002e0 fd 90 a8 3d f4 a8 85 3d d7 23 02 3e 23 55 f6 bd
       0.08230779 0.06526366 0.12708984 -0.12027957
0002f0 f6 96 eb 3c fb 4e 50 3d 4b 07 cc bb 6f 50 11 3e
       0.028758507 0.05085657 -0.0062264553 0.14190839
000300 ff ba ba bc 4d 5a 30 3e 5a c8 2b bd dd 43 47 3e
       -0.022794245 0.17221947 -0.041939117 0.19459482
000310 92 a6 be 3d 0a 10 eb 3d 4b 12 22 3e 85 91 81 3d
       0.093091145 0.114776686 0.1582729 0.06326584
000320 8b d7 a6 3c 14 72 a2 3d 92 76 5c bd f5 d0 f8 bb
       0.02036645 0.07931915 -0.053824015 -0.007593269
000330 8e 0d f0 bc ea 6a 4d 3e fe c7 95 bd 8e 3e 9f bd
       -0.029303338 0.20060316 -0.07313536 -0.07775603
000340 cd 01 81 3d 35 ed ff bd 5c 6e b2 3d a4 ba 12 3e
       0.062991716 -0.124964155 0.08712456 0.1432901
000350 3b 9f 11 3e ba d3 1f bd 15 ff a5 3d e7 03 cc 3d
       0.14220898 -0.039020278 0.08105294 0.09961682
000360 2a 2f 8f bd 23 46 7b 3c a3 8e 5e bd 57 cc 1b 3e
       -0.06991418 0.015336546 -0.054335248 0.15214668
000370 5a ba f7 3d 47 f0 cd 3d 7e 09 2e 3e 8e 67 82 3d
       0.120960906 0.10055595 0.16995808 0.06367408
000380 8b 16 01 3e 05 63 08 3d b1 f2 87 3d ee 1d b0 bd
       0.12606256 0.033297557 0.066380866 -0.08599459
000390 87 02 dc 3c 83 ff af 3d 7d bb 22 3d 87 67 20 3d
       0.026856674 0.08593657 0.039729584 0.03916123
0003a0 72 ef 9a bd 27 ec d4 bd 2d 24 1c be 00 29 6f bd
       -0.07565202 -0.10396605 -0.15248175 -0.05838871
0003b0 89 e5 06 3e 0e 70 ed 3d c8 e5 4b 3d a2 de da bc
       0.13173498 0.11593638 0.049779683 -0.026717488
0003c0 01 b5 e2 3d 45 af e3 3d 06 e8 b9 bd 15 09 72 3c
       0.1106968 0.111174144 -0.09077458 0.014772673
0003d0 ce 8a df bb c8 0d 08 bb 2f c1 d8 3d 28 b8 85 bd
       -0.0068219667 -0.0020760167 0.10583722 -0.06529266
0003e0 8b 4d 75 3d c4 cf 3d bd bd b5 02 3e 6d ff 92 3c
       0.059888404 -0.04634072 0.1276464 0.017944062
0003f0 10 92 c9 bd 2b 46 8a bd 1b 8f 11 3e a6 59 38 3d
       -0.09842312 -0.06751665 0.14214747 0.04500737

fc3.bias f4 [7]
000000 b4 b0 54 3e ad 0c a1 3d cd 89 3f 3e db 94 2a 3e
       0.20770532 0.07863746 0.1870491 0.16658346
000010 02 b4 fd 3b 59 6d 73 3e 40 36 56 bb
       0.007742406 0.23772182 -0.0032686144
