rl_agent/output/dqn/episode_300/model_weights.pth (torch, 59972 bytes, 6 tensors)

fc1.weight f4 [128, 43]
000000 84 df 0c be e7 59 19 3e 14 21 18 3c 23 9d d3 bd
       -0.1375714 0.14975701 0.00928523 -0.10332706
000010 e9 c9 2e bd 38 92 73 3d f5 3e 16 3d 60 af c7 3b
       -0.042673025 0.059465617 0.036681134 0.0060939044
000020 6a 23 fc ba 13 9b a1 3d 6c ad ef 3c 82 27 25 be
       -0.0019236628 0.07890906 0.029257499 -0.16128352
000030 0a 0a de bd 3f df d7 bd 40 3f a6 3b 6f 69 a2 3d
       -0.108417585 -0.10540628 0.005073458 0.07930266
000040 2c fe 26 3e 26 31 13 3e 09 2d 45 be 45 26 b4 3c
       0.16307896 0.14374217 -0.19255461 0.021990905
000050 c6 83 a8 3d b2 6d db bd 27 2f c4 3c 73 2f 9f 3c
       0.08228259 -0.10714282 0.023948265 0.019431805
000060 be cb 0b 3e 2d 11 d9 bd c6 92 ab bd e1 ff 00 be
       0.1365194 -0.10598979 -0.08377604 -0.1259761
000070 c0 37 5f bc 71 a0 6d 3d af 59 1b 3c 52 e9 4a bd
       -0.013624132 0.058014337 0.009481831 -0.049538918
000080 e6 49 b4 3d 89 d3 aa bd d3 da 25 3c e0 a8 0e bc
       0.088031575 -0.083411284 0.010122973 -0.008707255
000090 c6 fa 0d bd eb 78 5b 3c 70 90 70 bd b6 96 4b bd
       -0.034662984 0.013395528 -0.058731496 -0.049704276
0000a0 1f 1d 19 be 87 98 da bd 46 8c 07 be 14 9e 85 3c
       -0.14952515 -0.106736235 -0.13237104 0.01631073
0000b0 80 fa af 3c 05 0f 39 be e1 77 d6 bd ee 09 0a be
       0.021481752 -0.18072136 -0.10472084 -0.1348035
0000c0 d5 79 96 be 50 90 08 be b0 24 f2 bd 16 dc 51 be
       -0.29389825 -0.13336301 -0.11823404 -0.20494112
0000d0 15 a3 88 3c dd e6 23 be 89 a5 80 bc c9 4f 08 bd
       0.016679326 -0.16006036 -0.015703933 -0.033279214
0000e0 ab 6e cf 3b 10 72 e5 3d 43 aa 68 3d 74 2b 0f 3e
       0.0063303313 0.11203396 0.056803 0.1398142
0000f0 54 cd 38 3d ee 72 cb 3d 43 b4 9e 3d 9c dd 13 be
       0.04511769 0.099340305 0.07749226 -0.14440006
000100 e0 4f 9c 3b d5 47 80 bd 5d d6 42 3d 0d 76 04 3d
       0.004770264 -0.06263701 0.047567714 0.032339144
000110 91 5e ae bd cc 47 c2 3c 64 19 75 3c 64 df e3 3d
       -0.08514131 0.023715876 0.014959667 0.11126593
000120 2c e5 e8 bd f1 db b3 3d 44 93 c3 3d 13 98 c2 bd
       -0.11371836 0.08782185 0.09549573 -0.09501662
000130 17 48 12 be fe 80 0c be f0 3d 32 3d a8 a4 b1 bb
       -0.14285313 -0.13721082 0.0435161 -0.00542124
000140 cc 74 5b 3d b7 bb cf 3d 6a 8f 28 bd 4b 2c c6 bd
       0.053578183 0.10143226 -0.041152395 -0.09676417
000150 90 a8 27 3e f0 6e 7f 3d 73 62 4c be df ad 7a 3c
       0.16372895 0.062361658 -0.1995943 0.015300243
000160 07 20 33 be 9f 12 1c be 56 2d 2f 3d a5 02 82 3e
       -0.17492686 -0.15241478 0.042767845 0.25392643
000170 68 63 0d be 2c 08 38 3d bb d5 9e bd bc 7c f3 3d
       -0.13807452 0.04492967 -0.077556096 0.118890256
000180 f8 2e 89 bd 26 e0 31 3e 4e a6 e9 3c 45 00 97 bd
       -0.06698412 0.17370662 0.028521683 -0.07373098
000190 c4 67 54 3d b4 54 92 bc 8f 22 cc 3d 80 8e db 3c
       0.05185677 -0.017862655 0.09967529 0.026801348
0001a0 9d 78 10 3e 06 1b 25 3e ec 88 47 be 3f ce b7 bd
       0.1410851 0.1612359 -0.19485825 -0.08974885
0001b0 30 33 39 3d 30 d3 36 be 98 0c 7d bd 23 cf ce bd
       0.04521483 -0.17853999 -0.06177959 -0.10098102
0001c0 a0 c9 85 3d e1 39 73 3c 60 0f c0 3c f8 03 c4 3b
       0.065325975 0.014845342 0.023444831 0.0059819184
0001d0 ca b9 81 bd 29 3f bd 3c 2d cf 73 3d 58 70 08 3b
       -0.063342646 0.023101406 0.05952375 0.0020818915
0001e0 46 63 36 bc 30 39 1a 3e e5 97 50 3d c4 13 98 3c
       -0.011132067 0.15060878 0.050926108 0.018564112
0001f0 48 4b b7 3d 45 f9 23 3d 6f 7b f7 3d 9c 5c 93 bb
       0.08949906 0.040032644 0.1208409 -0.004497124
000200 32 05 56 bd 78 ae 11 3e 64 7e 39 3d 9d d3 46 be
       -0.05225105 0.14226711 0.04528655 -0.19416662
000210 0c e1 99 bd 7a df bd 3b 48 62 55 be 9e 23 22 3e
       -0.075136274 0.0057944627 -0.20838273 0.158339
000220 52 3c f8 bd 98 10 06 be 8b 7a ee 3d fe 40 8a 3d
       -0.1212088 -0.13092268 0.11644467 0.067506775
000230 57 2d 2a be 75 df cd bd 0f ca ac 3d 10 f6 df 3d
       -0.16618858 -0.10052387 0.08436977 0.109356046
000240 f7 2d 49 be 97 1b ba 3c 2b fd 51 bd 45 8e d9 3c
       -0.1964644 0.022718234 -0.05126683 0.026557097
000250 7b c8 9c bb 9c 70 5f 3d 88 2d d3 3d af be f8 3d
       -0.0047846413 0.054550752 0.10311419 0.12145745
000260 ec bc 15 be 2a 63 92 3d 02 f3 8a 3d fd 5f f9 3c
       -0.14622849 0.0714782 0.06784631 0.030441279
000270 9d 32 d9 3d 12 8b 85 3d 25 f4 b8 3d 2b 79 f5 3d
       0.10605357 0.06520666 0.09030942 0.119860016
000280 e3 b1 0c be 9f 2a fe bd 3e 89 bd bd 07 17 a1 3d
       -0.13739733 -0.12410473 -0.092546925 0.0786572
000290 20 c3 84 3d e0 99 96 3d 47 5e dd 3d a5 63 ea 3c
       0.0648253 0.07353568 0.108089976 0.028611967
0002a0 7b d3 80 bd 1b e3 05 3d d1 a1 d9 bc ea 8b 19 3e
       -0.06290337 0.032687288 -0.026566418 0.14994779
0002b0 1a 37 c1 3d ef 5e 8c bd 70 6c 0d be 4e d6 00 3e
       0.09434338 -0.06854045 -0.13810897 0.12581751
0002c0 e5 64 f2 3d 0f 02 7b 3d af 16 05 be 78 fa d9 bc
       0.1183565 0.06128126 -0.12996934 -0.02660869
0002d0 a4 7c ab 3d e4 64 71 bd 66 f3 a1 bd 68 ab db 3c
       0.08373383 -0.058934107 -0.07907753 0.026815131
0002e0 7f 04 9d 3d 1a 33 31 be 54 53 71 bd 8d 44 99 3d
       0.07666873 -0.1730465 -0.05891736 0.07483778
0002f0 ed 32 21 be 0e 86 d8 bd 02 9d 12 3c 6d d5 82 3d
       -0.15742083 -0.10572444 0.008948566 0.06388364
000300 6e 7c 6d bb 4c 5b d8 3d 26 8a b6 bd fe 6c 9c bd
       -0.0036237496 0.105642885 -0.089130685 -0.07637976
000310 f6 00 f0 bc b2 45 90 3d 94 b4 99 3d 4f 90 88 3d
       -0.029297333 0.07044543 0.07505146 0.0666815
000320 7c 98 c9 3d 18 c9 32 be d8 e4 14 3d 89 ef b7 3d
       0.09843537 -0.17459524 0.036351055 0.089812346
000330 be e6 d1 3b 95 7f c6 bd de c8 c4 bc 80 c7 c0 3c
       0.0064056804 -0.09692303 -0.024021562 0.023532629
000340 77 ee 08 be 1a 9c 88 3d 79 d1 d3 bd 7f 9c ae 3c
       -0.13372217 0.06670399 -0.10342688 0.021314858
000350 30 69 0f be 3d dc 3b 3e fc 53 b8 bd b6 5b 64 bd
       -0.1400497 0.18345733 -0.09000394 -0.055751525
000360 c0 2f 25 be b1 6b 75 3d 65 86 1d bd 95 e2 23 be
       -0.16131496 0.059917156 -0.038458247 -0.16004403
000370 24 02 c4 bd fa f5 57 be 56 fd ca bd 1e 1c 1c be
       -0.09570721 -0.21089926 -0.09911601 -0.15245101
000380 29 71 b9 bd 49 c2 17 be 81 3f ea 3c b5 44 01 be
       -0.09054787 -0.14820208 0.028594734 -0.12623866
000390 4e b6 c4 3c 60 26 e8 3c cb af 84 bd a5 99 13 bd
       0.02401271 0.028338611 -0.06478842 -0.0360352
0003a0 03 c0 5c bd 58 37 0e 3d ca 28 d5 3d b9 3d bb bd
       -0.053894054 0.03472075 0.104081705 -0.09142632
0003b0 f8 b8 fa bc b3 88 cb bd cb 8c ce 3c e8 e4 3f be
       -0.030605778 -0.09938183 0.02521362 -0.18739665
0003c0 99 f7 00 3d 89 cf b5 3d a2 81 57 3d f2 ca fb bd
       0.031486128 0.08877475 0.05261386 -0.12294568
0003d0 3f 86 aa bd 96 a4 93 bd 20 f1 11 be e3 ce 49 3e
       -0.08326387 -0.07209127 -0.14252138 0.19707827
0003e0 e2 04 30 bd e1 26 14 3e a0 60 ec 3b 40 a2 c4 bc
       -0.042973407 0.14467956 0.007213667 -0.024003148
0003f0 4f c6 e4 bd 2f 72 20 3d 43 ec 2f 3e 37 ce 79 3e
       -0.11170637 0.039171394 0.1717997 0.24395071

fc1.bias f4 [128]
000000 f2 38 0a bd 2f bc 7a 3e a3 3a 28 3e 47 cf 8f 3e
       -0.033745714 0.24485849 0.16428618 0.28087828
000010 88 0a 1e 3e e7 43 14 3e 54 ed 48 3e 56 fc 90 bd
       0.15433705 0.14479028 0.19621783 -0.07079379
000020 f4 2e cc 3a c7 e9 ff bc b8 50 12 3e e6 c5 3e 3e
       0.0015577958 -0.031239403 0.14288604 0.1863018
000030 46 f1 e6 bd 90 bf ed bd 3a 34 5c 3e d6 e9 14 3e
       -0.11276488 -0.11608803 0.21504298 0.14542326
000040 c0 d2 9a bd d1 6a 0a 3e 91 ff 89 bc d9 13 db 3c
       -0.075597286 0.1351731 -0.016845496 0.026742863
000050 af 55 09 3e 25 b2 a3 3e 05 61 e7 3d 9f 7e 4c 3e
       0.13411592 0.3197185 0.11297802 0.19970177
000060 70 8c 1b 3e 3f 2c d3 3d d4 65 d1 bd 91 77 0c be
       0.15190291 0.10311174 -0.102245 -0.13717486
000070 1b e9 9c 3e 9f e7 c2 3e 3e 3d 2d 3e d8 76 b4 bb
       0.30646595 0.38067338 0.16917893 -0.0055073313
000080 d7 e4 80 bd 57 84 6c 3e f2 2f 4d 3d e8 4b 61 3e
       -0.06293648 0.23097359 0.050094552 0.22001612
000090 1c 4b 91 bc 28 a8 05 3d 1e a4 06 3e 01 51 3a bd
       -0.01773601 0.03263107 0.13148543 -0.045487408
0000a0 93 41 4f 3e e6 e0 59 3e 33 65 1f bd da ef b3 3e
       0.20239858 0.21277198 -0.03891487 0.3514393
0000b0 d5 c5 11 bc d7 9a 1b 3d 9c ec ad 3c 29 fd c0 bd
       -0.0088972645 0.037989464 0.021230988 -0.094232865
0000c0 e1 c2 28 be e5 df 94 3d 7c 9c b4 bd a7 5a 78 bc
       -0.1648059 0.07269267 -0.088189095 -0.015158332
0000d0 9c b0 d7 3d 5e 4c ef bd d5 28 1d 3e bd 5b 33 be
       0.105317324 -0.11684488 0.15347607 -0.17515464
0000e0 9a cb 59 3d d6 7e bd bd 0c 99 72 3e f0 02 3e 3d
       0.053172685 -0.09252708 0.23691195 0.04638952
0000f0 db 7f 5e bb 3d d7 c6 bd b4 7a 68 bd 88 71 8d 3e
       -0.003395072 -0.09709022 -0.056757644 0.2762568
000100 21 6a ab bd 32 c8 a2 3d b8 3b 10 3c 51 bb 26 be
       -0.08369852 0.079483405 0.008803301 -0.16282393
000110 2e de d3 bd 2d e8 a7 3b ac 1f 3d 3e 57 2f ff 3d
       -0.10345112 0.005124113 0.18469113 0.12460201
000120 b0 36 a9 3d 4f 7b 90 3d 36 36 d8 3d 36 01 90 3e
       0.08262384 0.07054769 0.10557215 0.28125924
000130 08 26 db bd a3 cd b3 3d 81 65 4e bd 66 15 4e bd
       -0.10700613 0.087794565 -0.05038977 -0.050313376
000140 ef 0b 8d 3c c7 06 91 3e 04 3b 68 3e 05 83 0b 3e
       0.017217604 0.28325483 0.22678763 0.13624199
000150 65 12 0a 3d 5f f4 87 3e 6d 4c de bc b3 3e 88 3e
       0.03370895 0.26553628 -0.027136052 0.26610336
000160 e1 bf f6 bd e7 6f 45 3e 36 85 62 bd d3 98 ff bb
       -0.12048317 0.19280969 -0.05530282 -0.0078002005
000170 ec 85 0a 3e 7c fa 86 3d c7 7e 91 3e cb 65 88 3e
       0.1352765 0.06590745 0.28417036 0.26640162
000180 02 ed a0 3e be 4d e6 bd cd d1 73 3d cb 2c 46 3e
       0.31430823 -0.11245297 0.059526253 0.19353025
000190 f6 91 78 3e cc 2a ac 3e 70 11 14 3e 42 a9 48 3d
       0.2427443 0.336264 0.14459777 0.04898954
0001a0 94 76 3a 3d 03 74 e8 bd 00 b9 57 3e dc de a8 3e
       0.04552324 -0.113502525 0.21066666 0.32982528
0001b0 37 cc 3d 3e 82 2b 48 3c d5 0c 64 3e 48 ab ea bd
       0.18534933 0.012217404 0.2227052 -0.114584506
0001c0 b0 da 20 3e bf c5 b0 3e f8 c0 0b 3e d1 42 64 3e
       0.15708423 0.34525868 0.1364783 0.22291113
0001d0 9b 00 85 bd dd ad ef 3e 0e bd 85 bd 6a b7 ae 3c
       -0.06494256 0.46812335 -0.065302 0.021327693
0001e0 81 fa 0b be 34 29 f3 bc 3a a5 84 bd 72 1c 83 3c
       -0.13669778 -0.029682733 -0.06476827 0.016004775
0001f0 6a a2 17 3e 58 ba 56 3e e1 52 cd 3d 47 23 28 bd
       0.1480805 0.20969522 0.100255735 -0.041049268

fc2.weight f4 [64, 128]
000000 5e 26 84 bd 57 81 24 3d 2c c5 cf 3c 29 f7 77 3d
       -0.064526305 0.04016241 0.025362574 0.060538445
000010 81 69 b7 bd be 47 37 3d ca 2b fb 3c 8f f3 ea 3c
       -0.0895567 0.044746153 0.030660529 0.02868059
000020 39 07 d3 3c 6b 81 22 bd 44 6d b4 bd c0 28 db 3b
       0.02576028 -0.039674204 -0.08809903 0.0066882074
000030 20 44 9b 3d 8c 39 5e bd 49 97 56 bd 31 86 9d bd
       0.07581353 -0.0542541 -0.05239037 -0.076916106
000040 53 3d 92 3c 8b 39 6c 3c ba 99 70 3d db ec 02 bc
       0.017851507 0.014418016 0.058740355 -0.007991041
000050 a9 b3 a6 3a 62 46 41 bd 8e f3 18 bd a3 e4 90 3d
       0.0012718338 -0.047186263 -0.037341647 0.07074859
000060 6a 3e 88 3d 2a 2e 59 3c 07 0b 06 3d f0 b5 1f bc
       0.066525295 0.013255635 0.03272536 -0.009747967
000070 c9 02 91 3d aa 4b 53 3d a0 5a 2a 3b 06 b1 40 3d
       0.07080609 0.05158583 0.0025993958 0.047043823
000080 ce 11 d8 bc be 2a 63 bd b4 8a ed 3a 42 a3 86 bd
       -0.026375677 -0.055460684 0.0018123002 -0.06574108
000090 67 c0 ac bd e0 6b b4 bd 29 d9 4c bd 3e fc b6 bb
       -0.08435135 -0.08809638 -0.050011788 -0.005584269
0000a0 93 e4 86 bc 64 e0 71 bd 78 65 17 3d 10 13 5c bd
       -0.016466415 -0.059051886 0.036962003 -0.053729117
0000b0 50 20 9f bc 20 be 34 bd d0 57 ac 3c ef 50 af bd
       -0.019424587 -0.04412663 0.021037966 -0.08560359
0000c0 57 c3 84 bc fb c5 af bd 2d 37 3b bc 82 67 37 3d
       -0.016206427 -0.08582684 -0.011426729 0.044776447
0000d0 15 05 0b 3d c8 bd b6 bd 49 6d 2a bd 9e a2 7f 3d
       0.033940393 -0.08922917 -0.04160813 0.062410943
0000e0 72 88 99 bd 45 05 f7 3c 52 29 61 bd 54 eb a1 3c
       -0.07496728 0.03015388 -0.054971047 0.019765534
0000f0 0f 26 59 bd db 74 83 3d 5e 8c 9b bd 46 24 d5 3c
       -0.05301481 0.06418773 -0.07595132 0.026018273
000100 74 45 5f bd 2e 4f 36 3d c1 4c 86 3c 47 e0 ae bd
       -0.054509595 0.044509105 0.016394021 -0.08538871
000110 7e 34 5c 3d a2 ce 36 3d 67 35 2a bc 23 6e 8e bd
       0.053760998 0.044630654 -0.010388709 -0.06954601
000120 de a8 10 3c c2 b8 21 bd a0 0a 37 bd 81 ab 29 bd
       0.008829324 -0.03948284 -0.044687867 -0.041423324
000130 9a d0 2d bd 0a e1 81 bd ee 4c 01 3d 06 f3 41 3c
       -0.042435266 -0.06341751 0.031567506 0.011837726
000140 12 75 1a bd 1d 55 4f bd 6f c8 ac 3d cb d6 8c bd
       -0.037709303 -0.05061828 0.08436667 -0.06876906
000150 a2 ef 36 3d 61 32 85 bd 24 7d 16 3c 60 94 b2 bc
       0.044662125 -0.0650375 0.009185109 -0.021799266
000160 05 47 9e bd 7e f9 e3 bc 12 e7 7b 3d ed fb 27 bd
       -0.0772839 -0.027828928 0.061499663 -0.04101174
000170 97 9a 7f bc 3b 23 6c bd 8c 3a 4b 3d d8 32 a1 bd
       -0.015600822 -0.057650786 0.04961638 -0.07871026
000180 61 96 d2 bb db 32 05 bd 72 67 86 3d 25 78 89 bd
       -0.006426618 -0.032519203 0.065626994 -0.06712369
000190 67 cd 93 bd 5d 5c 89 bd 6d 6c 87 3d 88 a9 11 3c
       -0.07216912 -0.0670707 0.066124775 0.008890517
0001a0 86 73 c3 bd da f3 9f 3d 0d a2 b3 bd f8 5f 32 3c
       -0.09543519 0.07810183 -0.08771143 0.010887139
0001b0 3a 1c 3d 3d 70 af 06 bd 21 03 ad bd ca 95 18 bd
       0.046169497 -0.032882154 -0.084478624 -0.037252225
0001c0 24 87 b7 bd 04 ec 69 bd 20 dd 2c 3c db 0c 36 bd
       -0.08961323 -0.057109848 0.010550767 -0.044445854
0001d0 da a0 58 3d d2 27 5e 3d f2 b3 42 bd b2 6c 3f bb
       0.052887775 0.054237194 -0.04753489 -0.0029209075
0001e0 21 30 77 bc 39 79 56 3d 60 35 c5 3c 28 bb ba bc
       -0.015087158 0.0523617 0.024073303 -0.022794321
0001f0 87 35 64 3b 31 13 09 3d da fe 06 3d e0 db 1e bc
       0.0034821944 0.033465568 0.03295789 -0.009695977
000200 8f fc 83 3d b3 87 1f 3d f4 b0 71 bd 11 26 1b 3e
       0.06444656 0.038947772 -0.059006646 0.1515124
000210 ee 7d 6a 3c 24 52 4a 3d 00 4b 0c 3e af cf 83 3d
       0.014312251 0.04939474 0.13700485 0.06436097
000220 90 1b 9f 3d 67 d2 f8 bc 67 c1 9e bd 51 7a 73 bc
       0.07768929 -0.030373765 -0.07751732 -0.0148607055
000230 73 bd a9 b8 81 fe 63 3c 8f f1 b5 3b 65 67 c1 3d
       -8.093836e-05 0.013915659 0.0055524777 0.09443549
000240 ab c4 ba bc 74 c0 61 bd 7c f6 b1 bd 91 b4 1e 3e
       -0.022798857 -0.05511518 -0.08689591 0.15498568
000250 ae 33 38 3d 15 4a 15 3d 2e 3c 07 be 6a d1 5d 3c
       0.04497116 0.036447603 -0.1320655 0.013538698
000260 88 9d 4a bd 79 83 d3 bd d0 55 9c bb ab 70 49 3d
       -0.04946664 -0.10327811 -0.004770972 0.049179714
000270 4d 6a 1e 3e 52 41 a7 bd b8 ae c4 bd d5 fb ab 3c
       0.15470238 -0.08166756 -0.096036375 0.020994106
000280 3c 2d 1a 3d d1 f5 4a 3d 5c 90 e7 3d e7 e1 60 bd
       0.037640795 0.049550835 0.11306831 -0.054902937
000290 bd b5 41 3c ac 2f 5f bc 8f fe 4b 3d 99 05 cb bc
       0.011823115 -0.013622206 0.049803313 -0.024782943
0002a0 77 38 a0 3d b5 b2 94 3d 02 60 10 bd 34 01 83 3d
       0.0782327 0.07260648 -0.03524781 0.06396714
0002b0 83 63 91 3d d7 f6 8d 3d ce 07 30 bd a7 63 92 bd
       0.070990585 0.069318466 -0.042976193 -0.071479134
0002c0 36 cc 1f 3c 51 84 42 bd 41 5a cd 3a d8 93 a2 3d
       0.0097532775 -0.047489468 0.0015667157 0.07938355
0002d0 ac 60 80 bc a0 14 36 bd 7c 0c 0e 3d 42 7c 76 bd
       -0.015671097 -0.044453263 0.034679875 -0.060177095
0002e0 c3 85 0a 3d 8f 92 b8 3d f3 32 99 bd f8 97 e0 3d
       0.03381897 0.09012329 -0.07480421 0.10966486
0002f0 f5 c3 85 3d 4f 2a ed bd 91 9f f5 bd 80 16 da 3d
       0.065315165 -0.11580335 -0.119933255 0.10648823
000300 b5 30 bf 3b 20 51 2d 3e 2a 62 c5 bd db 31 39 3d
       0.0058346638 0.16925478 -0.09637864 0.04521356
000310 59 ff d0 3c 8e 64 94 3d a7 0a 18 3d 50 32 d4 bd
       0.025512384 0.07245742 0.037119534 -0.10361159
000320 2e fb a6 bc cd 1a d7 3c 65 ed e9 3c 3b 80 76 bc
       -0.020383444 0.026257897 0.028555581 -0.015045221
000330 36 7a 45 bc c9 05 04 be 12 00 bd 3d bd f4 a9 bc
       -0.012053063 -0.12892832 0.09228529 -0.020746583
000340 5d 34 99 3c 26 ab 42 3d fb 2b ee bd 82 16 19 3e
       0.018701727 0.0475265 -0.11629482 0.14949992
000350 b8 e0 b5 bd 71 f6 ce 3d 25 85 bf bc 0a 07 c1 3d
       -0.08880752 0.10105599 -0.023378918 0.09425171
000360 a6 ab 21 3e 83 64 b4 3d d0 15 15 3e 7e 03 c1 bb
       0.15788135 0.088082336 0.14559102 -0.005890309
000370 f7 ab 03 3e fd 19 fe 3d 10 e2 c4 3b 08 37 08 bd
       0.12858568 0.124073006 0.006008394 -0.033255607
000380 36 42 83 3e 63 6c 66 3c 86 8c 83 bc 58 14 88 3d
       0.25636452 0.014063927 -0.016058218 0.06644505
000390 2b cf 46 bd 53 45 36 bc f8 e3 0d 3d 47 8f 8d 3c
       -0.048537415 -0.011124927 0.034641236 0.017280234
0003a0 04 31 94 3d 92 f2 0b 3e 00 25 0e 3d cf 47 48 bc
       0.072359115 0.13666752 0.034703255 -0.012224152
0003b0 4a 4b f9 ba 0c 1f 67 3d 79 07 9a 3b 27 88 68 bd
       -0.001901963 0.056426093 0.004700598 -0.05677047
0003c0 72 95 98 3a 99 57 10 3e 08 b7 ad 3c c6 34 85 3d
       0.0011641218 0.14095916 0.02120544 0.06504206
0003d0 e0 a9 21 3e 79 0f 8b bd 8c ac 39 3c 7d 27 35 bb
       0.15787458 -0.067900605 0.011332642 -0.0027641945
0003e0 1d 5a 38 bc 25 12 0b bd d7 cb 56 bc 9b 89 e3 3a
       -0.011251953 -0.03395285 -0.013110123 0.0017359735
0003f0 fa 42 de bd 9a fb 20 bd c4 5f d2 bc ac dd 38 bb
       -0.108526185 -0.039302446 -0.02568043 -0.0028208299

fc2.bias f4 [64]
000000 d5 1b 49 bd fe 62 97 bc 92 b7 a2 bd 8b 79 1f 3e
       -0.04909881 -0.01847982 -0.079451695 0.15573709
000010 2c c2 74 bd 9d 96 cf 3d 4d 5c 66 3d ed bb 98 3c
       -0.05975549 0.10136149 0.05624037 0.018644297
000020 5b ff 89 bd 44 c8 b4 3d 31 63 37 bd 04 74 d5 3d
       -0.06738158 0.0882726 -0.04477233 0.10422519
000030 cf 5a b9 3d 96 f7 b1 3d ee 69 97 3d f3 0a 8b bd
       0.090505235 0.086898014 0.07393251 -0.06789198
000040 e6 65 11 3e b6 4b 3c 3d bc 72 10 3e 31 df 02 bd
       0.14199027 0.04597064 0.14106268 -0.031951133
000050 0e 5a 30 bb 26 74 6c bd b3 3b f1 3c 82 d6 2f 3e
       -0.0026909146 -0.057727955 0.029447412 0.17171672
000060 ab 0e 72 bd 9f d8 32 bd fb 7b 0a bd e8 1b ad bd
       -0.05909602 -0.043663617 -0.033809643 -0.08452588
000070 5d ea 92 3d d3 67 9e bc f4 c7 c4 bd 72 df 9f 3d
       0.071736075 -0.019336617 -0.096084505 0.07806291
000080 45 83 e6 3d c9 b6 96 bb 8d 48 b7 3c 05 20 ae bd
       0.112555064 -0.0045994264 0.022373462 -0.08502201
000090 9a 11 da 3c 23 3c 90 bd e0 73 22 3e 8c af 04 3e
       0.026619721 -0.0704272 0.15864515 0.12957591
0000a0 a1 37 6a bd f3 a9 10 3e 54 09 a3 3b 97 a2 b4 3d
       -0.057181958 0.1412733 0.0049754772 0.08820074
0000b0 2b 35 2a bd 4c 2e 33 bc 6c 4f ab 3d d4 89 0b bd
       -0.04155461 -0.010936331 0.08364758 -0.03406699
0000c0 c9 2b 9e bd 3e 8e 0f 3d 49 a3 6b 3d 2c 9c 1d 3e
       -0.07723195 0.035047762 0.057528768 0.15391606
0000d0 99 b4 9a bd 72 a1 f6 3b b4 c9 04 3d bc 94 07 3e
       -0.075539775 0.00752657 0.03241892 0.13240331
0000e0 8d 21 1e 3e dd 24 af bd 21 14 9f bd 41 ff c0 3d
       0.15442486 -0.08551953 -0.07767511 0.09423686
0000f0 b4 5a 59 3d 6e d6 54 3d 27 57 0a 3d 44 81 20 3e
       0.053065017 0.05196231 0.03377452 0.15674311

fc3.weight f4 [7, 64]
000000 36 4d a7 3c f2 3f 90 bd 39 1f c8 3c 9b 67 89 3d
       0.02042256 -0.070434466 0.02442895 0.06709214
000010 b6 d9 aa 3c 36 64 3a bd 6f 9d 8b 3d 4c f8 17 bd
       0.020855766 -0.045505725 0.068171374 -0.03710203
000020 d8 93 9a bd cb 7b e5 3d 37 04 b0 3d 63 4e bf 3d
       -0.0754773 0.11205252 0.08594554 0.09341123
000030 a8 ac e5 3d 42 e8 c1 3c b9 30 e3 bc 28 b9 c6 bd
       0.11214572 0.02367032 -0.027733194 -0.097032845
000040 42 7c c7 3d 1a 66 bc 3d f5 6d 6e 3e 62 aa 94 bb
       0.09740497 0.09199162 0.23284133 -0.004536913
000050 4c dc 0a bd db 59 fc bc 48 c3 fd 3d 32 fc 8c 3d
       -0.033901498 -0.030804565 0.123907626 0.0688404
000060 67 5b 91 3d 26 33 87 3d ae 54 9b bd 80 6b 97 bd
       0.07097512 0.06601553 -0.07584511 -0.07393551
000070 db 9d b7 bd 01 98 78 bd 74 af b6 bd 6a 5a f6 3d
       -0.089656554 -0.060691837 -0.08920184 0.12028964
000080 48 e0 a2 3d 99 ea b2 bc 69 6b 2c bd 39 dc bf bd
       0.079529345 -0.02184038 -0.04209462 -0.09368176
000090 67 04 33 3b 04 8c b1 bc df 82 27 3e 82 de 7b 3d
       0.0027315856 -0.02167321 0.16358517 0.061491497
0000a0 51 56 b4 3d de a3 c3 bd fd 95 6d bd 98 be e7 3d
       0.08805526 -0.095527396 -0.058004368 0.1131565
0000b0 09 80 57 3d fc ff 54 bc f5 1f 00 3e 29 d5 04 3d
       0.05261234 -0.013000485 0.1251219 0.032429848
0000c0 6b bf c6 bd 68 f6 88 bd 54 f4 77 bc 2f e5 bd 3d
       -0.09704479 -0.06687623 -0.015133936 0.09272229
0000d0 0c 83 3f 3b e3 06 85 3d 38 03 58 bd 7d 20 f3 3d
       0.0029222397 0.06495454 -0.052737445 0.11871431
0000e0 a9 2d 2a bc 95 d9 37 3e e2 db e8 3d db 6f 10 3e
       -0.010386863 0.17954095 0.11370064 0.1410517
0000f0 c4 53 de 3d 2b d5 bd 3d 14 f1 0b 3e 27 fb 43 3e
       0.10855821 0.09269174 0.13666183 0.19138776
000100 e8 35 a2 bc 15 fb d3 3d 78 ff 1a bd ed 5a e6 3d
       -0.019801095 0.103506245 -0.03784129 0.112478115
000110 15 cd 98 3b cf 19 1f 3e ad c8 c3 3c 8b d0 39 3d
       0.0046631196 0.15537189 0.0238994 0.045364898
000120 36 41 52 3d 8e 48 32 3d 7f b6 e3 bc 8a 20 26 3e
       0.05133172 0.043526225 -0.027796982 0.1622335
000130 e6 2e 27 3e d4 66 9a 3d 57 b9 ae bd e7 23 0f 3d
       0.16326484 0.07539144 -0.085314445 0.03494635
000140 1b e1 19 3e 04 61 e8 3d f6 51 be bd 13 a0 88 3d
       0.15027277 0.11346629 -0.092929766 0.06671157
000150 84 9f fa bd c4 79 d8 3c ba f1 fb 3c 07 12 04 3e
       -0.122374564 0.02642525 0.030754913 0.12897502
000160 24 da 06 3d 4a e0 11 3d 46 1a 67 bd 3a 28 1c bd
       0.03292288 0.03561429 -0.05642154 -0.0381243
000170 ba c4 12 3e 1f 8a 78 3c a8 a1 61 3d f3 77 1f bd
       0.14332858 0.015169649 0.055085808 -0.038932752
000180 8c dc 57 3e cb 26 59 bc 7e f7 b4 bd 06 46 b2 3d
       0.21080226 -0.013253878 -0.08836268 0.08704762
000190 18 34 16 3d 94 b8 81 bd 96 87 81 3d 67 c5 18 3e
       0.036670774 -0.063340336 0.06324689 0.14919053
0001a0 f7 a6 24 3d aa e2 40 3e f5 8b b4 3d 99 5d c5 3d
       0.040198293 0.18836465 0.08815757 0.09636993
0001b0 76 bc 00 3e 58 c0 f3 3b f6 d6 93 3d 34 19 4a 3d
       0.12571892 0.0074387006 0.07218735 0.04934044
0001c0 5b 8b 71 bd 24 40 39 bd b2 0a c2 bd f0 17 e6 3c
       -0.05897079 -0.045227185 -0.09474696 0.028087586
0001d0 34 fc ea bb 96 ee 99 bd 58 15 6f 3d 0d 99 04 3e
       -0.0071711782 -0.0751621 0.058369964 0.12949009
0001e0 0f 2b 96 3d a9 38 d6 bd f2 d8 ca 3c 32 5f e5 3d
       0.073324315 -0.10460026 0.02476165 0.11199798
0001f0 28 6a fd bd 06 c3 39 bb 35 67 ec 3d 7f a2 a3 3d
       -0.12373763 -0.0028345003 0.11543123 0.07989978
000200 be 12 cd bd 70 6c be 3c 42 f4 9c 3d b5 a7 8f 3d
       -0.100133404 0.023245066 0.07663776 0.070144095
000210 1f 26 c1 bd f4 c2 db 3d 65 df 6f 3d 61 28 5e 3d
       -0.09431099 0.10730544 0.058562655 0.054237727
000220 7d c1 e9 bd dd 81 13 3e 5b f5 09 3d 3a ff 2e bd
       -0.11413858 0.14405008 0.033681255 -0.04272387
000230 47 11 d2 3d 65 66 84 3d 93 75 85 3d e3 bd 26 bd
       0.10257202 0.06464843 0.06516566 -0.040708434
000240 73 5d 93 3d eb 68 02 bd 77 82 0b 3d 3f 75 b3 3d
       0.071955584 -0.03183834 0.034059968 0.08762597
000250 15 80 06 3e 7f 05 9a 3d 2e f6 36 3c 60 2b 8b 3e
       0.13134797 0.075205795 0.011167092 0.2718153
000260 10 c8 4d be d7 dc 94 bc 68 b5 4e bc 88 38 a6 3d
       -0.20095849 -0.01817171 -0.012616493 0.08116251
000270 7a 9e 77 3d d8 8c 76 bc e0 c3 bd bb 89 35 b5 3d
       0.06045387 -0.015048228 -0.0057911724 0.08848102
000280 42 b1 d9 3d e0 5a 84 3d cf 2f f7 3c 56 c2 0a bd
       0.10629512 0.064626455 0.030174164 -0.03387674
000290 b6 14 93 3d 7e 91 b8 bd 99 33 01 3e 01 3b f4 3d
       0.07181685 -0.090121254 0.12617339 0.119253166
0002a0 3f 25 be 3d 39 32 db bc c2 1d a6 bd 1f 95 02 3c
       0.09284448 -0.026757346 -0.081111446 0.007970124
0002b0 00 71 73 3d b8 d0 cd 3d 66 6b 08 3e 9b 67 fd bc
       0.059433937 0.100495756 0.13322219 -0.030933192
0002c0 41 41 81 bd 02 d2 ea 3c 46 33 83 3c 64 87 e2 bc
       -0.06311274 0.028664593 0.01601566 -0.02765245
0002d0 15 c5 09 3e cd 00 f7 3d 90 0f d1 bc 39 9f f6 3d
       0.13454087 0.120606996 -0.025520116 0.12042088
0002e0 98 a3 d3 3d b6 9f e3 3d 54 fb fd 3c c1 29 17 3d
       0.103339374 0.11114447 0.031003632 0.036905054
0002f0 31 22 f2 3d f7 15 bc bd 21 eb fd 3d 8c 5d e1 3b
       0.11822928 -0.09183877 0.12398363 0.0068776067
000300 20 f8 c6 3b 51 d9 13 3e ef b1 1f 3e 6e 63 12 3d
       0.0060720593 0.14438368 0.1559522 0.035739355
000310 f3 09 ce 3c 1e 55 cf 3d 3e 3a d9 bc 40 52 b0 bd
       0.025151229 0.10123657 -0.02651703 -0.08609438
000320 14 4d 5c bd 37 7d ba bd b8 f8 38 bd 9d d0 cb bd
       -0.053784445 -0.09105914 -0.04515907 -0.09951899
000330 61 5d 1b 3d ac 8b be 3d 62 f0 ed 3d b8 ad 02 3e
       0.03793085 0.09303984 0.11618115 0.12761581
000340 3a ac fb 3d a8 cd 2f 3e c3 84 0b 3e fd 68 6c bc
       0.12288709 0.17168295 0.13624863 -0.014429328
000350 62 d2 77 bc d9 0c cb 3d 7a be e3 3d 4d 24 6c 3e
       -0.015125843 0.0991456 0.11120315 0.23060723
000360 9a 86 86 bd 59 d1 8a 3d db db aa bd 6a ad b5 3d
       -0.06568642 0.06778211 -0.08342715 0.08870967
000370 bf ad 19 3e 81 bf 5b 3c 50 26 1a bc 9e d5 12 bd
       0.15007685 0.013412357 -0.0094085485 -0.035848252
000380 40 fb 78 3d 93 ec 67 3c cc c1 75 bd 0f 99 63 bd
       0.060786486 0.014155525 -0.059999272 -0.05556589
000390 b9 51 63 bd f7 67 06 bd 38 b7 91 bd d6 92 bc 3d
       -0.05549786 -0.032813992 -0.07115024 0.09207694
0003a0 be a0 79 be ab 76 72 3e c4 60 2f 3c e4 41 d2 3d
       -0.24377725 0.2367808 0.010704223 0.10266474
0003b0 22 1f 0e be 65 77 2e 3e ac 2f 22 be ea 30 95 bc
       -0.13879064 0.17037733 -0.15838498 -0.0182118
0003c0 d4 6c 99 bd b8 1c 9c bd 19 ff 01 3e 72 a5 b3 3d
       -0.074914604 -0.07622665 0.12694968 0.087717906
0003d0 1d 7f e0 3c 1b 57 1d be 02 21 fb 3c d5 6f e6 3d
       0.027404362 -0.1536526 0.030655388 0.11251799
0003e0 06 6e 1e 3e 7b 08 de bb 50 f8 68 3d 6b e2 8e 3d
       0.15471658 -0.0067759133 0.056877434 0.069767796
0003f0 30 42 1e bd 5d 6b 45 bc 94 7c 3f bd 59 f2 fd 3d
       -0.03863734 -0.012049523 -0.046749666 0.1239974

fc3.bias f4 [7]
000000 58 6d 20 3d dc d4 32 bb 61 32 b0 3c 65 fd 2f 3e
       0.03916678 -0.0027287519 0.021508398 0.17186506
000010 50 b6 b0 3d 27 c1 5d bc 32 23 93 3d
       0.08628523 -0.013534821 0.07184447
