output/dqn/episode_100/model_weights.pth (torch, 59972 bytes, 6 tensors)

fc1.weight f4 [128, 43]
000000 f5 c0 f5 3d 8b ec e5 3d 63 48 0f be ec 04 c5 3c
       0.11999694 0.112267576 -0.13992457 0.024050198
000010 61 66 eb 3d a8 1e b6 bb b4 15 f2 bc 6a 58 8b 3d
       0.114941366 -0.0055578537 -0.029551364 0.06803973
000020 66 1e ea bd f9 ef 17 3e db 20 87 bd c4 90 62 bd
       -0.11431579 0.14837636 -0.065980636 -0.05531384
000030 fd de 47 3b b0 0e e2 3c a6 c7 92 bd cd 33 9d bc
       0.0030497902 0.027594894 -0.07166986 -0.01918974
000040 da 52 86 3d 7a da 85 3d c1 59 08 be 43 09 f6 bc
       0.065587714 0.06535812 -0.13315488 -0.030033713
000050 14 05 02 bd f7 97 8f bd 6f 29 05 be 46 b8 da bb
       -0.031743124 -0.07011407 -0.13004087 -0.006674799
000060 0c 62 2a bd a7 e4 f1 3c 39 a9 5f bb 34 e1 d5 bd
       -0.04159741 0.029527975 -0.0034127964 -0.10443345
000070 c8 4f 0b 3e bd 98 1d be 2c 76 89 3d bd ae 22 3d
       0.13604653 -0.15390296 0.067119926 0.039717425
000080 0b 76 d6 bd ee ee 06 3d 78 7f dc bd 11 29 91 bd
       -0.10471734 0.032942705 -0.107665 -0.07087911
000090 5c c1 2a 3d e8 42 ba 3d cc 4b 48 bd 00 50 87 bd
       0.041688308 0.090947926 -0.04890041 -0.06607056
0000a0 15 fe b6 bc d0 47 20 3c 6a 31 4c be 17 e3 9e bd
       -0.022337953 0.009782746 -0.19940725 -0.07758158
0000b0 b9 b0 f6 3d d6 ba 0d 3d b6 52 b8 3d 86 9d 2b 3e
       0.12045426 0.03460201 0.09000151 0.16759309
0000c0 c3 df 81 3c b2 ea b7 bd b4 ad 57 bc b7 9d 42 3e
       0.015853768 -0.089803115 -0.013163973 0.19005476
0000d0 2e 6c 04 3d bf 14 04 bd 9a 3b 21 3e 96 4a ee bb
       0.03232973 -0.032246348 0.15745392 -0.007272075
0000e0 fc cf 36 3d 88 e0 af 3d 78 f1 ed bd ef 70 4f bd
       0.044631943 0.08587748 -0.11618322 -0.05064481
0000f0 76 bc 96 3d 7a 4c ce bd 27 b9 27 be 94 ef f2 bd
       0.07360165 -0.100731805 -0.16379224 -0.11862102
000100 74 49 c8 bd 18 52 a1 3c f2 8c 1e bd bd fc 32 3d
       -0.09779635 0.019692466 -0.038708635 0.04369806
000110 83 b3 97 3d dd d0 07 be e2 97 04 3e 3c 2b 1c 3e
       0.07407286 -0.13263269 0.12948564 0.15250868
000120 c1 c8 da bd df 3f 2b bd c5 88 07 3e 81 93 e9 3d
       -0.10682822 -0.04180896 0.13235767 0.11405087
000130 9e 62 a0 b8 20 0c 0c 3c 82 9d 01 3e 10 9c b8 bb
       -7.6477634e-05 0.008547813 0.1265774 -0.0056338385
000140 d4 5c fd 3c 3b c1 03 be 9d b7 c2 bd 14 21 56 bd
       0.030928053 -0.1286668 -0.09507678 -0.05227764
000150 08 95 be bc a5 f4 fb 3c fb 2f 81 bd 1e 75 1f 3d
       -0.023264423 0.030756304 -0.0630798 0.03893005
000160 ad 12 7f 3d 02 11 c3 bd 79 4e b1 3d 69 32 b2 bd
       0.06227367 -0.09524728 0.086575456 -0.08701021
000170 38 40 b0 3d 77 8e 0e be 0e 55 6a bb 90 21 9e 3d
       0.08605999 -0.13921534 -0.0035756263 0.07721245
000180 eb ce 74 bd 75 56 ca 3d f3 3d cf bc dc 4c 42 bd
       -0.059767645 0.098797716 -0.025298094 -0.04743658
000190 bd 8f 54 bc f6 18 08 be 5a 6a 10 bd 17 90 9d 3d
       -0.012973723 -0.13290772 -0.035257675 0.076934986
0001a0 04 8e f9 3d 80 0e eb 3d bc 1d 42 3d 1d 71 d9 bd
       0.121852905 0.11477375 0.04739164 -0.10617278
0001b0 61 08 12 3e 04 f5 0c 3e bb 2d 0f 3d 47 33 ae b9
       0.14261009 0.13765341 0.03495572 -0.0003322607
0001c0 b2 fc 41 bc 8e e6 df bd f5 29 2c 3d bb ac 1d 3d
       -0.011840032 -0.10932647 0.0420322 0.038494807
0001d0 ea 23 9e 3d d3 1a 24 3d 0f 44 98 bd 68 36 a2 3d
       0.07721694 0.040064644 -0.07434856 0.079205334
0001e0 6c 10 29 3d f3 f2 cf 3c d0 7b 23 3e 7a 7b 84 bd
       0.041275427 0.025384402 0.159652 -0.06468864
0001f0 4c c8 eb bd 3b fd ef 3d 70 a4 ee bb fc ab ea bd
       -0.11512813 0.11718222 -0.007282786 -0.11458585
000200 d5 b6 01 3e a0 a4 11 be 9b 55 92 3d 62 64 2f bd
       0.12667401 -0.14222956 0.07145234 -0.042820342
000210 fd 86 9a 3d 30 5b f5 3c 2a a0 0c 3e 7c fe 03 be
       0.07545278 0.029950708 0.13732973 -0.12890047
000220 4b 1c 6e bd ca dd cb bc e0 b4 d5 bd c3 97 8a 3d
       -0.05813245 -0.02488603 -0.1043489 0.067672275
000230 8b 62 97 bd 1c bb 9a 3d dd 91 0e be 36 36 00 3e
       -0.073918425 0.075552195 -0.1392283 0.1252068
000240 1a 9a 25 bd a7 1d 6d bd fc da f6 bd 44 89 24 3d
       -0.040430166 -0.057889607 -0.12053487 0.04016997
000250 de 6a 00 3e c0 f5 f1 bc ec f6 07 be 77 3a b7 3c
       0.12540767 -0.029536128 -0.13277787 0.022366745
000260 20 28 7f 3d fc 60 aa 3c 0e 17 0f bc 82 99 05 3e
       0.062294126 0.020798199 -0.008733524 0.1304684
000270 e0 56 c0 3d 26 a7 79 3c 14 79 11 3d 46 2d af 3c
       0.0939157 0.015237605 0.03551586 0.021383893
000280 95 91 02 be 9f f6 05 3e 49 bb 51 3c 16 b1 15 3e
       -0.12750848 0.1308236 0.012801 0.14618334
000290 ed b3 05 3e 65 e0 cb 3b 00 85 ef bd f3 97 b5 3d
       0.13056917 0.0062218183 -0.116952896 0.08866873
0002a0 51 cd a6 bd 54 89 f5 3d e0 b2 18 bc 5e 99 14 bd
       -0.0814463 0.11989084 -0.009319991 -0.036279075
0002b0 cb af 56 3d f7 38 2c bd fc 6b fc 3d a1 02 c2 3c
       0.052413743 -0.042046513 0.12325284 0.023682894
0002c0 7d 47 82 bd db bf f5 3d 00 3a fc 39 63 4d bb bd
       -0.063612916 0.11999484 0.000481084 -0.0914562
0002d0 01 6c 79 bd 97 c8 b9 bd 7d 45 9b 3d d0 5e fa 3c
       -0.060894016 -0.090714626 0.07581613 0.030562788
0002e0 22 9d cd 3d 14 2e d3 bd 31 91 c3 3d 97 80 f0 3d
       0.10039736 -0.10311523 0.095491774 0.117432766
0002f0 38 c6 02 3e 59 71 16 3d a9 1d 97 bd 4d 9f a7 bd
       0.12770927 0.03672919 -0.07378704 -0.08184681
000300 ca ae 03 3e ee b9 1a 3e f6 d6 fd bc 45 d1 d2 bd
       0.12859645 0.15109989 -0.03098629 -0.10293821
000310 18 64 0d 3e d3 a6 fa 3d cd ce 96 bd b1 f0 82 bd
       0.13807714 0.122388504 -0.07363663 -0.063935645
000320 50 fd 2f 3e f5 a3 7d bd 61 03 17 3d 12 bb c0 bd
       0.17186475 -0.06192394 0.036868457 -0.09410681
000330 55 18 be bd 9f cb e6 bb 8f 2d f7 bd 73 79 f3 bd
       -0.09281985 -0.0070433165 -0.120692365 -0.11888399
000340 6c 20 14 3a 13 c6 1f 3e 1e f2 c4 bc 51 36 d2 3d
       0.0005650583 0.15602903 -0.024041232 0.10264266
000350 fd 51 20 bd ab 9f a4 bd 4e 4d 2a be 97 9c 90 3d
       -0.03914069 -0.08038267 -0.16631052 0.07061117
000360 95 b2 bd bc 0c f2 e9 bb 8e 9c aa bd 83 cb 2f be
       -0.023156444 -0.00713945 -0.08330642 -0.17167477
000370 94 c5 96 3d 80 d1 bd bb 3e a4 e4 3c 85 b2 10 be
       0.07361904 -0.0057927966 0.027910348 -0.141306
000380 0e 4d f8 bc 4f ad 7c 3d 0f db ca bc a2 66 07 3d
       -0.03031018 0.061688717 -0.024762658 0.033056863
000390 e8 20 48 bd 1a ff 0b be dd 64 11 3e 91 aa 9e 3d
       -0.048859507 -0.13671532 0.14198633 0.07747377
0003a0 95 18 05 be 9a 56 b5 3d 1b 80 42 3c 4e 40 ff bd
       -0.12997659 0.088544086 0.011871363 -0.12463437
0003b0 ea d2 32 3d 68 f6 06 be 81 5c 92 bd 63 66 a7 3d
       0.043658175 -0.13179934 -0.0714655 0.081738256
0003c0 26 b2 ce bd d6 68 c3 bd 8a 4a ed bd 97 d8 b5 bd
       -0.10092573 -0.0954148 -0.11586483 -0.08879202
0003d0 13 e6 1f be 8d 05 eb bd 44 c4 01 3e 39 c4 13 be
       -0.1561511 -0.11475668 0.12672526 -0.14430322
0003e0 f3 cc 2b bc f0 19 14 3e 2c 15 05 bd 8a 9a ed 3d
       -0.010485875 0.1446302 -0.032490894 0.116017416
0003f0 eb f2 11 3d 7d 6d b0 3d dc 25 cf 3d 51 30 dd bd
       0.035632055 0.08614633 0.10114643 -0.10800231

fc1.bias f4 [128]
000000 fc 08 c3 3c bd 25 4c bd 31 3c 8a bd 32 09 b0 bd
       0.023807995 -0.049840678 -0.06749762 -0.08595504
000010 86 65 cb bc 0e 3a 93 3d 43 70 1b 3d e9 1e b5 3d
       -0.024828684 0.071888074 0.037948858 0.08843786
000020 f6 34 19 3e 6a 02 92 bd 64 94 8d bd 8c 8c bb bd
       0.14961609 -0.07129367 -0.06913069 -0.091576666
000030 22 64 3e bb 3b 2c 37 3d ae 56 ef 3d 90 d4 1f 3e
       -0.0029051383 0.044719916 0.11686455 0.1560843
000040 d5 07 fb 3d f9 d9 0c 3e 35 bb 0c be 51 13 3f bd
       0.12257353 0.13755025 -0.13743289 -0.04664928
000050 87 6e 81 3d 87 3d c4 3d 2e 7a a4 bd 6e da c7 3c
       0.063199095 0.09582048 -0.080311164 0.024396148
000060 7a ab 71 3d c4 f5 03 3c 9a 5e 07 bd 64 ee a6 bc
       0.059001423 0.008054201 -0.033049203 -0.020377345
000070 b2 59 fb bc e7 50 20 be 39 dd 33 3e a5 40 30 3e
       -0.030682418 -0.15655862 0.17564858 0.1721216
000080 a8 37 08 3e cc 43 3a 3e e8 03 09 3e 5d b7 80 3d
       0.13302481 0.18189925 0.13380396 0.06284974
000090 e5 b0 11 3c d8 0b 63 3d 42 82 99 bd dc ec 8a 3c
       0.008892273 0.055431217 -0.07495548 0.016958646
0000a0 90 d4 c1 bd a7 8f 5a bd 7d 95 aa 3c 54 17 13 3e
       -0.09464371 -0.053359654 0.020823235 0.14364368
0000b0 73 53 fd bc 95 a8 29 3e 22 83 74 bd fa c2 25 3e
       -0.03092358 0.16568215 -0.05969537 0.16187659
0000c0 78 a8 14 3e c6 c1 88 3d b8 fd 88 3d 09 6d 13 3d
       0.1451739 0.06677584 0.06689018 0.035992656
0000d0 17 d3 9d 3c 22 b3 0c 3d 74 ff 25 3d 98 1e 9c 3c
       0.019265695 0.03435052 0.040526822 0.019057557
0000e0 96 08 85 3d f7 a2 03 3e 3a 15 fe 3d 81 c2 7d bd
       0.06495778 0.12855135 0.124063924 -0.06195307
0000f0 42 5c b3 bd 13 06 97 bc da 96 43 bd 10 c6 8f bd
       -0.08757831 -0.018435514 -0.047751285 -0.07020199
000100 d7 a7 5e 3c f2 c9 17 be 50 fd b7 3d 7a 9d a0 3c
       0.013589821 -0.1482313 0.089838624 0.01960634
000110 58 15 1d 3e 5f 02 fa 3d b6 c9 64 bb ff f8 28 bd
       0.15340173 0.122074835 -0.0034910268 -0.041253086
000120 ca 9c 7a bd 70 67 09 3e 07 cf 79 3c dd 47 c3 3d
       -0.061184682 0.13418365 0.015247113 0.09535191
000130 17 2d eb bd 8c cc 62 3d 7f 7d 3c bc 4b 8e c7 bc
       -0.114832096 0.055370852 -0.01150453 -0.024359843
000140 33 35 08 3e 9e cf 82 3d a1 6f 0f be 84 12 59 3d
       0.13301544 0.06387256 -0.14007427 0.052996174
000150 d9 43 d2 3d d3 18 04 3e 53 93 02 be a8 59 25 be
       0.10266847 0.12900095 -0.12751512 -0.16147482
000160 f9 d8 e3 3c 4b 65 44 bb 09 24 9f bd d5 53 aa 3c
       0.027813422 -0.0029967602 -0.07770545 0.020791927
000170 9b 35 2e 3e 05 4b c1 bd 08 24 69 3e 31 29 a4 bd
       0.17012636 -0.09438137 0.22767651 -0.08015669
000180 80 16 fa 3d c1 0b f2 bd c8 21 cf bc 0a c6 02 be
       0.12211323 -0.11818648 -0.025284663 -0.12770858
000190 6a ce 3d bd 91 93 c4 bd a3 b5 f3 bd bf 4e e9 3d
       -0.04633943 -0.095984586 -0.11899879 0.11391973
0001a0 86 35 5b 3e 58 b3 ee bd a5 0e c2 bd c5 ba e2 3d
       0.21407136 -0.11655301 -0.094754495 0.1107078
0001b0 90 67 26 3e da 43 0b be fd 5b 1d 3e 22 68 58 3d
       0.16250443 -0.13600102 0.15367122 0.052833684
0001c0 cf a5 6d bb a1 f9 e2 3c b1 42 5c bc b0 f8 d3 3d
       -0.003626216 0.027706923 -0.013443635 0.10350168
0001d0 cc f6 92 3d ff 35 14 be e5 47 00 3e 96 34 eb bd
       0.07175979 -0.14473723 0.12527426 -0.11484639
0001e0 22 e5 9d bd bb 10 c3 bd 59 66 17 3c cc 5d ea bd
       -0.07709719 -0.095246755 0.00924071 -0.114436716
0001f0 f8 ee 01 3d 6b e3 0e b9 ec 9a 76 3c 45 6a 2a 3e
       0.03172204 -0.00013626895 0.015051585 0.16642101

fc2.weight f4 [64, 128]
000000 54 e1 84 bd d3 5c df bd 5e bc 56 3d 7f 94 5d bd
       -0.064882904 -0.10906377 0.052425735 -0.054096695
000010 b4 85 7f 3d 68 2c 82 bc 09 53 63 bd a8 a8 84 3c
       0.06238337 -0.015890315 -0.05549911 0.016193703
000020 89 ad dd bc 37 00 91 bd 36 b1 43 bd 62 ff 87 3d
       -0.027060287 -0.07080119 -0.047776423 0.06640507
000030 02 3a 85 bd c6 b8 cc bd 01 42 2c 3c a0 39 a4 3c
       -0.06505205 -0.0999618 0.010513783 0.020047009
000040 1f 41 ad bb 76 fe 62 3d 40 24 b4 bc 57 19 df 3b
       -0.005287304 0.055418454 -0.021989942 0.0068084407
000050 17 bc cf bc d2 f8 23 bc bb 95 a6 bd fe 04 3f 3d
       -0.025358243 -0.010008054 -0.081340276 0.04663562
000060 09 0e a3 bd 73 a7 48 bc 63 b1 9d bd b4 24 9f bd
       -0.07961661 -0.012246954 -0.076998495 -0.077706724
000070 bb b5 ba bd 66 0b b5 3d b7 9b 36 bd 46 cb d3 bc
       -0.091166936 0.08840065 -0.044582095 -0.025853764
000080 07 a5 4a bd 23 37 58 bd 7c 0a 34 3d 95 b8 95 3d
       -0.04947379 -0.052786957 0.04395531 0.07310597
000090 99 b6 7e bb c7 71 26 bd 1f 53 7c 3d ab 56 b0 bd
       -0.003886616 -0.04063585 0.061602708 -0.086102806
0000a0 35 13 b9 3c 01 e4 16 bd 60 70 66 3d 8e 18 9e bc
       0.022592166 -0.036838535 0.056259513 -0.019298818
0000b0 91 00 96 3d 19 e2 99 bd 06 05 8e 3d 4e 1e 05 bd
       0.07324327 -0.07513828 0.06934552 -0.032499604
0000c0 fe 00 0f bd fa 25 a3 3c f9 b2 44 3d 7c 85 ad bc
       -0.034913056 0.01991557 0.048022244 -0.021181814
0000d0 60 ce 46 3d b5 da 90 3d fe d3 04 3d 0a ec 12 bd
       0.04853666 0.07072965 0.032428734 -0.035869636
0000e0 aa ed 8a bd ae 38 dd 3c 6c be 08 3d 85 c0 c4 3c
       -0.06783612 0.027004566 0.033384725 0.024017582
0000f0 cf d6 aa 3d bf bb 0b 3d 91 5f bd 39 4c 13 5e bc
       0.08341753 0.034114596 0.00036120092 -0.013554405
000100 3f 27 97 bd dc c9 d6 bc 50 30 e5 bc e4 17 99 3d
       -0.073805325 -0.0262193 -0.027977139 0.0747526
000110 7c 1c cf 3d 8e a9 94 bd 80 79 64 bd 62 40 93 bd
       0.10112855 -0.072589025 -0.055779934 -0.071900144
000120 8e f7 02 bd 5d bb 70 bc 60 8c 8e bd ae e4 e1 3c
       -0.031974368 -0.014693108 -0.06960368 0.027574863
000130 3b 1a 2c bc 01 90 9e bd 11 8a 88 bc 0f a4 a3 bd
       -0.010504301 -0.0774231 -0.016667398 -0.07990276
000140 dc 7a b3 3d c6 5b c7 bd 58 9b 62 bd 7b f5 7c 3d
       0.08763668 -0.09734301 -0.05532393 0.061757546
000150 ca 0a 05 3d 15 80 48 bd 8b 32 e8 3c 45 0f 06 bd
       0.032480992 -0.048950274 0.028344413 -0.032729406
000160 12 92 aa 3c 55 b8 60 bd 66 ad aa 3d 72 63 04 3d
       0.020821605 -0.054863293 0.083338544 0.0323214
000170 33 ca 85 bd f0 a6 2e bd 47 81 bd bd a0 57 87 3c
       -0.06532707 -0.042639673 -0.09253173 0.016521275
000180 6b 3c 0f 3d 7b 6c 33 bd fd 8e 25 bd 03 6b 0c bd
       0.03496973 -0.043804627 -0.040419567 -0.03428174
000190 f6 f5 58 3d 24 13 94 3c f6 dc 55 3d 05 ea 65 3c
       0.05296894 0.018075533 0.052212678 0.014032845
0001a0 33 c6 63 bc 12 93 7d 3d a5 f5 82 bd 8c 61 58 bc
       -0.013902235 0.061907835 -0.06394509 -0.013206851
0001b0 e3 e9 36 3d e1 f3 af bb fc d6 83 bd 84 fe aa bb
       0.044656646 -0.005369649 -0.064374894 -0.005218329
0001c0 91 e3 05 3c 56 38 09 bc 73 99 16 ba d2 3d 81 bd
       0.008171932 -0.008375248 -0.00057449116 -0.063106194
0001d0 a7 5e 02 bd f3 b1 3d bc 63 7d bc bd e3 4d f0 3c
       -0.03182855 -0.011578071 -0.09203603 0.029334014
0001e0 7d df 07 bb 65 ba 6e bd 90 45 66 bd b7 62 4f 3d
       -0.0020732575 -0.05828323 -0.056218684 0.05063125
0001f0 2c 8a 47 bd ca b1 e9 3c fc 30 54 3d c5 a5 90 bd
       -0.048715755 0.02852716 0.051804528 -0.07062868
000200 5d 4f 4d bd 82 20 e9 bc 00 18 39 bc c8 48 cf bc
       -0.050124515 -0.028457884 -0.011297226 -0.02530326
000210 bb 25 03 3d 98 16 52 3d 48 cc 0f 3d fe 0d 81 bc
       0.032018404 0.05129108 0.035106927 -0.015753742
000220 05 4d 37 3e d3 c5 fb 3d 33 a9 8e 3d af 8a 4b 3d
       0.17900474 0.12293591 0.06965866 0.049692806
000230 d3 15 9b bb 4a 86 7a bd 35 5e a5 bd cb 81 7e bc
       -0.0047328263 -0.061163224 -0.08074609 -0.015533875
000240 f0 82 50 bb 08 57 1c bd d7 71 eb 3c a2 81 86 3d
       -0.0031816326 -0.038168937 0.028740807 0.06567694
000250 d2 af cf 3d e0 38 17 3e 13 60 7f bb f9 a6 db 3d
       0.10140957 0.1476779 -0.0038967177 0.10725207
000260 0d 5c a5 3c b3 e8 9a 3d d6 ef 71 3d 27 65 da 3d
       0.020185495 0.07563915 0.059066616 0.106638245
000270 10 44 ad bc d8 51 24 bd 27 3a da 3d 90 52 47 3d
       -0.021150619 -0.040117115 0.10655623 0.048662722
000280 0c a2 62 3c da 5a 64 3c a0 72 50 3d 46 c3 ad bd
       0.01383258 0.013937676 0.050890565 -0.08484511
000290 fa 27 75 3d 36 e8 a0 bd 77 1a 34 bd 72 6f e8 bb
       0.059852578 -0.07856791 -0.04397055 -0.0070933634
0002a0 4f 9c 64 bd 16 14 7b 3d c8 42 6d bd 01 ae bd 3d
       -0.05581313 0.061298452 -0.057925016 0.09261704
0002b0 79 78 c7 bc 06 d7 a9 3d 87 f7 98 bc 5e 12 3b bc
       -0.024349438 0.082929656 -0.018672718 -0.011417953
0002c0 ea b9 8e bd 9c 0c 2b 3c 78 30 92 3d bf 64 ba bc
       -0.06969054 0.010440018 0.07138151 -0.022753118
0002d0 69 43 1b 3d 6d 45 50 3d 7e 44 c4 bc 13 ba 00 3d
       0.037906084 0.05084746 -0.02395844 0.031427454
0002e0 6b bb 99 bd 73 d7 a8 3b c8 2f 6a bc 46 5b e7 3d
       -0.0750645 0.0051526367 -0.0142936185 0.11296706
0002f0 2e 69 c9 3d 59 c8 8c bc 47 f7 e6 3b ab 11 3e 3d
       0.098345146 -0.017185377 0.0070485207 0.04640357
000300 2a 59 58 3d 03 63 e1 bd 75 07 d2 3d ba f0 5c 3d
       0.05281941 -0.11005213 0.102553286 0.053940512
000310 14 d9 b5 3d 71 76 13 3e 7f d4 74 3c bd 5b e7 3d
       0.08879295 0.1440065 0.014943241 0.112967946
000320 20 b2 db bc 3b ed 00 3e 6e 08 34 bd 36 d5 9f bc
       -0.026818335 0.12590496 -0.04395335 -0.019510847
000330 0f e0 c1 3c 7d 9e ce 3d 63 8c e3 3c 86 61 c6 bc
       0.02366641 0.10088823 0.027776903 -0.024216425
000340 d0 39 83 bd 7f 97 02 bd fd 4b 37 bc 55 9a df 3d
       -0.06407511 -0.03188276 -0.011187551 0.109181084
000350 dc 89 f5 bc df 16 05 3e 3d 3f 3d 3c d9 ed 69 3d
       -0.029972963 0.12997006 0.011550722 0.057111595
000360 66 4d 9a 3d c6 c4 16 3e 40 8f 5c bd ba 41 d1 3a
       0.07534294 0.147235 -0.05384755 0.0015965023
000370 49 40 b7 3c fa 0a 90 3c 76 e4 f1 3d 34 25 26 3d
       0.02236952 0.017583359 0.118111536 0.040562823
000380 ca af 07 bd 5a 53 36 bc 4b a5 6d 3d 82 5b 4e 3d
       -0.03312663 -0.011128271 0.058018964 0.050380237
000390 87 9d b4 ba 96 d2 76 bd c6 da ab bd 46 39 a5 bc
       -0.0013779857 -0.060259424 -0.08391337 -0.020168912
0003a0 4b 4f be 3d 79 08 72 bd d9 71 f8 3c 87 27 ea bb
       0.09292468 -0.05909011 0.030327724 -0.0071458253
0003b0 c4 3d cf bb c1 c6 d0 bd 52 fa 04 3b 76 87 bd 3d
       -0.0063245017 -0.10194159 0.0020290804 0.09254353
0003c0 19 fa 8d bc d6 05 89 3d 3d e8 a6 bd 19 b7 1f 3e
       -0.01733117 0.06690566 -0.08149765 0.1559719
0003d0 53 9f 87 3d 52 45 7e 3d e4 39 96 bd c9 f7 78 bd
       0.066221856 0.062077828 -0.073352605 -0.06078318
0003e0 64 bd 4c 3d ca 24 97 3d 60 fc 83 bd 60 e5 82 3d
       0.049985304 0.07380064 -0.06444621 0.06391406
0003f0 66 06 e5 bd 49 9b 62 b9 c3 10 77 3d f9 1e ca 3d
       -0.11182861 -0.00021610888 0.06031872 0.09869189

fc2.bias f4 [64]
000000 58 2f 38 3d b3 59 e6 3c 1b e3 2d 3d 1d 1e c4 3d
       0.044967026 0.028118944 0.042452913 0.09576056
000010 d6 0e 12 3d 3a 0a b2 bd 5c 44 b4 3d 75 11 53 bd
       0.03565868 -0.08693357 0.08802101 -0.05153032
000020 7c 85 0a 3d 5f 7b 12 bd 0a f1 78 bd 73 15 b5 3c
       0.033818707 -0.035762187 -0.060776748 0.022104954
000030 35 75 a1 bd ba 7f b7 bd 3d 07 a4 bd fb cb 8d bd
       -0.078836836 -0.08959909 -0.08009193 -0.06923672
000040 22 57 9a bc f6 12 1f 3d 8d 09 52 3d de 7c 10 3b
       -0.018840376 0.038836442 0.05127864 0.0022047083
000050 c2 28 92 bc c9 23 23 bd 77 58 61 bd b4 15 9a bc
       -0.0178417 -0.03982905 -0.055016007 -0.018809177
000060 c4 7d 1b 3d 4d e4 0f 3d 85 3c 8d 3d dc 76 1e bc
       0.037961736 0.035129834 0.06896309 -0.009671893
000070 6b 9f 57 3d eb eb 55 3d 40 29 24 3d 0c 5f 8c bd
       0.052642267 0.052226942 0.0400784 -0.06854066
000080 22 e7 84 bc 38 48 5c bd a3 fa d0 3d f8 1f 02 3d
       -0.016223494 -0.05377981 0.10204055 0.03176877
000090 4e 0d f8 bc 99 02 9d bd 32 c1 03 bd 27 21 97 3d
       -0.030279782 -0.07666511 -0.032166667 0.0737937
0000a0 42 09 67 bd 31 48 93 bd fd 7b d4 bb a0 77 91 3d
       -0.056405313 -0.07191504 -0.006484507 0.07102895
0000b0 0d 1d 90 bd 50 7e 6c 3c 13 f8 13 bb 1d e4 9e bd
       -0.07036791 0.014434412 -0.0022578284 -0.07758353
0000c0 ce 7d 93 3d 56 6a bd 3d 90 25 45 bd 1a 31 ab 3d
       0.0720173 0.092487976 -0.048131526 0.08358975
0000d0 32 1b be bd d0 ce fd 3c 8f 07 17 3c ba d1 29 3c
       -0.09282531 0.030982405 0.009218111 0.010364944
0000e0 47 37 89 bd 0e e2 90 bd bd c0 6f 3d 3e 8b 0a 3d
       -0.066999964 -0.070743665 0.05853342 0.033824198
0000f0 42 03 21 3d d6 2a bf bd 86 3b b2 3d ba 75 8e bd
       0.039309748 -0.09334342 0.087027594 -0.06956048

fc3.weight f4 [7, 64]
000000 2e 98 2a 3d a3 a5 77 3d 19 fa 76 bc 82 29 74 bb
       0.041649036 0.060460698 -0.015074276 -0.0037256186
000010 13 42 53 3c 02 d8 91 bc 7b f8 d3 3d 02 e4 a8 bd
       0.012894171 -0.017803196 0.10350128 -0.08246614
000020 3a 5f 37 bc 71 1d 54 3e dd 06 64 bb 45 0d 95 bb
       -0.011192137 0.20714356 -0.003479413 -0.004548701
000030 22 0d ca bd 9a 3b 93 3d 9c 61 93 bc 1a 6c 0f 3d
       -0.09865786 0.071891025 -0.01799088 0.035015203
000040 70 ae 97 bd 2f 88 1f 3e 27 31 14 3d af e3 50 3d
       -0.07406318 0.15579294 0.036179688 0.050998386
000050 28 0b 90 bd 78 27 a2 3d c0 23 cb 3b 57 6e 11 bd
       -0.07033378 0.07917684 0.00619933 -0.03550562
000060 ca 9b 3a bd 38 98 b9 bd d7 3c 25 3e 80 c3 43 3d
       -0.04555873 -0.090622365 0.1613649 0.047793865
000070 82 ed f6 3d fb 6d 4b 3d 46 39 ca 3d 77 6a 30 bd
       0.1205702 0.049665432 0.09874205 -0.043070283
000080 78 6c ea bd 43 0f b7 3d 45 2e 90 bd c2 35 4c bd
       -0.1144647 0.08938458 -0.07040075 -0.049855955
000090 2f 5a ff 3c be 53 a9 bb 7a fa 6d 3d 06 63 ab 3d
       0.031170933 -0.0051674535 0.0581002 0.083684966
0000a0 31 94 a5 bd c5 18 ae bd bc 81 8d 3d 08 0c 12 3e
       -0.08084906 -0.08500818 0.069095105 0.14262402
0000b0 04 ae 1e bd b8 2b f6 3b 87 21 bb bd ba 2b 5b bd
       -0.038740173 0.007512536 -0.09137254 -0.053508498
0000c0 c1 0f d5 bd 01 a1 95 3d 1a 03 2d bd cf 97 a4 bc
       -0.104033954 0.073061 -0.042239286 -0.02009192
0000d0 09 a2 0c 3d 10 fd e2 3b 22 26 45 3e 55 15 ce 3d
       0.034334216 0.00692714 0.19252828 0.100626625
0000e0 de 31 5d bc aa b5 b2 bd f1 33 7e 3c 89 47 69 3d
       -0.013500659 -0.08726056 0.0155153135 0.056952987
0000f0 33 fb e2 bd 81 04 a6 3d 1a f9 b4 3c f0 21 2c bd
       -0.11083069 0.08106328 0.022091437 -0.042024553
000100 37 9e 05 3e 4e 7e de 3c 94 d4 dd bd bd 6b 9b 3d
       0.13048635 0.027159836 -0.10831562 0.07588909
000110 20 97 60 3d 90 49 24 bd c1 ce 71 3d ae 8f e3 bd
       0.054831624 -0.040109217 0.059035067 -0.11111389
000120 63 f1 ac bd 5a e6 0c bd 95 75 d4 bc 79 78 a7 bd
       -0.08444478 -0.034399368 -0.025934974 -0.08177275
000130 8a 7b 53 3d 18 5e d2 3d 97 44 de bd 9a d9 35 3d
       0.051631488 0.10271853 -0.10852926 0.044396974
000140 e0 0c 0d bd b9 66 54 bd 9c 63 3c bd 03 86 df 3d
       -0.034436107 -0.051855776 -0.045993432 0.109142326
000150 84 5a 56 3d d6 2c 66 3b a0 00 9d 3c 50 d2 de bd
       0.052332416 0.003512194 0.019165337 -0.10879958
000160 1d 89 85 bd 8f 6d 87 bc d3 cb ad 3a b9 91 cb 3d
       -0.06520293 -0.016531734 0.0013259597 0.09939904
000170 4a 31 a4 bc d2 29 ac 3d 1c 48 3c 3e ea 79 9e bd
       -0.020043034 0.08406414 0.18386883 -0.07738097
000180 c8 1c ca 3d 91 cc be bd 62 60 27 3e 4b a4 6f 3d
       0.09868771 -0.09316362 0.16345361 0.05850629
000190 38 9e c3 bd 3c 1d c6 3b 78 63 0b 3e 31 4f 52 39
       -0.09551662 0.0060459655 0.13612163 0.00020056662
0001a0 be ef dc bd 37 46 0e bd 10 b2 37 bd 53 11 b1 3d
       -0.10787915 -0.03473493 -0.044847548 0.086458825
0001b0 c4 45 bc bc 64 ae 3f 3c 5e ec 2a bd 66 12 ec bc
       -0.022982486 0.011699293 -0.041729324 -0.028817367
0001c0 98 a0 67 bd 94 67 d9 3d e5 30 37 3d 86 a9 a8 3d
       -0.05654964 0.10615459 0.044724364 0.08235459
0001d0 10 02 88 bd 37 95 0c 3c 82 c7 ed 3d 37 a7 0e 3e
       -0.066410184 0.0085804975 0.11610319 0.13930975
0001e0 81 e0 69 bd 1c ca 8c 3d 06 63 19 3e 7b 69 d3 3d
       -0.05709887 0.06874487 0.1497918 0.10322853
0001f0 4f df b5 3d 70 3f ea 3c 85 e1 d1 3c e0 e5 bf 3d
       0.08880483 0.028594702 0.025620231 0.09370017
000200 da 57 b6 bd bc f2 8f bd 31 4c f5 bd dd 58 16 3e
       -0.08903475 -0.0702872 -0.11977423 0.14682336
000210 38 75 0c 3e 20 cd 36 bd db d5 a1 bc 9e 93 e5 3d
       0.1371659 -0.044629216 -0.019755295 0.11209796
000220 57 f4 fa 3d c3 5d 1c bd 82 c4 83 bd 6a 4a 3e 3d
       0.122536354 -0.038175356 -0.06433965 0.046457686
000230 90 b7 04 3e f6 e1 c5 bd d8 b1 b2 bc 8e 65 c2 bd
       0.12960649 -0.09662239 -0.021813318 -0.09492026
000240 68 b9 ab bc dc 40 fa 3d 23 6d 11 3e 6a c8 49 3d
       -0.020962432 0.12219402 0.14201789 0.049263395
000250 ae 9b 82 bd 81 8b 2f bd 10 9b 9b 3c c4 5a 33 3c
       -0.0637735 -0.04285765 0.018994838 0.010946933
000260 86 70 c2 3d 45 72 dd 3c e2 06 da bd 84 2b d8 bd
       0.094941184 0.027032027 -0.10645844 -0.10555175
000270 5d ad 0b bd 5a c7 4d bd 4e 46 79 bd 44 8b c5 3d
       -0.03410088 -0.050238945 -0.060858063 0.096457034
000280 a8 95 d6 bd f7 9f ba bd 9d cc 2d 3e fc 33 fd bc
       -0.104777634 -0.09112542 0.16972585 -0.030908577
000290 39 03 ff 3d 7d 9c ce bd 55 20 25 3e 85 18 12 bd
       0.124517865 -0.100884415 0.16125615 -0.035667915
0002a0 0d d7 db bd d0 ab 8c bc 7c 96 a2 bd c3 e5 aa 3d
       -0.10734377 -0.01717177 -0.07938859 0.08344605
0002b0 a0 22 7a bc b8 a1 04 3e 6a cf 20 bd 2d c0 15 bc
       -0.015267044 0.12952316 -0.039260305 -0.009140057
0002c0 ef ee d9 bd 98 bb c0 bc e1 4b 7f bc 33 f4 e1 3d
       -0.10641276 -0.023526952 -0.015582056 0.110329054
0002d0 d6 83 a0 bd 33 4c 16 bd e4 41 fd b8 08 71 95 bd
       -0.07837646 -0.036693763 -0.00012076253 -0.072969496
0002e0 6e 65 d5 3d 64 f4 0a 3e ba 47 50 3d 3a 91 10 3e
       0.10419737 0.1356979 0.050849654 0.141179
0002f0 f1 3c b8 3d 07 f2 7f bb 0c ec 1e 3e 01 48 87 3d
       0.08995999 -0.0039054172 0.15519732 0.066055305
000300 27 6a 9b bb b0 4d eb 3d 84 a6 8c bd c2 b0 da 3d
       -0.004742879 0.11489427 -0.06867698 0.10678245
000310 b0 25 9a 3b 48 53 ec bc 33 ed 11 3e 0c 28 ca bd
       0.0047041997 -0.028848305 0.1425064 -0.098709196
000320 e6 ea fe 3d 77 20 b7 3d e8 eb d3 bd 98 a7 8e 3c
       0.12447147 0.08941739 -0.1034773 0.0174139
000330 0b 22 b3 bd 9e 81 5e bc c5 c5 cd bd c8 06 b0 bd
       -0.087467276 -0.013580708 -0.10047487 -0.085950434
000340 58 0b 2b bd 51 d1 a9 3d a1 a6 dd bd c2 8e 96 bd
       -0.041758865 0.08291877 -0.108227976 -0.07351448
000350 5e 2d 12 bd 8e c5 18 3e aa 68 d9 bc a6 05 f0 bd
       -0.035687797 0.14919111 -0.026539166 -0.11719827
000360 22 88 cc 3d ca 52 84 3c c1 1f 1b 3e d4 07 71 3d
       0.09986903 0.016152758 0.15148832 0.058845356
000370 36 fa ca 3b 28 76 77 3d 08 2d 14 be 5a 09 c5 bc
       0.0061943782 0.060415417 -0.14470303 -0.02405231
000380 0c 42 66 3d 34 f3 24 3d 5e b3 52 bd 35 87 aa bd
       0.05621533 0.040271 -0.05144059 -0.0832657
000390 69 ba e2 bd 42 85 93 bb 87 93 ca 3c 88 f6 46 3e
       -0.11070711 -0.0045019696 0.02472855 0.19429982
0003a0 4b 17 c7 3d 17 46 ac bd 10 42 a9 bd 01 1b d9 3d
       0.0972124 -0.08411806 -0.082645535 0.10600854
0003b0 86 f8 7a 3c 13 b9 f5 bc 8d ee 50 bd 30 0e 3d bd
       0.015318042 -0.029995477 -0.05100875 -0.04615611
0003c0 f8 59 99 bb da 35 c6 bd dc d5 82 bc e6 c3 61 bd
       -0.0046799146 -0.0967824 -0.015971117 -0.055118464
0003d0 ad 1b aa bc f8 39 77 3c 40 43 01 bd 88 05 77 3d
       -0.02076515 0.015089504 -0.031558275 0.06030801
0003e0 f1 4d a2 bd 3b 47 34 3d 10 60 b6 bd e9 c0 22 3e
       -0.079250224 0.044013243 -0.08905041 0.15893902
0003f0 64 cf a2 bd c9 80 2e bd 99 4f 8c 3d 6b 1c 1f bd
       -0.07949713 -0.042603288 0.068511195 -0.03884546

fc3.bias f4 [7]
000000 c9 6d 94 3d 40 d6 d2 bc c9 45 ca 3d 3a e0 84 3d
       0.07247502 -0.025736928 0.09876592 0.0648808
000010 3b 0c e0 3d ad 4d 9e 3d 10 30 d5 bc
       0.10939833 0.07729659 -0.026023895
