rl_agent/output/dqn/episode_200/model_weights.pth (torch, 59972 bytes, 6 tensors)

fc1.weight f4 [128, 43]
000000 0a 49 19 3e 9c bc a6 3d eb de 62 bd e9 e3 30 bd
       0.14969268 0.08141443 -0.055388372 -0.043186102
000010 d7 59 c4 bd 93 3c fc bd da a0 a2 3d 18 72 6e 3c
       -0.09587448 -0.12316241 0.07940836 0.014553569
000020 7f 6b e6 bb d2 96 a1 bd 52 00 50 bd 56 e9 09 3d
       -0.0070318575 -0.07890095 -0.050781555 0.033669792
000030 a5 55 66 bd 0c df d6 3d f5 a2 83 3d b4 3d d0 3d
       -0.05623402 0.104917616 0.06427566 0.10168019
000040 1b 48 f2 bd 6e 5e 54 3e fc 15 a7 bc d7 d1 11 be
       -0.11830159 0.20739147 -0.020396225 -0.14240204
000050 e0 80 c4 bb b4 39 6a bd 45 fd 0a bd 54 15 b3 3d
       -0.0059968084 -0.057183936 -0.033932943 0.087443024
000060 db 15 92 bc fc 71 f8 bd 2e 28 0b be 55 0e 08 be
       -0.017832687 -0.12131116 -0.13589546 -0.13286717
000070 98 6f 7f 3c aa 21 01 3e a3 d9 2c 3e c2 11 cb 3c
       0.015590571 0.12610498 0.16879897 0.024788741
000080 a6 b7 02 be 7b f5 95 3c 2f f0 dd bd c3 a9 43 3e
       -0.12765369 0.01830553 -0.10836827 0.19107728
000090 91 55 2f bc 7e 91 e8 3d 96 5d 87 3c 3c 82 ad bc
       -0.010701553 0.113558754 0.016524117 -0.021180265
0000a0 5b 4c 78 bd e0 d7 6b 3d e1 60 04 be c9 39 29 bc
       -0.060619693 0.05757892 -0.12927581 -0.010328718
0000b0 63 8c b2 bc 41 ee 36 3e f5 0b 08 3e 56 04 d9 bc
       -0.021795457 0.17864324 0.13285811 -0.026491325
0000c0 0e d5 b6 3c 70 da 9b 3d 8d 3c b0 bd d9 e9 2c be
       0.02231839 0.07610023 -0.08605299 -0.16886081
0000d0 30 bb b9 3d b5 59 1c bd 9d 2f 14 be f3 d4 ed 3b
       0.09068906 -0.03817149 -0.14471288 0.0072580515
0000e0 90 a7 ed 3c 8a f6 06 3e 27 99 14 3d 81 e1 eb 3d
       0.029010564 0.13179985 0.03627887 0.11517621
0000f0 ad 15 31 3e 48 ad e8 ba 56 97 8d 3d 28 c2 ad bd
       0.17293425 -0.0017751837 0.06913631 -0.08484298
000100 01 eb ed 3d 61 02 21 be 42 9f 28 3d 33 ac 37 3d
       0.11617089 -0.15723564 0.041167505 0.044841956
000110 d4 d4 34 be 8d cd 86 bc 5a 61 1c bd e4 53 43 be
       -0.17659312 -0.016455436 -0.03817878 -0.1907497
000120 b3 78 93 3d c7 b1 8e 3c 10 f7 d6 3d a1 c1 33 bd
       0.07200756 0.017418755 0.10496342 -0.04388583
000130 ca 0d 92 bd 7a 3b 85 3d a4 a6 53 3d 32 2d ee bd
       -0.07131536 0.06505485 0.051672593 -0.11629714
000140 e0 dd b5 bd fb 0c 18 3d bb 0b c1 3d b7 e2 ee 3d
       -0.0888021 0.037121754 0.094260655 0.11664336
000150 18 c0 0d be cd 73 8b 3d 23 32 ee 3d 2a b0 78 bd
       -0.13842809 0.068091966 0.116306566 -0.06071488
000160 88 7d 2d 3e 47 fa bc 3d a3 24 9e 3d 9b 26 0a be
       0.16942418 0.09227424 0.07721832 -0.1349129
000170 18 a2 a2 3c a2 0c bf bd ff 49 64 bd a6 84 0b 3e
       0.019852683 -0.093285814 -0.05573463 0.1362482
000180 5b c8 fb 3d d3 a6 b4 3d ca 1a 48 3e 80 55 d2 3c
       0.12294074 0.08820882 0.19541469 0.025675535
000190 62 eb a1 bd 1e e1 d4 bd 77 17 36 3e 45 51 4d bd
       -0.07906224 -0.103945 0.17782389 -0.050126333
0001a0 92 c9 fa 3d 1a 65 2d 3e 96 e3 be 3d 48 dc 99 3d
       0.12245478 0.16933098 0.09320752 0.075127184
0001b0 09 6d 33 be df 98 09 3e 6e ce 31 3d 58 aa 1b 3e
       -0.17522062 0.13437222 0.043409757 0.152017
0001c0 ce af dd 3d 82 44 8e 3d bb 3b 1a 3e 01 f9 2c bd
       0.10824548 0.069466606 0.15061848 -0.042229656
0001d0 7e 73 04 bc a6 5d 6d 3d d5 08 9e bd ce ae 31 3d
       -0.008084176 0.05795064 -0.07716528 0.043379597
0001e0 43 d2 ed bd 51 f2 bf bd a9 c6 40 3e dc 8e 2b bd
       -0.1161237 -0.0937239 0.18825783 -0.04188429
0001f0 89 51 09 3e 02 db b0 3b 37 b3 11 3e ec 8c ea 3d
       0.1341001 0.0053972015 0.14228521 0.1145266
000200 0b b4 ea bd 48 49 a6 bd ef 69 05 bd 2f 1d 29 3d
       -0.11460122 -0.08119446 -0.03257173 0.041287597
000210 39 5a 8b bd 39 27 61 be 8c 3d 2a 3e 64 2c 4e 3d
       -0.06804318 -0.21987619 0.16625041 0.050335303
000220 6c d3 90 bd 0d ae 49 bd 8e 92 84 bc 95 79 3b be
       -0.070715755 -0.049238253 -0.016183164 -0.18308099
000230 4a 4c f9 3d a6 87 ee bd f0 fa 12 3c cc 95 05 3a
       0.12172754 -0.11646967 0.008970961 0.0005095869
000240 7e ed 1c be 02 70 00 be ab d5 e3 3d 6d 98 de 3c
       -0.15324971 -0.12542728 0.11124738 0.027172292
000250 2e 0c a5 3d 11 d2 99 bd 77 e0 eb 3d 72 5c 84 3d
       0.08058964 -0.0751077 0.11517423 0.06462945
000260 de 0f e1 39 ec 51 d2 bd 27 8c 1f be a4 0b 72 3d
       0.00042927166 -0.102695316 -0.15580808 0.059093133
000270 72 03 82 3d 6e 63 5e 3d 00 cc dd 3d 64 ec f3 3d
       0.063483134 0.054294042 0.108299255 0.11910322
000280 a4 a7 0b be 7c fe 2b be eb 00 84 3d 6b ab e0 bd
       -0.13638169 -0.16796297 0.064454876 -0.109701954
000290 10 a2 cf 3d a6 fd 70 3c 61 9e 0d be 5f 84 c0 bd
       0.10138333 0.014708912 -0.13829948 -0.09400248
0002a0 4b ab df 3c d4 9a c1 bc 5c 7e 85 3d ba e6 98 3d
       0.027303359 -0.023633398 0.06518242 0.074658826
0002b0 61 74 81 bd 39 b4 16 be 04 64 fd 3d 89 10 b5 bc
       -0.06321026 -0.14717187 0.12372592 -0.022102611
0002c0 ff f6 9d 3d 0a 31 6f 3b 20 63 ad bb 7e a3 4b 3b
       0.077131264 0.0036497735 -0.0052913576 0.003107279
0002d0 18 c7 ef 3d 2f 3a c7 bd 55 46 d3 3c 03 44 0c 3b
       0.11707896 -0.097278945 0.025790373 0.0021402843
0002e0 63 e0 0f be 04 d5 00 be d9 18 3a 3e 1e 49 4e 3d
       -0.1405044 -0.12581259 0.18173541 0.0503627
0002f0 42 d0 f1 3b bf 7d 48 bd 7e 18 e0 3d a0 cb d0 bd
       0.0073795626 -0.048948046 0.109421715 -0.101950884
000300 bf 6b 9e bd 5f ae 0d 3d fc 91 ac 3d b2 00 18 be
       -0.07735395 0.03459012 0.08426282 -0.14844015
000310 53 21 3c bc 53 7a d5 bd 56 03 6d bd 6c fc 3f 3d
       -0.0114825545 -0.10423722 -0.05786451 0.046871588
000320 f8 76 82 bc 22 23 10 3e a0 93 0f bd a6 8f 45 bc
       -0.01592587 0.14075902 -0.035052896 -0.012058174
000330 22 c8 03 be b0 f9 1d 3e 24 2e d0 3d 21 b5 bc 3c
       -0.12869313 0.1542728 0.101650506 0.023035588
000340 03 ad 77 3d 7f 2f 8d 3d 84 98 cc 3d 7f d4 64 3d
       0.06046773 0.06893825 0.099900275 0.055866715
000350 a8 ef dd 3d 5c cb fc 3d 94 df 5b 3d e4 9b 74 3d
       0.108367264 0.12343475 0.053680018 0.05971898
000360 d0 5c 85 3c e9 9c 98 3d 23 ab 78 3d 39 cc ca bd
       0.016279608 0.07451803 0.060710084 -0.09902234
000370 91 e7 a2 bd a8 46 14 3d b4 f7 fb bd b8 c7 c8 3d
       -0.07954324 0.036200196 -0.12303105 0.09803718
000380 85 67 39 bd 9d d7 d5 bd ec 3b 0b 3e d2 c8 1b bd
       -0.04526474 -0.104415156 0.13597077 -0.038033314
000390 9a fb 06 3e 79 43 a3 3b 0c 7f d1 3d 4e de f8 3d
       0.13181916 0.0049824086 0.102293104 0.12151776
0003a0 24 11 f7 bc 32 e6 65 bd 20 85 c8 bd d6 3d 00 3e
       -0.03015954 -0.056127734 -0.097910166 0.12523589
0003b0 04 12 a3 bc ae f1 f4 bd aa 24 9b bc 44 ab a2 3d
       -0.019906051 -0.11960159 -0.018938381 0.079428226
0003c0 a0 08 09 be 39 c3 c1 3c 84 b0 84 bd 72 49 99 bb
       -0.13382196 0.02365266 -0.0647898 -0.004677945
0003d0 98 29 5a bd 66 a9 8d 3d 3b a9 e9 bc 25 04 07 be
       -0.053262323 0.06917076 -0.028523078 -0.13185175
0003e0 53 e4 d3 3b 2e ee 3c bd 51 70 17 be e5 df 99 bd
       0.0064664274 -0.046125583 -0.14788939 -0.075134076
0003f0 dd 4c 46 3a 97 b6 08 be 52 f2 43 3d 09 2a d7 bd
       0.0007564554 -0.13350902 0.047838517 -0.105060644

fc1.bias f4 [128]
000000 49 40 95 bd 9a 4c 1e 3d ff fc a1 3d d1 bb bc 3d
       -0.07287652 0.03864727 0.07909583 0.09215511
000010 c1 d7 1c 3d 30 da 2a be 03 88 86 bd b3 45 a7 3d
       0.038291696 -0.16684794 -0.06568911 0.08167591
000020 0e 5d 1e 3e 99 68 3a 3e ef 3d e7 3d b5 13 55 bd
       0.15465185 0.18203963 0.1129111 -0.052020747
000030 c0 11 ff 3d fe 33 a1 bd a8 44 92 bd 10 80 ee 3d
       0.124545574 -0.07871245 -0.071420014 0.1164552
000040 95 9a 13 3e 0f 0f bd 3d 6c ed 15 3d de 2b fe 3d
       0.14414437 0.09231388 0.036603376 0.12410711
000050 94 d9 91 3d cd 80 22 3d 4c 3d 2a be ea 89 c8 3d
       0.07121578 0.039673615 -0.16624945 0.0979193
000060 d7 ea 03 3e 25 36 e5 3d 93 db b7 bd 7c 5f 19 3e
       0.12882553 0.11191968 -0.08977427 0.1497783
000070 18 bc 30 bd 9f 7c 0d 3e 88 20 b2 bb c6 7b 03 3e
       -0.04314813 0.1381707 -0.005436007 0.12840185
000080 4b b6 38 bd 83 74 53 be 55 a4 7c bd 2f d1 47 3e
       -0.045095723 -0.20649914 -0.061680157 0.19513391
000090 ba c3 b9 bd a1 18 25 bd d8 80 2f 3e e7 d8 37 3d
       -0.09070535 -0.04030669 0.17138994 0.04488459
0000a0 1b 43 4b 3e 20 56 a9 bc 67 8d eb 3c e0 02 0b bd
       0.19849817 -0.02067095 0.02875395 -0.03393829
0000b0 0a 0f 02 3e cf 2c f3 3d 36 ac 92 3d aa 3f bd bd
       0.1270105 0.11873781 0.07161753 -0.092406586
0000c0 c0 6f ce 3c 15 2c 03 be c1 4e c7 bc 3c c5 14 be
       0.02519977 -0.12809785 -0.024329545 -0.14528364
0000d0 87 6c cf bd 43 a2 c5 bd 98 ec 65 bd 4b 3d c0 3e
       -0.10128122 -0.096500896 -0.056133837 0.37546763
0000e0 ef 27 b2 3d 79 ab 87 bd a3 d1 19 3e d6 57 1e be
       0.08699023 -0.06624503 0.15021376 -0.15463194
0000f0 b0 35 2e 3e d2 02 81 3d 8a ac 1b be 91 76 39 3e
       0.17012668 0.06299366 -0.15202537 0.18111636
000100 01 23 10 bd 36 78 a5 bd 4b 11 af bd 61 87 09 be
       -0.035189632 -0.08079569 -0.0854822 -0.13430549
000110 ef d3 a0 3d 69 de a8 3d e5 aa 94 3d 9c f6 24 be
       0.07852923 0.08245546 0.07259158 -0.16109699
000120 be f4 e4 bc 2d 5c aa bd 05 20 ab 3d 62 b3 91 3d
       -0.027948733 -0.083183624 0.083557166 0.07114293
000130 b4 1e 91 3d ce 05 80 3e 95 27 ae bd 3c a0 0a 3e
       0.07085934 0.2500443 -0.085036434 0.13537687
000140 9c 63 4b 3e ee ca 01 3c c9 ae 6d 3e f6 13 42 3e
       0.19862217 0.007921917 0.23211206 0.18952927
000150 71 49 65 3e 04 f9 cd bd 89 bc ec bd 3e 4d ca bc
       0.22391297 -0.100572616 -0.11559398 -0.024695035
000160 51 a6 63 3e 24 83 a7 bd 36 1d a6 3b 11 19 b2 3d
       0.22231413 -0.0817931 0.0050694 0.08696187
000170 d1 ab cb 3d 1b d0 3d bd c7 ed 0b bd 38 b6 95 3b
       0.09944881 -0.046341043 -0.03416231 0.0045688413
000180 e0 09 66 3e 35 b0 0f 3c b1 8c a2 3e f7 da 2c 3d
       0.22464705 0.008770038 0.31747964 0.04220101
000190 cc c0 f6 3d 3d 12 68 3e b5 04 78 3e 85 3a 29 3c
       0.12048492 0.22663207 0.24220546 0.010328894
0001a0 58 af 1a bc fa fb 01 3c 77 23 7c 3d f1 4a 98 bd
       -0.009441219 0.007933611 0.06155726 -0.07436169
0001b0 32 43 31 bd 3a 0d 02 be 50 f3 5a bd 03 b8 08 be
       -0.043276973 -0.12700358 -0.053454697 -0.13351445
0001c0 95 85 39 bd b5 15 f1 3d 67 69 19 3e 04 8e 03 3e
       -0.04529341 0.117717184 0.14981614 0.12847143
0001d0 a7 fe 17 be a8 73 4b 3e ae 2e 29 3e d7 ab 0a be
       -0.14843236 0.19868338 0.16521713 -0.13542114
0001e0 d9 b9 d6 bd 2a a0 15 3c f0 c4 35 3d 06 d5 eb 3d
       -0.104846664 0.009132424 0.044377267 0.1151524
0001f0 f4 57 45 3e 2e 98 62 3e 72 82 39 3d e7 ee ff bd
       0.19271833 0.22128364 0.045290418 -0.12496739

fc2.weight f4 [64, 128]
000000 14 48 bf 3d f8 66 36 3d f1 1a 6e 3d 5c ef b2 3d
       0.0933992 0.044531792 0.058131162 0.087370604
000010 f9 aa 7d bd 7f 56 aa bd 7b a1 41 3d 21 21 ae 3d
       -0.06193063 -0.08317279 0.04727314 0.085024126
000020 47 8c 0b 3d 1e cd c7 3c a0 9d b3 bd 98 18 d0 bc
       0.034069326 0.0243898 -0.08770299 -0.025402352
000030 98 c4 4b 3c 54 46 55 3d 81 4c 02 be 2f fa ac bd
       0.012437008 0.052069023 -0.12724496 -0.08446156
000040 4b fb 1f bd e1 88 41 3d b3 ee 50 bd 33 74 38 39
       -0.03905801 0.04724968 -0.05100889 0.00017590895
000050 54 a8 ea bc 54 89 57 bd c0 1b 17 bd 7c 3d 6a 3d
       -0.028644718 -0.0526212 -0.0368917 0.057187542
000060 5e 25 8a bd 12 7e 73 3d cd 47 9a bc 16 ad 82 bd
       -0.067454085 0.059446402 -0.018833065 -0.0638067
000070 b1 81 d2 bc dc a0 c0 3b e2 4b cc 3c ac f8 f6 bc
       -0.025696607 0.005878551 0.024938527 -0.030147873
000080 14 a8 ef bb ba 01 a2 bc 88 70 c7 bc bd 63 12 3d
       -0.0073137376 -0.019776214 -0.024345651 0.03573965
000090 57 6e c1 3d d5 17 b6 3d a8 7e 42 3d a4 0a a9 3b
       0.09444874 0.08891264 0.04748407 0.005158739
0000a0 58 f9 e8 bd 6b 65 d1 bd 9f c5 59 bd 15 75 4a bd
       -0.113756835 -0.10224422 -0.05316698 -0.049428064
0000b0 df 49 89 bd a7 b1 24 bc 4d 98 89 3d 47 5e 39 bd
       -0.06703543 -0.010052121 0.06718502 -0.045255926
0000c0 37 62 07 3d b6 ac c3 3d c9 c3 9c bd ee fd b5 3c
       0.03305265 0.09554426 -0.076545306 0.02221581
0000d0 7c 18 5b 3c 92 25 90 bd 21 a8 9b bd 8e ba 46 be
       0.013372537 -0.07038416 -0.076004274 -0.19407102
0000e0 38 ad dd 3b 94 08 c9 bd 8f 21 85 bd 02 49 14 bd
       0.006765034 -0.09816089 -0.065005414 -0.03620244
0000f0 28 bc 03 bd a1 8a bc 3b 19 3d 17 3c 7f 70 b4 3c
       -0.03216186 0.0057538305 0.009230875 0.022026299
000100 5b df 80 3d 14 8c b9 3c 68 4f e0 bd ff 92 91 39
       0.06292602 0.022649802 -0.109526455 0.00027766076
000110 65 04 d9 bd 38 9f d0 3c 09 2f 27 bd 50 d6 a9 3d
       -0.10596541 0.025466546 -0.04081634 0.0829283
000120 a1 9f 7a 3d 9b 1d 32 be e7 2b 8a bd 7f 38 89 3d
       0.06118739 -0.17394106 -0.06746655 0.06700229
000130 8a c0 6f bd a7 cb 8f bd b9 e4 d7 bd 16 f4 96 bd
       -0.05853323 -0.070212655 -0.10541672 -0.073707744
000140 94 20 56 be be f9 55 bd 5e 7b 19 3b 7c 10 20 bd
       -0.20910865 -0.052240126 0.002341948 -0.03907822
000150 6e 72 89 3d e6 f0 08 bd 70 3c 95 3d 79 bf 9a 3c
       0.06711279 -0.033432864 0.07286918 0.01889013
000160 67 c1 ba bc 25 89 df 3c 12 62 40 bd 39 f0 f8 bb
       -0.0227973 0.027287075 -0.046968527 -0.007596996
000170 37 e2 02 bc 3a 40 46 bd 33 8f fe 3c 6b 9e aa bd
       -0.007988504 -0.048401095 0.031074142 -0.08330997
000180 64 4e 98 3c 60 df 10 3d 37 27 48 bd a6 89 10 bc
       0.018592067 0.035369277 -0.048865523 -0.00882188
000190 13 f8 00 bd d8 4e 2f bd 81 a6 46 bd 27 12 8f 3c
       -0.031486582 -0.0427998 -0.048498634 0.01746471
0001a0 d0 12 a2 bd 73 e2 e6 bd 87 8c 9b 3d 22 54 19 bd
       -0.079137444 -0.112736605 0.07595163 -0.03743375
0001b0 2b 63 9c bd 2f f6 55 bb e6 15 1d bd 62 f9 ef bd
       -0.07636102 -0.0032647958 -0.038350962 -0.11717488
0001c0 c4 3a 8a bd 4e ed b5 bd 1a f2 85 bd 9b e4 aa 3d
       -0.0674949 -0.08883153 -0.06540318 0.08344384
0001d0 c8 b5 15 be 1e 24 58 3c 4d ce 78 3d 00 ed 98 bc
       -0.14620125 0.013192205 0.06074362 -0.018667698
0001e0 41 3e 00 3d da 95 79 bd 3f 55 b3 bd c3 3f a2 bd
       0.03130937 -0.060933925 -0.08756494 -0.07922318
0001f0 39 65 c5 bd 4e 22 aa bd 79 bd 7c 3d cb 6f 5c bd
       -0.09638447 -0.08307324 0.061704133 -0.05381755
000200 94 3e 09 bc c4 e0 d2 bd e6 3b e5 bc 8a 7e 27 bd
       -0.008376736 -0.10296777 -0.027982663 -0.04089216
000210 ca 69 89 3b c1 5f ac 3d 44 b0 06 bd 43 f5 a2 bd
       0.0041935192 0.08416701 -0.032882944 -0.07956936
000220 16 d3 f9 3c 6b 29 2d 3c 01 85 d0 bc 80 bd 20 bd
       0.030496161 0.010568957 -0.025454046 -0.03924322
000230 6f 9b 11 3d e3 cd 1b bd 57 0e 98 3d 8c d9 88 bd
       0.035548624 -0.038038146 0.0742461 -0.06682119
000240 6f 8a 4c bd 17 26 64 3d c0 74 31 3d b6 0e 84 bd
       -0.049936708 0.055700388 0.043324232 -0.064481184
000250 46 43 09 3b ef 42 06 bd 4a dc c4 3c 4e 15 bb 3c
       0.002094464 -0.032778677 0.024030823 0.022837307
000260 82 32 b3 ba 74 e1 7d 3d 90 8a 6b bc 15 e9 2d bc
       -0.0013671669 0.061982587 -0.014376298 -0.010614653
000270 2d fc 88 bd 97 25 2c bb 20 2a e1 3b 46 a2 f0 3c
       -0.06688724 -0.0026267522 0.006871477 0.029374253
000280 0a 22 78 bc 87 11 e4 3c 6d aa 87 bd 86 92 80 bd
       -0.015144834 0.027840389 -0.06624303 -0.06277947
000290 6f 85 ec 3b a2 60 3b bd 37 d3 82 bd f5 e7 92 bd
       0.007218055 -0.045746453 -0.06387942 -0.071731485
0002a0 97 d1 9c bd 22 ba a9 bd 0d 3f bc 3c 61 8b 87 bc
       -0.076571636 -0.08287455 0.022979284 -0.016545953
0002b0 33 8e 83 bd aa b1 dc bc b1 c2 ad bd 79 50 22 bd
       -0.06423607 -0.026940186 -0.084844 -0.039627526
0002c0 cf 60 39 bc f1 71 db 3b b0 c2 19 3d b8 bd d7 bd
       -0.011314585 0.0066969325 0.037539184 -0.10534233
0002d0 b5 e5 6e 3c 32 3e 9c 3c 56 3c 35 3d 21 14 95 3d
       0.014581134 0.019072626 0.044246994 0.0727923
0002e0 fd fd 52 3d da 3c cc bc d1 49 04 bd 12 ba 04 bd
       0.051511753 -0.02493136 -0.03229696 -0.032404013
0002f0 44 ae 44 bc 68 b8 8e 3b a5 81 fa 3c d3 25 80 3d
       -0.012004439 0.004355479 0.030579397 0.062572144
000300 57 01 bc bd 91 92 30 3d aa 72 6a bd d9 75 23 3d
       -0.09179943 0.043108527 -0.05723826 0.03990731
000310 23 fa 83 39 ef 14 67 bd 50 a5 c1 bc aa 02 8f bd
       0.00025172633 -0.05641645 -0.023638397 -0.0698293
000320 bf 04 9c bc 87 33 b9 bd 2b 44 9c bd 09 78 32 3d
       -0.019045232 -0.09043031 -0.076301895 0.043571506
000330 2c 69 d6 bd 6e 91 96 bd da 89 73 3d 47 b5 58 bd
       -0.10469279 -0.07351957 0.059457637 -0.052907255
000340 5e 6c 3a bd cb d4 e6 bd e6 05 80 bc 68 bf 28 3c
       -0.045513503 -0.11271056 -0.015627813 0.010299541
000350 64 8e d7 3c f5 57 a3 bb 88 d7 3d bc ee ce aa bc
       0.026313014 -0.0049848505 -0.011587031 -0.020850625
000360 07 72 7e 3d f3 e5 be 3b 33 63 0e bd da 84 2d bc
       0.062120464 0.005825752 -0.034762572 -0.010590756
000370 6c 88 b0 3c 38 46 1a bc 45 11 78 3d 51 9e 7e 3d
       0.021549426 -0.0094161555 0.060563345 0.0621627
000380 24 ea e5 bc b3 40 8b 3c 66 cc 86 3d 88 df 86 bd
       -0.028065749 0.016998624 0.06581955 -0.06585604
000390 4c b0 9f bc d5 24 66 bd 86 82 a3 bd e3 59 d8 3d
       -0.019493245 -0.05618747 -0.0798388 0.105640195
0003a0 66 09 98 bc f0 d1 9f bd d9 4e b4 bd 63 d4 42 3d
       -0.018559169 -0.07803714 -0.088041015 0.04756583
0003b0 a3 c4 8f bc c9 03 0e bd 6e aa 86 3d 2a 07 fc bc
       -0.017549818 -0.03467158 0.06575476 -0.030765135
0003c0 be de c3 bc 39 e0 9f 3d 63 6d 46 3d cf ef 94 bd
       -0.023909923 0.07806439 0.048444163 -0.07272302
0003d0 b9 7c 40 bd 88 e4 5d bd 73 0d 4a 3d 51 ae d9 3c
       -0.046993945 -0.054173023 0.049329232 0.026572378
0003e0 dc 2c 5d 3d 6b 42 51 bd 7f bc af 3d c7 3d 2d bd
       0.05399786 -0.05108873 0.08580875 -0.042295244
0003f0 0d 46 51 3d 3c 41 62 3d b3 09 4a 3d 46 ef 19 3c
       0.051092196 0.055237994 0.049325656 0.009395426

fc2.bias f4 [64]
000000 63 17 ab bd 7a 19 61 bd 4d 66 14 3d e7 1c 73 bd
       -0.0835407 -0.054955937 0.036230374 -0.059353735
000010 e8 12 ae 3d 9f be 83 bd c2 10 97 bd 1c 76 b9 3b
       0.084997 -0.064328425 -0.07376243 0.0056598317
000020 65 af 2c 3e 0d 8e 2b 3d a5 a7 dd 3d f3 33 e5 bc
       0.16863783 0.041883517 0.10822991 -0.027978873
000030 49 d1 5b 3c 19 f4 80 bc f8 41 92 bc 14 b9 0a 3d
       0.013416597 -0.015741395 -0.017853722 0.03386791
000040 63 c1 5b 3d ea 95 70 3d 92 8a ab 3d bd 64 0c bd
       0.053651225 0.05873672 0.083760396 -0.03427576
000050 ee 85 1f bd 6a 0c 80 bd aa 45 88 3d 31 e1 da bd
       -0.038946085 -0.06252368 0.06653912 -0.10687483
000060 bc b7 bd 3c 68 4f 07 3e a2 e3 b7 3c c6 04 f7 bb
       0.0231589 0.13213885 0.022447411 -0.007538411
000070 24 32 9c bd 8f bc a8 bd 85 72 05 bd 47 a3 c0 bd
       -0.07626751 -0.0823909 -0.032579917 -0.09406143
000080 8a b2 e5 3d 87 31 83 3c c2 85 8e 3d c4 29 3e bd
       0.11215694 0.016014827 0.06959106 -0.04642655
000090 38 28 b6 bd 37 c9 0d 3e 0d 4f 1c 3c 4f bf 3e bc
       -0.0889439 0.13846289 0.009540332 -0.011642291
0000a0 8d 4e ca bd ff 8d 3a 3e 72 d2 2d 3d 5e 84 df 3d
       -0.098782636 0.1821823 0.042437024 0.10913919
0000b0 32 11 96 3d 13 2e ab bd c3 d8 a4 bd d2 f8 25 bb
       0.073274985 -0.08358397 -0.080491565 -0.002532531
0000c0 92 61 db bd 67 a9 85 39 62 09 26 3e f7 c2 3a 3d
       -0.107119694 0.0002549395 0.16214517 0.04559609
0000d0 cf 2e 2d 3e 6a 09 b2 bd db 97 ae 3c 69 47 07 3d
       0.16912387 -0.08693202 0.021312645 0.033027086
0000e0 5f 19 49 bd 9a f6 29 3e e4 f2 38 bd c9 29 88 bd
       -0.04909646 0.16597977 -0.045153514 -0.06648595
0000f0 14 d1 5c 3d e4 c0 41 3c fd b9 25 39 11 16 3a 3d
       0.05391033 0.011825774 0.00015804912 0.0454312

fc3.weight f4 [7, 64]
000000 7e 92 28 bd 42 75 cc bd 83 d9 c0 3d b1 75 85 3b
       -0.04115533 -0.09983303 0.09416487 0.004072868
000010 33 12 33 3e d9 e6 07 3e b0 74 ae 3c 66 71 df bc
       0.17487411 0.13271655 0.021295875 -0.027275752
000020 2c a3 fa 3d e4 0a 98 bd 8b 0f c1 3d 9f 78 58 3d
       0.12238154 -0.07423952 0.09426793 0.05284941
000030 d3 b1 4d 3d 3c 4c 48 3d 59 b5 0c 3e 85 e5 f6 bd
       0.050218415 0.048900828 0.13741054 -0.12055496
000040 57 75 93 3d c6 d5 7a bc 45 68 b7 3d 17 03 aa bb
       0.07200115 -0.015309757 0.08955435 -0.0051883566
000050 f6 a4 e2 3d b4 0a 69 bd 46 dd 80 3d 4d ae 6b ba
       0.1106662 -0.056894973 0.062922046 -0.00089905114
000060 75 9e 8f bd 00 94 eb 3d 66 9f e0 bd b5 71 33 3c
       -0.07012645 0.11502838 -0.10967903 0.010952403
000070 52 c5 4f 39 b6 22 ee bd 0a 6a 63 3d d3 2b d6 3d
       0.00019814566 -0.11627714 0.05552105 0.104575776
000080 d5 ef 5c 3d 59 9e 93 3d 4d 79 b8 3d 08 7d a1 3d
       0.05393966 0.07207937 0.09007511 0.07885176
000090 43 7a 85 3d a5 16 52 3e 54 d3 ce ba 10 d5 a6 3c
       0.0651746 0.2051645 -0.0015779533 0.020365268
0000a0 aa c4 d7 3d d5 4b 88 3d 48 bb 41 bd 2f fb b8 3c
       0.105355576 0.06655089 -0.047297746 0.022580711
0000b0 d7 33 10 3e d4 ef 8d bb 94 ea bd 3d e4 7b c7 bd
       0.14082275 -0.0043315683 0.09273258 -0.09740427
0000c0 0e f3 d9 bd 21 fe b2 bd 45 34 09 3e 40 72 12 3e
       -0.10642062 -0.087398775 0.13398845 0.14301395
0000d0 d1 54 2f 3d bc b1 62 3d 64 85 48 bd 1c 36 e0 bd
       0.042805497 0.055345282 -0.048955336 -0.109478205
0000e0 7a e0 f8 3c cf 5c 94 3d 25 81 a2 bd 4e f3 b6 bd
       0.030380476 0.07244264 -0.079347886 -0.089331254
0000f0 d4 31 45 bd 51 09 32 bd 9b f0 40 3d e7 e2 63 bc
       -0.048143223 -0.043465916 0.04710446 -0.013909078
000100 44 e6 8f bc a7 4b d3 bd b6 ce 01 3d bc 31 ad 3d
       -0.017565854 -0.10317164 0.031691276 0.08456752
000110 70 e1 53 39 8a 5c c7 3d 28 7d 64 3d 0a c0 05 3e
       0.0002020651 0.09734447 0.05578342 0.13061538
000120 1a 05 87 bc 3e a0 26 3e e4 76 0e bd 9f 70 19 3e
       -0.016481925 0.16272065 -0.03478135 0.14984368
000130 da bb 07 3d 4b 41 ca bd 76 19 d9 bd 0d fa 89 3d
       0.033138134 -0.09875735 -0.106005594 0.067371465
000140 86 8f f5 3c 36 c4 8c 3d 30 34 63 3d 84 60 5d 3d
       0.029975664 0.06873362 0.05546969 0.054047123
000150 c0 da 1a bd ec 3c 15 bd dc 20 07 3e 74 d8 c0 bd
       -0.037806273 -0.036435053 0.13196129 -0.09416285
000160 db dd a9 3d 25 af 22 3e 9f 8c 48 3e 0d 15 71 bd
       0.08294269 0.15887125 0.19584893 -0.058857966
000170 f6 1b bf 3d 33 96 6e 3d 99 fa e9 3d 58 cc 4d 3d
       0.09331505 0.05824871 0.11424751 0.050243706
000180 26 61 cb 3d 23 0a d0 3c dc 6e 2d 3e 61 4e fa 3d
       0.09930639 0.025395459 0.16936821 0.12221981
000190 18 d6 41 3c ab d1 ca 3d e7 32 19 3e b8 c4 3f 3d
       0.011830829 0.09903272 0.14960824 0.046818465
0001a0 a7 7a 0e bd 7d b9 da 3d 6a 15 7b 3c 7a a6 47 3e
       -0.03478494 0.1067991 0.01532493 0.194971
0001b0 7f a1 ff 3d f6 56 94 bd 22 db be bd 7e 78 70 3d
       0.12481975 -0.07243149 -0.0931914 0.05870866
0001c0 4c 60 60 3d 66 2e a4 3d f8 31 98 3c 62 89 15 3e
       0.054779336 0.08016662 0.018578514 0.14603189
0001d0 7b b1 95 3d 86 f1 83 3d 3f e6 8d 3d 52 bc d8 bd
       0.07309242 0.06442551 0.069286816 -0.10582794
0001e0 15 6b cb bd 63 e5 5f 3d 21 27 a1 bd 7c e7 d2 3d
       -0.09932534 0.05466212 -0.07868791 0.102980584
0001f0 eb 45 af 3d 36 08 1e 3d d2 f6 85 3d 18 ce ac bd
       0.08558258 0.03858205 0.06541218 -0.08437747
000200 8f 2c 71 3d 75 38 a7 bd 4c b6 cf bc 58 a5 d1 bc
       0.058880385 -0.08165065 -0.02535548 -0.025591537
000210 04 96 b8 3d 2b eb a2 3d a8 1d df 3b 35 2c 0f 3c
       0.09012988 0.07955011 0.006808955 0.008738567
000220 99 df 17 3e 22 21 de 3d f4 50 85 bc c2 02 b5 bd
       0.1483139 0.10846163 -0.016273953 -0.08838417
000230 91 13 ee bd 25 f3 84 bd c6 02 5e bc 38 84 0b bb
       -0.11624826 -0.06491689 -0.013550466 -0.0021288525
000240 97 bd 1a 3e 04 06 68 3a a6 81 2f 3d ba ae cf 3c
       0.15111385 0.0008850994 0.04284825 0.02535187
000250 43 09 8d bd 54 dd 6e 3b 8f 5f 0a 3d 99 62 5d bd
       -0.06886532 0.003644784 0.033782538 -0.05404911
000260 f5 c5 11 3d a8 76 3b 3c 21 dc b2 bd 2e 39 a0 3d
       0.035589177 0.011441864 -0.087333925 0.07823406
000270 6a 14 35 bc 97 98 88 3d 1b 10 fe bc d4 e1 44 3c
       -0.01105223 0.06669729 -0.031013539 0.012016732
000280 08 09 c1 3d 89 1a 9a bd 5b 45 be bd 1f 9e cf 3c
       0.09425551 -0.075245924 -0.09290572 0.025343953
000290 28 24 5c 3d 01 dd 65 3c 7d f6 24 3e 58 3a ad bc
       0.05374542 0.014029742 0.16109653 -0.021145985
0002a0 04 a5 57 3d 9d 34 4c bd fb 3f 0f 3e e8 f0 34 3e
       0.052647606 -0.049854863 0.1398925 0.17670023
0002b0 5d 1a d8 3d 24 d1 d4 ba 32 d7 99 3d 81 bf c6 bd
       0.105519034 -0.0016236645 0.075117484 -0.09704495
0002c0 a0 9b 3a bd 42 dd 68 bb dd 2e 8c 3d 59 f6 46 3c
       -0.04555857 -0.003553227 0.06844876 0.012143695
0002d0 40 d7 ba 3d 90 0e 81 bd 8b 61 b1 bd 6e 5f 95 bc
       0.09123087 -0.06301606 -0.08661183 -0.018233981
0002e0 3c b0 63 bd 0d 83 8f 3c 31 5d e7 3d ad ca ff 3b
       -0.055587992 0.017518545 0.11297072 0.0078061433
0002f0 d6 50 8c 3d 96 8f 47 bb b8 d0 c6 3d e3 2d 8c bc
       0.06851356 -0.0030450574 0.09707779 -0.017111724
000300 b7 4e e5 bd 63 24 c4 3d 6d 2a b6 3d d0 75 37 bc
       -0.11196654 0.09577253 0.08894811 -0.011197522
000310 eb e6 f8 bd ee b3 31 3d f3 8d 54 bd b1 61 90 bd
       -0.12153419 0.043384485 -0.051893186 -0.07049883
000320 33 97 9c 3d 54 0a ab bd c6 8d 6c bc a8 77 df ba
       0.076460265 -0.08351579 -0.014438098 -0.001704921
000330 fc bd 04 bd f2 38 82 bd 74 dc 81 3d fd b1 bb bd
       -0.032407746 -0.06358518 0.06340876 -0.09164808
000340 62 8c 21 3d 9c 7b a2 3d 51 77 06 3e 61 ce f8 3d
       0.03944052 0.07933733 0.13131453 0.12148739
000350 65 d0 9d 3b 17 76 74 bd 7c 6c 5c 3c 1e 94 73 bd
       0.0048161023 -0.05968293 0.013453599 -0.059467427
000360 f5 98 a2 bd 2f 42 ea 3d 44 00 8e bd 27 c0 32 3c
       -0.079393305 0.11438405 -0.069336444 0.0109100705
000370 b9 68 a0 bd d6 30 85 3c c2 8d c7 3b 28 2c c3 3d
       -0.07832474 0.016258638 0.006089897 0.095299065
000380 b5 da 22 3e bf 80 e2 3a 2d b3 52 bd 52 91 30 bd
       0.15903743 0.0017280801 -0.051440407 -0.04310734
000390 31 b2 b2 3d 06 1f 05 3e 3b 6b 3b 3c 74 c6 20 3d
       0.087253936 0.13000116 0.01143914 0.03925176
0003a0 f3 97 b8 bd 29 f3 e3 3c c4 98 02 bd 92 38 1e be
       -0.09013357 0.027825909 -0.03188397 -0.15451267
0003b0 81 7e 36 3d 39 73 e9 3d 76 19 0a bd 51 bd c9 3d
       0.044554237 0.1139893 -0.033715688 0.09850562
0003c0 2a 34 01 3c bd ba 00 bd de 31 d8 3c d6 f4 80 bd
       0.007885972 -0.031428088 0.026390966 -0.06296699
0003d0 e5 76 19 3d 50 e4 39 3d 8c 18 0e be 28 66 89 bd
       0.037466902 0.04538375 -0.13876551 -0.06708938
0003e0 39 6e 9d bd 40 c2 47 3e 1d 86 8a bd d6 4b 91 bd
       -0.07687039 0.19507694 -0.06763861 -0.07094543
0003f0 33 ed 25 3d d6 2d 43 3e 25 af 1e 3e bc 1d 53 3d
       0.040509414 0.19060454 0.154965 0.05154203

fc3.bias f4 [7]
000000 8a b4 fa 3b 40 3d 66 3c ed fb 90 3d 84 04 32 3e
       0.0076509165 0.014052689 0.07079301 0.17384535
000010 ec 6e 4f bd 56 66 cd bc 94 e4 26 bd
       -0.050642893 -0.025073212 -0.040745333
