rl_agent/output/dqn/episode_200/model_weights.pth (torch, 59972 bytes, 6 tensors)

fc1.weight f4 [128, 43]
0	0xbdfd2af2	-0.12361707
1	0x3e3eb9f6	0.18625626
2	0xbb5c1e7d	-0.0033587508
3	0xbd849fea	-0.06475814
4	0xbd0737fa	-0.033012368
5	0x3d839955	0.0642573
6	0x3d3b5c01	0.04574204
7	0x3bc7af60	0.0060939044
8	0x3d0d345e	0.03447377
9	0x3db50d0f	0.08840381
10	0x3d8f09f0	0.06984317
11	0xbe20815d	-0.15674348
12	0xbdc3f6e0	-0.09568572
13	0xbdde907e	-0.108674034
14	0x3ba63f40	0.005073458
15	0x3df2abf5	0.118492045
16	0x3e35836b	0.17725913
17	0x3e0dbe1d	0.13842054
18	0xbe2e95b2	-0.17049292
19	0x3d26e8a1	0.040749196
20	0x3de587fc	0.112075776
21	0xbddb6db2	-0.10714282
22	0x3d6515d2	0.055929013
23	0x3d3404e6	0.043949984
24	0x3e237b41	0.15964986
25	0xbd833665	-0.06406859
26	0xbd5d89da	-0.054086544
27	0xbdebdaa8	-0.11516315
28	0xbc5f37c0	-0.013624132
29	0x3da8d8ac	0.08244452
30	0x3d2dbab0	0.042414367
31	0xbd1180a1	-0.03552306
32	0x3de19fb8	0.11016792
33	0xbd13f28e	-0.03611999
34	0x3d630696	0.055426203
35	0xbc0ea8e0	-0.008707255
36	0xbc5203eb	-0.012818317
37	0x3d0e64e0	0.03476417
38	0xbcfeed7c	-0.0311191
39	0xbc81b216	-0.015831988
40	0xbdf9805f	-0.12182688
41	0xbda86016	-0.08221452
42	0xbe078c46	-0.13237104
43	0x3d20e84b	0.03928403
44	0x3d37904b	0.044815343
45	0xbe25ec64	-0.16203457
46	0xbd2a47b8	-0.041572303
47	0xbdd441a8	-0.103640854
48	0xbe8d8698	-0.2764175
49	0xbddfd57a	-0.10929389
50	0xbdf224b0	-0.11823404
51	0xbe4441ac	-0.19165677
52	0x3b314d0e	0.0027053985
53	0xbdfe9cef	-0.124322765
54	0x3c2c2f16	0.010509273
55	0xbd154d86	-0.036450885
56	0x3d43d9ea	0.04781524
57	0x3de57210	0.11203396
58	0x3da4af91	0.08041299
59	0x3e1650a2	0.14679196
60	0x3d9271fe	0.071506485
61	0x3e0d4ea6	0.13799533
62	0x3d6c4f06	0.05769255
63	0xbdf3c3e3	-0.11902597
64	0x3b9c4fe0	0.004770264
65	0xbd78dbfb	-0.060756665
66	0x3d940b65	0.07228736
67	0x3d3069db	0.0430697
68	0xbd986612	-0.07441343
69	0x3d3abd1f	0.045590516
70	0x3d4a66cf	0.049414452
71	0x3de3df64	0.11126593
72	0xbdf534b6	-0.119729444
73	0x3dc5af9f	0.09652638
74	0x3ddb210e	0.10699664
75	0xbda913e6	-0.082557485
76	0xbe05baaf	-0.13059495
77	0xbe033269	-0.12812199
78	0x3d323df0	0.0435161
79	0x3c05c8bf	0.008165537
80	0x3d8f753f	0.07004785
81	0x3de53ce5	0.11193255
82	0xbd01a0c3	-0.031647455
83	0xbda00203	-0.07812884
84	0x3e2e7ea8	0.17040503
85	0x3d7f6ef0	0.062361658
86	0xbe3bafcd	-0.18328781
87	0x3d37a99f	0.044839498
88	0xbe1ce2c5	-0.1532088
89	0xbdc77ef9	-0.09741015
90	0x3ce30831	0.027713867
91	0x3e51083d	0.20413299
92	0xbdfd518b	-0.12369069
93	0x3d38082c	0.04492967
94	0xbda43cb2	-0.08019389
95	0x3dc808db	0.09767314
96	0xbd5c7e82	-0.053831585
97	0x3e3b325e	0.18280932
98	0x3ca6188e	0.02027538
99	0xbd83e1d0	-0.06439555
100	0x3d5467c4	0.05185677
101	0x3a324327	0.00068001676
102	0x3de7fff1	0.11328114
103	0x3cb044fc	0.02151727
104	0x3e30dd1a	0.17271844
105	0x3e2b1329	0.16706528
106	0xbe46aedd	-0.19402643
107	0xbdb7ce3f	-0.08974885
108	0x3d976457	0.07392185
109	0xbe1a006f	-0.15039228
110	0xbd68ce6f	-0.056837495
111	0xbd90c5e1	-0.070689924
112	0x3dba0045	0.09082083
113	0x3cebaa58	0.02876775
114	0x3cc00f60	0.023444831
115	0x3cf8557e	0.030314203
116	0xbd201285	-0.03908016
117	0x3d0a00a0	0.033692002
118	0x3d914b13	0.070943974
119	0x3c17816c	0.009247165
120	0x3b6a359e	0.0035737525
121	0x3e1a3930	0.15060878
122	0x3d8d7c67	0.069084935
123	0x3d05e932	0.032693096
124	0x3ddcd9f5	0.107837595
125	0x3d6452a9	0.055742893
126	0x3e01321e	0.12616774
127	0x3bc3bba3	0.005973296
128	0xbd560532	-0.05225105
129	0x3e123935	0.14279635
130	0x3d2fa056	0.042877518
131	0xbe1d5fa9	-0.15368523
132	0xbba7661d	-0.0051086084
133	0x3d3ea5f8	0.046545
134	0xbe406889	-0.18789877
135	0x3ddfe174	0.10931674
136	0xbdf83c52	-0.1212088
137	0xbe23d962	-0.16000894
138	0x3de908d7	0.11378639
139	0x3da93666	0.08262329
140	0xbdff21c1	-0.1245761
141	0xbdd32736	-0.10310213
142	0x3dc9f881	0.098618515
143	0x3ddff610	0.109356046
144	0xbe427e6a	-0.18993536
145	0x3d04bfd5	0.032409508
146	0xbd3441ba	-0.044007994
147	0x3da20f29	0.07913048
148	0xbce4e862	-0.02794284
149	0x3d6e4363	0.058169734
150	0x3dd32d88	0.10311419
151	0x3dd7597e	0.10515116
152	0xbe0e2a0a	-0.13883224
153	0x3d8b243d	0.06794021
154	0x3db590ec	0.08865532
155	0x3d3a89df	0.04554164
156	0x3e078e10	0.13237786
157	0x3d858b12	0.06520666
158	0x3d921e94	0.071347386
159	0x3dfb74be	0.12278126
160	0xbe0e62e1	-0.13904907
161	0xbde2660d	-0.11054621
162	0xbdd0ff95	-0.102049984
163	0x3da6bbf7	0.0814132
164	0x3d84c320	0.0648253
165	0x3db4ad2a	0.08822091
166	0x3de38c4c	0.11110744
167	0x3ce598a1	0.02802688
168	0xbd8600e6	-0.0654314
169	0x3d142e13	0.036176752
170	0xbd252981	-0.040322784
171	0x3e198bea	0.14994779
172	0x3dd7cf5a	0.10537596
173	0xbd40fe8e	-0.047117762
174	0xbdebd890	-0.115159154
175	0x3e39214b	0.18079107
176	0x3e02e66b	0.1278321
177	0x3d05eb04	0.03269483
178	0xbe091b1e	-0.1338925
179	0xbcd9fa78	-0.02660869
180	0x3d96c16d	0.07361112
181	0xbda9df65	-0.08294562
182	0xbd40098d	-0.04688411
183	0x3ce241f5	0.027619341
184	0x3d7a3df1	0.06109423
185	0xbe31d239	-0.1736535
186	0xbd715354	-0.05891736
187	0x3dc54ea2	0.09634139
188	0xbe072a5e	-0.13199756
189	0xbdc2acec	-0.095056385
190	0x3d4d20eb	0.05008022
191	0x3d569a5f	0.052393313
192	0xbcce467a	-0.02518009
193	0x3dd85b4c	0.105642885
194	0xbd3c1703	-0.045920383
195	0xbd3f05c5	-0.04663636
196	0xbd3bb13f	-0.045823332
197	0x3dad6b75	0.084677614
198	0x3dbffd4d	0.09374485
199	0x3dbe165a	0.09281607
200	0x3dc9987c	0.09843537
201	0xbe175189	-0.14777197
202	0x3d79020b	0.060792964
203	0x3db7717a	0.08957191
204	0x3c6d47dc	0.014482465
205	0xbda9bbb8	-0.08287758
206	0xba9dd498	-0.0012041507
207	0x3cc0c780	0.023532629
208	0xbde47135	-0.11154405
209	0x3d9fdd8d	0.07805929
210	0xbdbc36f4	-0.09190169
211	0x3ccef20d	0.025261903
212	0xbe04f9f2	-0.12985972
213	0x3e40f5ca	0.18843761
214	0xbdb853fc	-0.09000394
215	0xbcf32c57	-0.029684229
216	0xbe1e799e	-0.15476081
217	0x3d74f1ac	0.05980079
218	0xbcdd4553	-0.027010595
219	0xbdc71db0	-0.09722459
220	0xbd5d8c8e	-0.05408912
221	0xbe5530e5	-0.20819433
222	0xbdcafd56	-0.09911601
223	0xbe1aad6c	-0.15105218
224	0xbdf2be86	-0.11852746
225	0xbe175262	-0.1477752
226	0x3d7cb1b8	0.061692923
227	0xbdd8159c	-0.10550997
228	0x3d0432c6	0.032274984
229	0x3ce82660	0.028338611
230	0xbd811f07	-0.06304746
231	0xbd458845	-0.04822566
232	0xbd5822ea	-0.05276767
233	0x3db5262b	0.088451706
234	0x3dc2b3cb	0.09506949
235	0xbdf755c2	-0.12076904
236	0xbcfab8f8	-0.030605778
237	0xbda3cdb5	-0.0799822
238	0x3ca6df83	0.02037025
239	0xbe3939b1	-0.18088414
240	0x3d1d155c	0.038350448
241	0x3dae54fe	0.08512305
242	0x3d4bc813	0.049751353
243	0xbdfbcaf2	-0.12294568
244	0xbdbf3309	-0.09335906
245	0xbdbe8f29	-0.093046494
246	0xbe1b70ce	-0.1517975
247	0x3e4c963b	0.19979183
248	0xbd3cce46	-0.046095155
249	0x3e02a4ce	0.1275818
250	0x3bec60a0	0.007213667
251	0xbcac5ccb	-0.02104034
252	0xbdca6106	-0.09881787
253	0x3cf5c8b5	0.030002931
254	0x3e346dd5	0.17620023
255	0x3e6f4737	0.2336701

fc1.bias f4 [128]
0	0xbadab0ce	-0.0016684772
1	0x3e4d699a	0.20059815
2	0x3e179c50	0.14805722
3	0x3e6f3e3e	0.23363587
4	0x3dc4da1e	0.09611915
5	0x3da1f163	0.07907369
6	0x3e3906e8	0.18069041
7	0xbd9b2487	-0.075753264
8	0xbcb1d80e	-0.021709468
9	0xbd037350	-0.032092392
10	0x3de388c1	0.11110068
11	0x3dfe1a3d	0.12407348
12	0xbdcb08e7	-0.09913807
13	0xbdfc8aaa	-0.123311356
14	0x3e30ccb3	0.17265587
15	0x3e04ad75	0.12956794
16	0xbdad2636	-0.08454554
17	0x3de38df1	0.111110575
18	0xbcaf566c	-0.021403514
19	0x3b9191c1	0.004442424
20	0x3d687814	0.05675514
21	0x3e741646	0.23836622
22	0x3d6f61cc	0.058442876
23	0x3e08d193	0.13361196
24	0x3df39dc4	0.11895326
25	0x3dda7f2d	0.10668788
26	0xbdf4ff8d	-0.11962805
27	0xbdf3eb0e	-0.119100675
28	0x3e30d502	0.17268756
29	0x3e9de7ed	0.30841008
30	0x3e10b9eb	0.14133422
31	0xbd674d69	-0.05647031
32	0xbda36549	-0.07978303
33	0x3e4e5d6c	0.20152825
34	0xbc93e83b	-0.018055072
35	0x3e138042	0.14404395
36	0x3ca7e3bb	0.020494333
37	0x3cf6be1b	0.030119946
38	0x3decdec3	0.11565926
39	0xbd5223b0	-0.051303566
40	0x3e151d45	0.14561947
41	0x3de53a67	0.1119278
42	0xbd3538ce	-0.044243626
43	0x3e538799	0.20657195
44	0xbc7aadaf	-0.015300198
45	0x3ca62095	0.020279208
46	0xbbe7aade	-0.0070699295
47	0xbd81b093	-0.06332507
48	0xbe128b04	-0.14310843
49	0x3dad9098	0.08474845
50	0xbde1b4db	-0.110208236
51	0xbcc74a51	-0.024327429
52	0x3daf7832	0.08567847
53	0xbddfb51b	-0.10923215
54	0x3dd5d091	0.104401715
55	0xbe2bc55c	-0.16774505
56	0x3c9ba195	0.018997947
57	0xbdbf9374	-0.09354296
58	0x3dc4b037	0.09603923
59	0x3b6978ab	0.0035624902
60	0x3b714f26	0.0036820858
61	0xbdd4f668	-0.10398561
62	0xbd6abc3f	-0.05730843
63	0x3e27e09f	0.1639428
64	0xbdcaea05	-0.09907917
65	0x3d83f57d	0.064433075
66	0xbcfd221b	-0.030900052
67	0xbe31fac6	-0.17380819
68	0xbde5393d	-0.11192558
69	0xbcbabae2	-0.02279419
70	0x3dd8b335	0.10581056
71	0x3dc5b5c3	0.09653809
72	0x3d504295	0.050844748
73	0x3d849a86	0.064747855
74	0x3dac6629	0.08417923
75	0x3e5f8bba	0.21830645
76	0xbdcbf719	-0.099592395
77	0x3d474ea4	0.048658982
78	0xbd40c77d	-0.047065247
79	0xbd1e0e47	-0.038587835
80	0xbcb70d5c	-0.022345237
81	0x3e53ef63	0.20696788
82	0x3ddbb3c1	0.10727645
83	0x3db12faa	0.08651669
84	0x3d014092	0.03155572
85	0x3e424e11	0.18975092
86	0xbcf03e7b	-0.029326668
87	0x3e50732c	0.20356435
88	0xbe0e35f9	-0.13887776
89	0x3e405bf0	0.18785071
90	0xbdb75b52	-0.08952965
91	0x3b46ff54	0.003036459
92	0x3d8f5b85	0.06999878
93	0x3db3af1c	0.08773634
94	0x3e6cf303	0.23139577
95	0x3e2c8be4	0.16850239
96	0x3e606dd7	0.219169
97	0xbdd5a971	-0.10432709
98	0x3d9b21d0	0.075748086
99	0x3e2adbab	0.16685359
100	0x3e1c0b01	0.15238573
101	0x3e204faa	0.1565539
102	0x3df763a7	0.12079554
103	0x3d214fb3	0.039382648
104	0x3baafcec	0.005218139
105	0xbdce66c4	-0.10078195
106	0x3e319b1c	0.17344326
107	0x3e82a640	0.25517464
108	0x3e023a18	0.12717474
109	0xbd9e28ec	-0.07722649
110	0x3e0b60bf	0.13611124
111	0xbdc55e3c	-0.096371144
112	0x3e062626	0.1310049
113	0x3e8836c8	0.26604295
114	0x3e0f47e8	0.13992274
115	0x3e1ef67d	0.15523715
116	0xbd56343b	-0.052295905
117	0x3ec956fe	0.39324182
118	0xbd95b150	-0.0730921
119	0xbceeaf26	-0.029136252
120	0xbdeb0844	-0.11476186
121	0xbcac7ee3	-0.021056598
122	0xbdc07af4	-0.093984514
123	0xbc854055	-0.016266027
124	0x3dd76766	0.105177686
125	0x3e286486	0.16444597
126	0x3db60610	0.08887875
127	0xbd8f278b	-0.06989964

fc2.weight f4 [64, 128]
0	0xbd84265e	-0.064526305
1	0x3d248157	0.04016241
2	0x3ccfc52c	0.025362574
3	0x3d77f729	0.060538445
4	0xbdb76981	-0.0895567
5	0x3d3747be	0.044746153
6	0x3cfb2bca	0.030660529
7	0x3ceaf38f	0.02868059
8	0x3cd30739	0.02576028
9	0xbd22816b	-0.039674204
10	0xbdb46d44	-0.08809903
11	0x3bdb28c0	0.0066882074
12	0x3d9b4420	0.07581353
13	0xbd5e398c	-0.0542541
14	0xbd569749	-0.05239037
15	0xbd9d8631	-0.076916106
16	0x3c923d53	0.017851507
17	0x3c6c398b	0.014418016
18	0x3d7099ba	0.058740355
19	0xbc02ecdb	-0.007991041
20	0x3aa6b3a9	0.0012718338
21	0xbd414662	-0.047186263
22	0xbd18f38e	-0.037341647
23	0x3d90e4a3	0.07074859
24	0x3d883e6a	0.066525295
25	0x3c592e2a	0.013255635
26	0x3d060b07	0.03272536
27	0xbc1fb5f0	-0.009747967
28	0x3d9102c9	0.07080609
29	0x3d534baa	0.05158583
30	0x3b2a5aa0	0.0025993958
31	0x3d40b106	0.047043823
32	0xbcd811ce	-0.026375677
33	0xbd632abe	-0.055460684
34	0x3aed8ab4	0.0018123002
35	0xbd86a342	-0.06574108
36	0xbdacc067	-0.08435135
37	0xbdb46be0	-0.08809638
38	0xbd4cd929	-0.050011788
39	0xbbb6fc3e	-0.005584269
40	0xbc86e493	-0.016466415
41	0xbd71e064	-0.059051886
42	0x3d176578	0.036962003
43	0xbd5c1310	-0.053729117
44	0xbc9f2050	-0.019424587
45	0xbd34be20	-0.04412663
46	0x3cac57d0	0.021037966
47	0xbdaf50ef	-0.08560359
48	0xbc84c357	-0.016206427
49	0xbdafc5fb	-0.08582684
50	0xbc3b372d	-0.011426729
51	0x3d376782	0.044776447
52	0x3d0b0515	0.033940393
53	0xbdb6bdc8	-0.08922917
54	0xbd2a6d49	-0.04160813
55	0x3d7fa29e	0.062410943
56	0xbd998872	-0.07496728
57	0x3cf70545	0.03015388
58	0xbd612952	-0.054971047
59	0x3ca1eb54	0.019765534
60	0xbd59260f	-0.05301481
61	0x3d8374db	0.06418773
62	0xbd9b8c5e	-0.07595132
63	0x3cd52446	0.026018273
64	0xbd5f4574	-0.054509595
65	0x3d364f2e	0.044509105
66	0x3c864cc1	0.016394021
67	0xbdaee047	-0.08538871
68	0x3d5c347e	0.053760998
69	0x3d36cea2	0.044630654
70	0xbc2a3567	-0.010388709
71	0xbd8e6e23	-0.06954601
72	0x3c10a8de	0.008829324
73	0xbd21b8c2	-0.03948284
74	0xbd370aa0	-0.044687867
75	0xbd29ab81	-0.041423324
76	0xbd2dd09a	-0.042435266
77	0xbd81e10a	-0.06341751
78	0x3d014cee	0.031567506
79	0x3c41f306	0.011837726
80	0xbd1a7512	-0.037709303
81	0xbd4f551d	-0.05061828
82	0x3dacc86f	0.08436667
83	0xbd8cd6cb	-0.06876906
84	0x3d36efa2	0.044662125
85	0xbd853261	-0.0650375
86	0x3c167d24	0.009185109
87	0xbcb29460	-0.021799266
88	0xbd9e4705	-0.0772839
89	0xbce3f97e	-0.027828928
90	0x3d7be712	0.061499663
91	0xbd27fbed	-0.04101174
92	0xbc7f9a97	-0.015600822
93	0xbd6c233b	-0.057650786
94	0x3d4b3a8c	0.04961638
95	0xbda132d8	-0.07871026
96	0xbbd29661	-0.006426618
97	0xbd0532db	-0.032519203
98	0x3d866772	0.065626994
99	0xbd897825	-0.06712369
100	0xbd93cd67	-0.07216912
101	0xbd895c5d	-0.0670707
102	0x3d876c6d	0.066124775
103	0x3c11a988	0.008890517
104	0xbdc37386	-0.09543519
105	0x3d9ff3da	0.07810183
106	0xbdb3a20d	-0.08771143
107	0x3c325ff8	0.010887139
108	0x3d3d1c3a	0.046169497
109	0xbd06af70	-0.032882154
110	0xbdad0321	-0.084478624
111	0xbd1895ca	-0.037252225
112	0xbdb78724	-0.08961323
113	0xbd69ec04	-0.057109848
114	0x3c2cdd20	0.010550767
115	0xbd360cdb	-0.044445854
116	0x3d58a0da	0.052887775
117	0x3d5e27d2	0.054237194
118	0xbd42b3f2	-0.04753489
119	0xbb3f6cb2	-0.0029209075
120	0xbc773021	-0.015087158
121	0x3d567939	0.0523617
122	0x3cc53560	0.024073303
123	0xbcbabb28	-0.022794321
124	0x3b643587	0.0034821944
125	0x3d091331	0.033465568
126	0x3d06feda	0.03295789
127	0xbc1edbe0	-0.009695977
128	0x3d5643f9	0.052310918
129	0x3cacd67a	0.021098364
130	0xbd549ffb	-0.05191038
131	0x3e1a4f3d	0.1506929
132	0x3d077b3b	0.033076506
133	0x3d750186	0.059815906
134	0x3dfd1e21	0.12359262
135	0x3d71604b	0.058929723
136	0x3d7a92aa	0.061175026
137	0xbbc099a1	-0.005877689
138	0xbd87eed1	-0.066373475
139	0xbba91d87	-0.0051609906
140	0xbb26fe66	-0.0025481223
141	0x3d02f536	0.031972133
142	0x3c2d9b12	0.010596054
143	0x3dce295c	0.100664824
144	0xbd4c7333	-0.04991455
145	0xbd6fa56a	-0.05850736
146	0xbd975eaa	-0.073911026
147	0x3e0ab29e	0.135447
148	0x3d42c428	0.04755035
149	0x3d0eb168	0.034837157
150	0xbdf07197	-0.117404155
151	0x3c947028	0.018119887
152	0xbd2ada5a	-0.041712143
153	0xbd91ac6e	-0.071129665
154	0x3d117d80	0.035520077
155	0x3ce86e62	0.028372947
156	0x3dbcf789	0.09226901
157	0xbdaf6ae9	-0.08565313
158	0xbdae9fb7	-0.08526557
159	0xbc6757f0	-0.014120087
160	0x3d04b871	0.03240246
161	0x3d229ade	0.039698474
162	0x3dd29e30	0.10284078
163	0xbd6b6e36	-0.057478152
164	0xbc93b493	-0.01803044
165	0xbd2bc932	-0.04193992
166	0x3d842b6b	0.06453594
167	0xbacd837c	-0.0015679444
168	0x3d92e169	0.071719
169	0x3db5e20a	0.08881004
170	0xbcfdc751	-0.03097883
171	0x3ca1eab2	0.019765232
172	0x3d6096ae	0.0548312
173	0x3d685798	0.05672416
174	0xbc6ee4db	-0.014580931
175	0xbd60e43b	-0.054905158
176	0xbbe91c60	-0.0071139783
177	0xbd30ed6d	-0.043195177
178	0x3bb48f5a	0.005510253
179	0x3d749341	0.059710745
180	0xba83d3ec	-0.0010057664
181	0xbd40a813	-0.047035288
182	0x3d1d6545	0.038426656
183	0xbd7193f5	-0.058978993
184	0x3d23fdd5	0.040036995
185	0x3db75bf0	0.089530826
186	0xbddf2070	-0.10894859
187	0x3de235ba	0.11045404
188	0x3d9fcbac	0.07802519
189	0xbd8d5257	-0.06900471
190	0xbdc53240	-0.09628725
191	0x3db977dc	0.090560645
192	0xbc339377	-0.010960451
193	0x3e1ed643	0.15511422
194	0xbdaf7a47	-0.085682444
195	0x3d31f56a	0.043446936
196	0x3c3e9dff	0.011634349
197	0x3dc2ee85	0.0951815
198	0x3cf2dabf	0.029645322
199	0xbdaf6e60	-0.08565974
200	0xbc68a406	-0.0141992625
201	0x3ca0981f	0.019603787
202	0x3d77ea53	0.060526203
203	0xbc46de92	-0.012138026
204	0x3c9619c9	0.018322842
205	0xbdae5ca2	-0.08513762
206	0x3dc3422e	0.09534107
207	0xbcb157a2	-0.021648232
208	0x3cc7eb87	0.0244043
209	0x3d109c1e	0.035305135
210	0xbdc007f6	-0.093765184
211	0x3dc1cba5	0.0946267
212	0xbd9d4067	-0.076782994
213	0x3d92ed15	0.07174126
214	0xbc9b5ce7	-0.018965198
215	0x3ddc6d21	0.10763002
216	0x3e1ce566	0.15321884
217	0x3de5781c	0.1120455
218	0x3e03c0d0	0.12866521
219	0x3c574ff3	0.01314162
220	0x3e0f2aad	0.13981123
221	0x3dcfda40	0.1014905
222	0x3cd26121	0.02568108
223	0x3c1244c5	0.008927529
224	0x3e3e6257	0.18592201
225	0x3d33b1f7	0.043870892
226	0x3c44310c	0.011974584
227	0x3d49e77f	0.049293038
228	0xbd0df3d7	-0.034656372
229	0xbcc5b8a9	-0.024135904
230	0x3d2b35c8	0.041799337
231	0xbc0da873	-0.008646118
232	0x3d72372e	0.059134655
233	0x3dde5cd0	0.10857546
234	0x3ce303b6	0.02771173
235	0x3b556412	0.0032560867
236	0xbce6c1cc	-0.028168581
237	0xbb80b00f	-0.003927238
238	0x3cce74d4	0.025202192
239	0xbd88edd2	-0.066859856
240	0x3c0d1592	0.0086111
241	0x3e0a61ba	0.13513842
242	0x3c8568c5	0.01628531
243	0x3d6d0b93	0.057872366
244	0x3e154d73	0.14580326
245	0xbd9a6b9e	-0.075400576
246	0x3ca39785	0.019969711
247	0xbbf77791	-0.007552095
248	0xbcf461ba	-0.029831756
249	0xbd4c94d8	-0.049946636
250	0xbaedae2f	-0.0018133576
251	0xbd1261f1	-0.035737935
252	0xbda963f5	-0.082710184
253	0xbd5f8924	-0.054574147
254	0xbb97edb3	-0.0046364903
255	0xbc234a9e	-0.009966521

fc2.bias f4 [64]
0	0xbd491bd5	-0.04909881
1	0xbd22a106	-0.039704345
2	0xbda8cd32	-0.08242263
3	0x3dfbe301	0.12299157
4	0xbd6c576b	-0.057700556
5	0x3d8e4932	0.06947555
6	0x3cc669b8	0.024220333
7	0x3cc02aba	0.023457874
8	0xbd89ff5b	-0.06738158
9	0x3d90e61f	0.07075142
10	0xbd5ade5e	-0.053434722
11	0x3d8ccb98	0.0687477
12	0x3d5bc9ef	0.053659376
13	0x3d67fe98	0.056639284
14	0x3db745ac	0.08948836
15	0xbd7291d8	-0.05922112
16	0x3dce75a8	0.10081035
17	0x3c096b6c	0.008387428
18	0x3ddb3263	0.1070297
19	0xbd726946	-0.059182428
20	0x3bb0ff2c	0.0054015126
21	0xbd50173d	-0.05080341
22	0x3cab82f5	0.020936469
23	0x3dcfaa5a	0.10139914
24	0xbd51875a	-0.051154472
25	0xbd310547	-0.043217923
26	0xbd00a3db	-0.031406265
27	0xbdad1be8	-0.08452588
28	0x3da3773d	0.07981727
29	0xbc9c7d6d	-0.019102776
30	0xbdc4c7f4	-0.096084505
31	0x3d96fa0b	0.07371911
32	0x3d826cc3	0.06368401
33	0xbce9d36c	-0.028543197
34	0x3cb7488d	0.022373462
35	0xbda7e111	-0.08197225
36	0x3d0c67d7	0.034278717
37	0xbd903c23	-0.0704272
38	0x3e022455	0.12709172
39	0x3dce1013	0.1006166
40	0xbd891af6	-0.066945955
41	0x3e052706	0.13003168
42	0x3ba30954	0.0049754772
43	0x3d955066	0.072907254
44	0xbd17b795	-0.03704031
45	0xbbbe5329	-0.0058082533
46	0x3da17663	0.078839086
47	0xbd0b89d4	-0.03406699
48	0xbd9e2bc9	-0.07723195
49	0x3d111293	0.035418104
50	0x3d363115	0.044480402
51	0x3de86a2a	0.11348374
52	0xbdb28314	-0.087164074
53	0x3ba45e02	0.0050160894
54	0x3d04c9b4	0.03241892
55	0x3dbc0bc8	0.091819346
56	0x3df7cd2b	0.120996796
57	0xbd9e9963	-0.077441
58	0xbd7d9081	-0.061905388
59	0x3db40cde	0.08791517
60	0x3cf67885	0.030086765
61	0x3d5599f7	0.052148785
62	0xbbabffb3	-0.0052489876
63	0x3e01cd01	0.12675859

fc3.weight f4 [7, 64]
0	0x3ca74d36	0.02042256
1	0xbdaf40d1	-0.085572846
2	0xbc0def75	-0.008663048
3	0x3d473330	0.0486328
4	0x3cca5492	0.02469853
5	0xbd678ac5	-0.056528825
6	0x3d6cc379	0.057803605
7	0xbd18b6aa	-0.037283577
8	0xbd9a93d8	-0.0754773
9	0x3ddbb151	0.1072718
10	0x3dd17632	0.10227622
11	0x3d9912f2	0.07474317
12	0x3dcf80c9	0.10131986
13	0x3c3ee62a	0.011651555
14	0xbcc2609e	-0.023727711
15	0xbdc503ea	-0.09619887
16	0x3da8fc9b	0.08251306
17	0x3d76d63d	0.060262907
18	0x3e4504d6	0.19240126
19	0xbc21c722	-0.009874137
20	0xbd36728b	-0.04454283
21	0xbca6f7e9	-0.020381885
22	0x3de504ef	0.11182582
23	0x3caf2cfc	0.021383755
24	0x3d509c0a	0.05093006
25	0x3d78e35f	0.060763713
26	0xbd9fff1e	-0.078123316
27	0xbd976b80	-0.07393551
28	0xbda4ada0	-0.08040929
29	0xbd873f83	-0.06603911
30	0xbdb6af74	-0.08920184
31	0x3df1cd3f	0.11806726
32	0x3d47b6a1	0.048758153
33	0xbd1f38bf	-0.038872477
34	0xbd2c6b69	-0.04209462
35	0xbdbfdc39	-0.09368176
36	0x3bce3335	0.0062927254
37	0xbcb18c04	-0.02167321
38	0x3e1d93b6	0.15388379
39	0x3d3bcd26	0.04584994
40	0x3da74839	0.08168072
41	0xbdbd7b66	-0.09252052
42	0xbd6d95fd	-0.058004368
43	0x3de4ca4d	0.11171398
44	0x3d7282aa	0.059206642
45	0xbc98c7c9	-0.018649952
46	0x3e02a5e3	0.12758593
47	0x3d04d529	0.032429848
48	0xbdc6bf6b	-0.09704479
49	0xbd88f668	-0.06687623
50	0xbcb096e4	-0.021556325
51	0x3d9c5907	0.07634168
52	0xbc63b69c	-0.013898518
53	0x3d5558c2	0.0520866
54	0xbd580338	-0.052737445
55	0x3dcf88f8	0.101335466
56	0xbd0121b0	-0.031526268
57	0x3e31c5a4	0.1736055
58	0x3d4e6a70	0.050394475
59	0x3e0dea24	0.13858849
60	0x3dbcf60f	0.092266195
61	0x3dbe61bb	0.09295984
62	0x3df4892f	0.11940228
63	0x3e35a1a9	0.1773745
64	0xbca235e8	-0.019801095
65	0x3db2c298	0.08728522
66	0xbd4072b4	-0.04698439
67	0x3db19083	0.086701415
68	0x3abba8fd	0.001431733
69	0x3e1120d3	0.14172678
70	0x3c4076a3	0.011747035
71	0x3d35a83a	0.044349886
72	0x3d524136	0.05133172
73	0x3cf34095	0.029693881
74	0xbd0c57f0	-0.03426355
75	0x3e2201d7	0.15821014
76	0x3e1c934a	0.15290561
77	0x3d82bd40	0.06383753
78	0xbdd3b401	-0.103370674
79	0x3c852e0d	0.01625731
80	0x3e1029e7	0.14078484
81	0x3de69023	0.11257961
82	0xbdcbf184	-0.09958175
83	0x3d44dab4	0.048060134
84	0xbe067125	-0.13129099
85	0x3c56922f	0.013096376
86	0x3ca12603	0.019671446
87	0x3dee799f	0.11644291
88	0x3d082b7f	0.033244606
89	0x3c9e014b	0.019287726
90	0xbd889f6f	-0.066710345
91	0xbd1c283a	-0.0381243
92	0x3e02d5bf	0.1277685
93	0x3c788a1f	0.015169649
94	0x3d61a1a8	0.055085808
95	0xbd4c65b8	-0.049901694
96	0x3e3c7349	0.18403353
97	0xbcbe057a	-0.02319597
98	0xbdb4f77e	-0.08836268
99	0x3db24606	0.08704762
100	0x3cade483	0.021227127
101	0xbd81b894	-0.063340336
102	0x3d3dfcad	0.04638355
103	0x3e0e7436	0.13911518
104	0x3d33426a	0.04376451
105	0x3e2c0a64	0.16800839
106	0x3db48bf5	0.08815757
107	0x3da4666c	0.08027348
108	0x3dde9ce8	0.10869771
109	0xbbc692b4	-0.006059969
110	0x3d8c7f97	0.06860273
111	0x3d4a1934	0.04934044
112	0xbd718b5b	-0.05897079
113	0xbd394024	-0.045227185
114	0xbdd4f3e6	-0.103980824
115	0x3cc7c1a6	0.024384331
116	0xbc969abf	-0.018384336
117	0xbd9ad6c2	-0.07560493
118	0x3d6f1558	0.058369964
119	0x3df8f078	0.12155241
120	0x3d84197b	0.064501725
121	0xbddc7deb	-0.107662044
122	0x3b948773	0.0045327484
123	0x3dce9474	0.10086909
124	0xbe056849	-0.13028063
125	0xbb3a6315	-0.0028440405
126	0x3ddab182	0.10678388
127	0x3d9a3323	0.07529285
128	0xbdcd12be	-0.100133404
129	0x3ce6ff92	0.028198037
130	0x3d9e5fb9	0.077331014
131	0x3d4721c8	0.0486162
132	0xbdb883b8	-0.09009498
133	0x3ddea06e	0.10870443
134	0x3d7d8d97	0.06190261
135	0x3d3ae4ec	0.045628473
136	0xbde9c17d	-0.11413858
137	0x3e1ad9c7	0.15122138
138	0xba7d1e00	-0.00096556544
139	0xbcceb6b6	-0.025233608
140	0x3dd4f177	0.10397618
141	0x3d8123fa	0.0630569
142	0x3d558ae3	0.052134406
143	0xbd7edfe2	-0.06222523
144	0x3d978683	0.07398703
145	0xbd140f93	-0.036147665
146	0x3ca02383	0.019548183
147	0x3d8ca862	0.06868054
148	0x3df7f39a	0.1210701
149	0x3d82d8c7	0.06389003
150	0x3a3feed8	0.0007321662
151	0x3e68a030	0.22717357
152	0xbe4db9d7	-0.20090424
153	0xbd38bd85	-0.045102615
154	0xbc4eb568	-0.012616493
155	0x3da63888	0.08116251
156	0x3d059472	0.03261227
157	0xbc768dc8	-0.015048452
158	0xbbbdc3e0	-0.0057911724
159	0x3dc6e95a	0.09712477
160	0x3dd7c30c	0.10535249
161	0x3d850ebd	0.06496952
162	0x3cf72fcf	0.030174164
163	0xbd68f13e	-0.05687069
164	0x3d8ab952	0.06773628
165	0xbdb8917e	-0.090121254
166	0x3e015d49	0.12633242
167	0x3ded777d	0.11595056
168	0x3dc3118e	0.09524833
169	0xbd3e0374	-0.046390012
170	0xbda61dc2	-0.081111446
171	0xbac4ee46	-0.0015024624
172	0x3d8b7144	0.06808713
173	0x3dd02430	0.10163152
174	0x3e024716	0.1272243
175	0xbcfd679b	-0.030933192
176	0xbd814141	-0.06311274
177	0x3cead202	0.028664593
178	0x3c4fce72	0.012683498
179	0xbcca6185	-0.024704704
180	0x3df1193f	0.117723934
181	0x3ded1fbb	0.11578318
182	0xbcd10f90	-0.025520116
183	0x3df9cf10	0.12197697
184	0x3ddbaf88	0.10726839
185	0x3dd40604	0.1035271
186	0xbb977420	-0.0046219975
187	0x3d072fb0	0.033004463
188	0x3e037d51	0.12840773
189	0xbdbc15f7	-0.09183877
190	0x3e07d387	0.13264285
191	0x3bc932e3	0.0061400994
192	0x3bc6f820	0.0060720593
193	0x3e12e780	0.14346123
194	0x3e15af7c	0.14617723
195	0x3d3859ca	0.045007505
196	0x3c55def8	0.013053648
197	0x3db74dd9	0.08950395
198	0xbccd26b7	-0.025042875
199	0xbda4199a	-0.080126956
200	0xbd5c4d14	-0.053784445
201	0xbda7fb35	-0.08202211
202	0xbcd1292e	-0.025532331
203	0xbd9e44f6	-0.07727997
204	0x3d1c71dc	0.038194522
205	0x3dac5c94	0.084160954
206	0x3de90224	0.113773614
207	0x3dca6f7c	0.09884545
208	0x3df63825	0.120224275
209	0x3e0f5d53	0.14000444
210	0x3db9e815	0.09077469
211	0x3d2bde30	0.04195994
212	0xbbf2f60f	-0.0074145864
213	0x3d8daeec	0.06918129
214	0x3dc4f4d0	0.09617007
215	0x3e39471f	0.18093537
216	0xbd8f8e57	-0.07009571
217	0x3d5a04fc	0.05322741
218	0xbdaadbdb	-0.08342715
219	0x3db5ad6a	0.08870967
220	0x3e04260d	0.1290514
221	0x3c5bbf81	0.013412357
222	0xbc1a2650	-0.0094085485
223	0xbd00f383	-0.03148223
224	0x3d6496f0	0.055808008
225	0x3c5cbd8f	0.013472929
226	0xbd75c1cc	-0.059999272
227	0xbd62f78b	-0.055411857
228	0xbd161619	-0.036642168
229	0xbd0667f7	-0.032813992
230	0xbd77931e	-0.060443036
231	0x3da1608f	0.07879745
232	0xbe3a5c2e	-0.18199226
233	0x3e435c57	0.19078194
234	0x3c2f60c4	0.010704223
235	0x3d9e17be	0.07719372
236	0xbdd036dd	-0.10166714
237	0x3e2271b9	0.15863694
238	0xbde336e6	-0.110944554
239	0xbc9530ea	-0.0182118
240	0xbd996cd4	-0.074914604
241	0xbd9c1cb8	-0.07622665
242	0x3dca1d33	0.098688506
243	0x3da10228	0.078617394
244	0x3cefd8a0	0.0292781
245	0xbddb5efd	-0.10711477
246	0x3cfb2102	0.030655388
247	0x3dde12d5	0.10843436
248	0x3e13080c	0.14358538
249	0xbc2b5679	-0.010457628
250	0x3df9e2b4	0.12201443
251	0x3d8bf8aa	0.06834538
252	0xbcf1b84c	-0.029506825
253	0xbc456bb1	-0.012049601
254	0xbd20078c	-0.039069697
255	0x3de0b392	0.1097175

fc3.bias f4 [7]
0	0x3c55ee55	0.013057311
1	0xbcabca93	-0.020970618
2	0x3bf4d406	0.007471564
3	0x3e1f800e	0.15576193
4	0x3d800bba	0.06252237
5	0xbcab7628	-0.020930365
6	0x3d932332	0.07184447
