output/dqn/episode_200/model_weights.pth (torch, 59972 bytes, 6 tensors)

fc1.weight f4 [128, 43]
0.1813738 0.120532975 -0.15971588 0.0076847076 0.1468616 0.005336426 -0.029551364 0.060645614
-0.08770935 0.12947136 -0.039780706 -0.030242704 0.026955945 0.027594894 -0.048454158 0.010853684
0.07489796 0.098703116 -0.16188516 -0.020680068 -0.031743124 -0.03987568 -0.12090793 0.0061791255
-0.033416767 0.054356262 0.009862025 -0.10443345 0.15383835 -0.122946076 0.08153423 0.026570434
-0.097417906 0.05304134 -0.107665 -0.0592768 0.060744554 0.114973165 -0.066639654 -0.048051808
-0.02023239 0.009782746 -0.24431679 -0.10357932 0.09397277 0.01564833 0.070062526 0.20695676
0.013552718 -0.089803115 -0.02132798 0.16592768 -0.0033906577 -0.04753266 0.16339283 0.00054549647
0.044631943 0.06340355 -0.1434648 -0.0646726 0.051399484 -0.11600814 -0.15846813 -0.11862102
-0.0805151 0.005174787 -0.06425798 0.015549718 0.071486324 -0.14871353 0.12948564 0.14980556
-0.12610453 -0.06872722 0.12953265 0.103594944 -0.020637497 0.008547813 0.11260502 -0.013089927
0.002606578 -0.15285984 -0.10271307 -0.082832865 -0.023264423 0.030077621 -0.14426327 0.044117026
0.053531054 -0.0900269 0.062817656 -0.10693081 0.08605999 -0.16498303 -0.0152805 0.084315695
-0.07151921 0.091155715 -0.03643363 -0.04743658 -0.005468972 -0.1137849 -0.009670605 0.07807385
0.13648847 0.13395192 0.04739164 -0.1206087 0.14834686 0.14345352 0.019380478 0.001135407
-0.017685773 -0.10932647 0.048288252 0.02926332 0.08292125 0.011196895 -0.09036659 0.08909171
0.041275427 0.027435573 0.16880673 -0.07001737 -0.11863079 0.12762123 0.003094847 -0.11458585
0.13683482 -0.1913213 0.03701898 -0.040244404 0.041517653 0.0023613307 0.1950902 -0.12890047
-0.09490518 -0.05361524 -0.12619224 0.089054726 -0.12032907 0.07088643 -0.1392283 0.085319765
-0.041869644 -0.038934305 -0.11077392 0.018668335 0.115198836 -0.029536128 -0.12530835 0.017329229
0.07135775 0.007243417 -0.03178449 0.10580731 0.0939157 0.019888204 0.028510593 0.0136721805
-0.13401784 0.12613115 0.04120465 0.14618334 0.1295909 0.014774183 -0.12763734 0.076507404
-0.08563286 0.10519808 -0.009319991 -0.058129255 0.104090795 -0.067392305 0.11463377 -0.025568798
-0.13483053 0.16380593 0.000481084 -0.071754366 -0.0791116 -0.08622482 0.07151931 0.018380972
0.10888128 -0.10311523 0.09257814 0.12784722 0.15514402 0.015864223 -0.10476263 -0.08780948
0.12859645 0.113255195 -0.06963406 -0.06508716 0.120149985 0.13956599 -0.07959249 -0.063935645
0.16974056 -0.07576685 0.024720095 -0.13164124 -0.108446494 -0.0032742904 -0.120692365 -0.13352779
0.0025181838 0.15007405 -0.047625292 0.087183364 -0.061684713 -0.08038267 -0.19535653 0.12283204
-0.00075885805 0.09095366 -0.16941395 -0.19116634 0.13219462 -0.0057927966 0.09716827 -0.16143985
0.009389635 0.08574509 0.013768131 0.0655424 -0.048859507 -0.054315563 0.14055414 0.13127449
-0.13023786 0.079431765 0.043601178 -0.12463437 0.109423034 -0.14448343 0.030505799 0.08997975
-0.04586307 -0.09357533 -0.11586483 -0.07042808 -0.11482425 -0.07829097 0.13378617 -0.11942741
-0.008451256 0.1446302 -0.020108806 0.15847024 0.076859586 0.09552981 0.108434685 -0.052161396
00000000: 0eba 393e fed9 f63d 8f8c 23be 00d0 fb3b
00000010: e362 163e 30dd ae3b b415 f2bc 8967 783d
00000020: f6a0 b3bd 2494 043e 18f1 22bd 8cbf f7bc
00000030: b7d2 dc3c b00e e23c de77 46bd a6d3 313c
00000040: 1a64 993d dc24 ca3d 39c5 25be 3f69 a9bc
00000050: 1405 02bd ae54 23bd 949e f7bd 437a ca3b
00000060: 05e0 08bd aca4 5e3d 5594 213c 34e1 d5bd
00000070: cd87 1d3e 27cb fbbd 6bfb a63d 3daa d93c
00000080: 0a83 c7bd e041 593d 787f dcbd 3bcc 72bd
00000090: 48cf 783d 0d77 eb3d 5f7a 88bd f9d1 44bd
000000a0: 66be a5bc d047 203c 2e2e 7abe 6521 d4bd
000000b0: cc74 c03d ed30 803c f17c 8f3d 79ec 533e
000000c0: 380c 5e3c b2ea b7bd 04b8 aebc f2e8 293e
000000d0: cc35 5ebb 9bb1 42bd 7350 273e a6ff 0e3a
000000e0: fccf 363d b8d9 813d 70e8 12be 1173 84bd
000000f0: 4488 523d ad95 edbd 7845 22be 94ef f2bd
00000100: 1ae5 a4bd 4291 a93b b099 83bd 3fc4 7e3c
00000110: 6c67 923d 5c48 18be e297 043e a166 193e
00000120: 8c21 01be dbc0 8cbd 35a4 043e 9629 d43d
00000130: f80f a9bc 200c 0c3c 769d e63d 2277 56bc
00000140: 1fd3 2a3b 4a87 1cbe 3b5b d2bd 47a4 a9bd
00000150: 0895 bebc 5865 f63c c0b9 13be 0eb4 343d
00000160: 6143 5b3d 0660 b8bd 8ba6 803d 8afe dabd
00000170: 3840 b03d 50f1 28be 105b 7abc b5ad ac3d
00000180: aa78 92bd d9af ba3d 6e3b 15bd dc4c 42bd
00000190: 1035 b3bb 0f08 e9bd 7571 1ebc 2fe5 9f3d
000001a0: a2c3 0b3e b12a 093e bc1d 423d b201 f7bd
000001b0: 3de8 173e 7be5 123e cfc3 9e3c f0d1 943a
000001c0: c1e1 90bc 8ee6 dfbd e7c9 453d a1b9 ef3c
000001d0: 9ed2 a93d 2e73 373c 1e12 b9bd b775 b63d
000001e0: 6c10 293d 91c0 e03c acdb 2c3e 4465 8fbd
000001f0: b3f4 f2bd 24af 023e ebd2 4a3b fcab eabd
00000200: 6d1e 0c3e bbe9 43be 37a1 173d 51d7 24bd
00000210: 6a0e 2a3d 8ec0 1a3b bac5 473e 7cfe 03be
00000220: a65d c2bd a79b 5bbd 8a38 01be 5362 b63d
00000230: 166f f6bd e82c 913d dd91 0ebe 21bc ae3d
00000240: 817f 2bbd 9479 1fbd 70dd e2bd 56ee 983c
00000250: 5eed eb3d c0f5 f1bc d550 00be 07f6 8d3c
00000260: 0324 923d 305a ed3b 7430 02bd 81b1 d83d
00000270: e056 c03d 96ec a23c 0c8f e93c 4801 603c
00000280: f93b 09be 8628 013e 35c6 283d 16b1 153e
00000290: 7ab3 043e 6a0f 723c 5db3 02be eaaf 9c3d
000002a0: 4860 afbd 1772 d73d e0b2 18bc f118 6ebd
000002b0: 8e2d d53d fa04 8abd 1cc5 ea3d a875 d1bc
000002c0: 0411 0abe bebc 273e 003a fc39 f4f3 92bd
000002d0: 4305 a2bd a396 b0bd b778 923d b193 963c
000002e0: 26fd de3d 142e d3bd 9c99 bd3d 62ea 023e
000002f0: 13de 1e3e b0f5 813c ca8d d6bd 75d5 b3bd
00000300: caae 033e 57f2 e73d 4d9c 8ebd 6b4c 85bd
00000310: 3211 f63d 63ea 0e3e 6301 a3bd b1f0 82bd
00000320: 78d0 2d3e a62b 9bbd cc81 ca3c f6cc 06be
00000330: 3219 debd 7a95 56bb 8f2d f7bd 82bb 08be
00000340: 1d08 253b 03ad 193e bd12 43bd 318d b23d
00000350: 1ca9 7cbd ab9f a4bd 8b0b 48be 5d8f fb3d
00000360: 1aee 46ba ea45 ba3d da7a 2dbe 1cc1 43be
00000370: 075e 073e 80d1 bdbb 2800 c73d 7d50 25be
00000380: fcd6 193c 1f9b af3d ba93 613c 183b 863d
00000390: e820 48bd ff79 5ebd 6ded 0f3e d26c 063e
000003a0: 135d 05be 1fad a23d 2697 323d 4e40 ffbd
000003b0: 2f19 e03d 77f3 13be 4ce7 f93c 4e47 b83d
000003c0: eada 3bbd 6ca4 bfbd 8a4a edbd 993c 90bd
000003d0: fa28 ebbd 0457 a0bd 3eff 083e 5c96 f4bd
000003e0: 2377 0abc f019 143e 39bb a4bc 0646 223e
000003f0: 8f68 9d3d 22a5 c33d 0113 de3d 30a7 55bd

fc1.bias f4 [128]
0.04794463 -0.06380145 -0.05900989 -0.08533112 -0.03691582 0.13173294 0.07329699 0.17767552
0.20566475 -0.042286 -0.065779954 -0.0927129 -0.004230281 0.04996222 0.123871796 0.1609578
0.14811786 0.17425929 -0.045855217 -0.06267056 0.06616803 0.11116031 -0.091603324 0.22265285
0.057707753 0.041074216 -0.042264827 -0.019927735 -0.03818128 -0.1472351 0.21473311 0.20059758
0.14573105 0.21051897 0.15665677 0.079600446 0.035706647 0.02862641 -0.086127825 0.059003677
-0.10529437 -0.05219563 0.034693472 0.15519005 0.02118395 0.18526322 -0.068289794 0.20064725
0.18440431 0.187843 0.088849224 -0.0027843234 0.05969985 0.094310634 0.061476532 0.033781346
0.039776724 0.16987106 0.25790435 -0.030050704 -0.08115049 -0.008974967 -0.04646264 -0.06381035
0.012596144 -0.15036142 0.160471 0.06834204 0.1995716 0.15099512 0.07242701 -0.009952064
-0.028769566 0.18070856 0.03523959 0.12392501 -0.08550026 0.08518804 -0.0031126123 -0.006312183
0.16728994 0.08732367 -0.09551394 0.0892888 0.095292754 0.16375206 -0.11715943 -0.16147482
0.053730443 0.028997594 -0.084204026 0.03442934 0.20092128 -0.104428716 0.47696418 -0.072662756
0.15524876 -0.112294994 -0.016565617 -0.08739209 -0.028295597 -0.11128073 -0.11506605 0.11782328
0.32329422 -0.12508722 -0.06629207 0.16114812 0.36717355 -0.14893499 0.20670116 0.08105341
-0.0029690363 0.0706781 0.0051478692 0.13893907 0.18620682 -0.15788148 0.14248936 -0.0774736
0.02180168 -0.08192125 -0.022685574 -0.108849995 0.008227425 0.0031812114 0.018730873 0.19002676
00000000: 9761 443d 56aa 82bd 5bb4 71bd 15c2 aebd
00000010: 0b35 17bd 00e5 063e bb1c 963d 92f0 353e
00000020: c899 523e 1634 2dbd a4b7 86bd 43e0 bdbd
00000030: 2b9e 8abb 2fa5 4c3d 7fb0 fd3d 1fd2 243e
00000040: 35ac 173e 0771 323e aed2 3bbd 6c59 80bd
00000050: 1b83 873d 04a8 e33d 869a bbbd 1cff 633e
00000060: f75e 6c3d 703d 283d e21d 2dbd 7d3f a3bc
00000070: f963 1cbd ccc4 16be ffe2 5b3e 7469 4d3e
00000080: 853a 153e 4992 573e a26a 203e 8f05 a33d
00000090: 2241 123d ef81 ea3c c963 b0bd d7ad 713d
000000a0: 93a4 d7bd 16cb 55bd be1a 0e3d 24ea 1e3e
000000b0: f789 ad3c a4b5 3d3e 85db 8bbd 7976 4d3e
000000c0: 7cd4 3c3e ea59 403e 95f6 b53d 3279 36bb
000000d0: d487 743d ef25 c13d d1ce 7b3d 4f5e 0a3d
000000e0: ebec 223d aef2 2d3e 0a0c 843e e52c f6bc
000000f0: 3a32 a6bd bd0b 13bc 9c4f 3ebd 00af 82bd
00000100: 0f60 4e3c 58f8 19be 8352 243e e9f6 8b3d
00000110: 7f5c 4c3e 779e 1a3e 9d54 943d fb0d 23bc
00000120: 27ae ebbc aa0b 393e 6357 103d 65cc fd3d
00000130: c31a afbd 1177 ae3d f8fc 4bbb 6ed6 cebb
00000140: 0e4e 2b3e c1d6 b23d d09c c3bd 0cdd b63d
00000150: d928 c33d 9fae 273e 49f1 efbd a859 25be
00000160: 7414 5c3d 5d8c ed3c 2973 acbd c805 0d3d
00000170: 4fbe 4d3e b9de d5bd a634 f43e 36d0 94bd
00000180: 88f9 1e3e ebfa e5bd 9eb4 87bc a0fa b2bd
00000190: 2bcc e7bc 27e7 e3bd c0a7 ebbd 554d f13d
000001a0: d286 a53e dd16 00be 23c4 87bd 0304 253e
000001b0: 2cfe bb3e 6a82 18be 78a9 533e 55ff a53d
000001c0: 2a94 42bb aebf 903d 75af a83b 0b46 0e3e
000001d0: 00ad 3e3e afab 21be bbe8 113e 7baa 9ebd
000001e0: 7099 b23c 54c6 a7bd 19d7 b9bc bfec debd
000001f0: 52cc 063c df7b 503b 7d71 993c 6096 423e

fc2.weight f4 [64, 128]
-0.045662604 -0.10748559 0.05129743 -0.05705387 0.055316627 -0.017899986 -0.096171595 0.012895564
-0.047098603 -0.062294196 -0.049603283 0.08756651 -0.05848157 -0.122236244 0.0048518297 0.01968471
-0.016026422 0.05560969 -0.04549353 0.00351929 -0.02278546 -0.025047202 -0.08642458 0.04331007
-0.08821088 -0.0054507656 -0.07762509 -0.076914735 -0.10177675 0.10184685 -0.044279374 -0.051277407
-0.054985397 -0.08692925 0.036757372 0.06880036 -0.010831933 -0.042856786 0.0604102 -0.076216534
-0.001968444 -0.08179896 0.057249308 -0.0242101 0.07864472 -0.07631441 0.0622504 -0.052935358
-0.04735055 0.034055084 0.043427214 -0.028292427 0.023234919 0.07014764 0.028930837 -0.037832066
-0.06921268 0.030622553 -0.04135412 0.027291946 0.09756921 0.025779214 -0.005969288 -0.00034525874
-0.075864136 -0.038327374 -0.021898055 0.045539543 0.10104074 -0.08751229 -0.05450255 -0.07579807
-0.013277256 0.0016038867 -0.054593988 0.016902084 -0.005967291 -0.09360897 -0.015966468 -0.08889993
0.121281646 -0.0990869 -0.07427749 0.056592926 0.024999423 -0.10130732 0.026179686 -0.032729406
0.014700117 -0.061529722 0.086300075 0.027771294 -0.06845626 -0.043350946 -0.102465965 0.023259105
0.02645416 -0.04260012 -0.049383655 -0.03428174 0.06330432 0.017002756 0.035988994 0.016985707
-0.005191655 0.05642622 -0.059906248 -0.020148743 0.046167493 -0.0022369826 -0.069598965 -0.0022173095
0.00488785 -0.002424769 -0.003099622 -0.077523075 -0.06316289 -0.018416291 -0.09353678 -0.007186322
-0.004047774 -0.0674413 -0.052116003 0.023841752 -0.054700654 0.03457484 0.040705413 -0.065544166
-0.04058487 -0.012678289 -0.009203635 -0.014313494 0.067650214 0.11001211 0.08239029 0.006453622
0.2246673 0.14417748 0.072186545 0.048204392 -0.018774906 -0.039254226 -0.07352671 -0.0061623664
0.011160283 -0.0064470223 0.08933103 0.06853641 0.109694116 0.15428035 -0.018605439 0.17632085
0.031796645 0.101843454 0.07290049 0.12369146 -0.0070106634 -0.03401803 0.11762431 0.07904598
0.006469815 0.023415023 0.060017634 -0.087270744 0.054103542 -0.042525765 -0.060519364 -0.026815701
-0.059035975 0.07003603 -0.0515921 0.105695635 0.00024341223 0.08629688 -0.027602496 0.01288907
-0.07364772 0.050467648 0.08582759 -0.03745342 0.03582711 0.09630659 -0.000675131 0.04198812
-0.08814302 0.013790187 0.04938106 0.12448213 0.11337631 -0.008087658 0.011540397 0.09223194
0.049992085 -0.12256575 0.14497754 0.0918543 0.110599056 0.1770739 0.056479435 0.13928893
0.070458874 0.15371382 -0.044493157 -0.038804695 0.043241125 0.11310697 0.012114154 0.005751894
-0.053440675 -0.032207377 0.007148527 0.12612027 -0.017252857 0.17722102 0.0040881555 0.057111595
0.07683074 0.1570957 -0.04543831 0.019823145 0.046704922 0.034898926 0.27017757 0.036008358
-0.025576906 -0.015290808 0.08195564 0.06869265 -0.020002434 -0.060678087 -0.1441102 -0.011279063
0.17895482 -0.084941044 0.055009507 0.016365513 0.07901768 -0.1331235 0.05865093 0.08782022
-0.020738102 0.086898714 -0.08775782 0.19069648 0.11919987 0.06453518 -0.08107538 -0.08080592
0.03922161 0.08298023 -0.04725114 0.10741923 -0.115700334 -0.009427687 0.08537649 0.10628246
00000000: b608 3bbd 6821 dcbd 411d 523d 52b1 69bd
00000010: b093 623d fea2 92bc 9df5 c4bd ea47 533c
00000020: 77ea 40bd 3328 7fbd d02c 4bbd 1256 b33d
00000030: 5f8a 6fbd ff56 fabd 19fc 9e3b d441 a13c
00000040: d849 83bc fcc6 633d 6c57 3abd e3a3 663b
00000050: 93a8 babc ca2f cdbc 5fff b0bd e665 313d
00000060: e8a7 b4bd 569c b2bb e7f9 9ebd 7985 9dbd
00000070: 5470 d0bd 1595 d03d 4a5e 35bd 4208 52bd
00000080: 5e38 61bd f607 b2bd e68e 163d 34e7 8c3d
00000090: 6b78 31bc 998a 2fbd b070 773d 6a17 9cbd
000000a0: 0301 01bb 3786 a7bd 407e 6a3d 4254 c6bc
000000b0: 7c10 a13d bb4a 9cbd 47fa 7e3d bfd2 58bd
000000c0: a6f2 41bd 587d 0b3d bce0 313d 85c5 e7bc
000000d0: 2857 be3c 91a9 8f3d 5d00 ed3c ccf5 1abd
000000e0: 61bf 8dbd 26dc fa3c f062 29bd 5c93 df3c
000000f0: 5ed2 c73d ee2e d33c 049a c3bb d803 b5b9
00000100: a85e 9bbd 2afd 1cbd 8d63 b3bc ac87 3a3d
00000110: 73ee ce3d a539 b3bd 113e 5fbd 053c 9bbd
00000120: d988 59bc 8239 d23a f29d 5fbd 3d76 8a3c
00000130: 4489 c3bb 0fb6 bfbd 1ccc 82bc 2b11 b6bd
00000140: 8362 f83d 13ee cabd cc1e 98bd fccd 673d
00000150: 97cb cc3c 367a cfbd c876 d63c 450f 06bd
00000160: c2d8 703c 9706 7cbd 18be b03d a080 e33c
00000170: cc32 8cbd c390 31bd add9 d1bd e189 be3c
00000180: 65b6 d83c 777d 2ebd 8446 4abd 036b 0cbd
00000190: b2a5 813d 5d49 8b3c 3269 133d 9c25 8b3c
000001a0: c21e aabb 2e1f 673d 4160 75bd fa0e a5bc
000001b0: 201a 3d3d 579a 12bb e789 8ebd 4850 11bb
000001c0: 422a a03b e0e8 1ebb 0723 4bbb 6bc4 9ebd
000001d0: 8c5b 81bd c3dd 96bc 3690 bfbd 3d7b ebbb
000001e0: 30a3 84bb aa1e 8abd 9777 55bd c74f c33c
000001f0: cb0d 60bd 599e 0d3d b8ba 263d 053c 86bd
00000200: 523c 26bd 99b8 4fbc d8ca 16bc 2583 6abc
00000210: 328c 8a3d 074e e13d 3ebc a83d e878 d33b
00000220: 2f0f 663e 43a3 133e 8ad6 933d f871 453d
00000230: d5cd 99bc 0ac9 20bd 2c95 96bd aded c9bb
00000240: 9fd9 363c 8b41 d3bb 30f3 b63d d15c 8c3d
00000250: 4fa7 e03d abfb 1d3e 6f6a 98bc 748d 343e
00000260: 333d 023d 4d93 d03d da4c 953d f351 fd3d
00000270: b5b9 e5bb 7d56 0bbd 04e5 f03d dce2 a13d
00000280: be00 d43b ddd0 bf3c 0dd5 753d 01bb b2bd
00000290: ad9b 5d3d 7f2f 2ebd 27e3 77bd 9aac dbbc
000002a0: b5cf 71bd 0d6f 8f3d 3d52 53bd f476 d83d
000002b0: 793c 7f39 6bbc b03d a11e e2bc ae2c 533c
000002c0: 9ed4 96bd 2ab7 4e3d 60c6 af3d c268 19bd
000002d0: 73bf 123d 643c c53d 46fb 30ba bcfb 2b3d
000002e0: 5484 b4bd 3df0 613c cb43 4a3d 7df0 fe3d
000002f0: d731 e83d 1982 04bc ef13 3d3c 19e4 bc3d
00000300: 80c4 4c3d c003 fbbd fe74 143e 1b1e bc3d
00000310: c281 e23d dc52 353e fb56 673d c2a1 0e3e
00000320: be4c 903d 2867 1d3e 753e 36bd acf1 1ebd
00000330: 9b1d 313d a1a4 e73d 727a 463c 627a bc3b
00000340: 9ce4 5abd e2eb 03bd 313e ea3b ac25 013e
00000350: dd55 8dbc 6d79 353e eff5 853b d9ed 693d
00000360: 6f59 9d3d b2dd 203e 851d 3abd 2664 a23c
00000370: a94d 3f3d 2df2 0e3d b754 8a3e 807d 133d
00000380: a986 d1bc 4c86 7abc 5cd8 a73d bbae 8c3d
00000390: 25dc a3bc 9689 78bd a091 13be d2cb 38bc
000003a0: ef3f 373e 92f5 adbd a651 613d f810 863c
000003b0: 05d4 a13d 8751 08be f53b 703d 16db b33d
000003c0: f4e2 a9bc f4f7 b13d 5fba b3bd f045 433e
000003d0: 101f f43d 052b 843d d90a a6bd 937d a5bd
000003e0: d7a6 203d 8af1 a93d 698a 41bd 9dfe db3d
000003f0: 4cf4 ecbd 9676 1abc dfd9 ae3d 9eaa d93d

fc2.bias f4 [64]
0.03605781 0.0665398 0.042720247 0.14306854 0.048019286 -0.0869552 0.18967661 -0.05153032
0.05595115 -0.051990952 -0.0608598 0.021769803 -0.079752065 -0.082309395 -0.08009193 -0.057628267
-0.039297108 0.08300895 0.074736185 0.025864359 -0.024807291 0.013551599 0.008297049 -0.024786346
0.02376883 0.03839389 0.113405906 0.030154357 0.07013969 0.10001985 0.050833233 -0.06854066
-0.019144205 -0.034892894 0.1274375 0.014950149 -0.030279782 -0.058770522 -0.0026735207 0.11078093
-0.062047597 -0.070136875 -0.0056819865 0.10323581 -0.06731109 0.021865347 -0.003108191 -0.08015611
0.07200367 0.09422184 -0.0501346 0.1151202 -0.08161702 0.025562158 0.03222121 0.059702106
-0.06809943 -0.08933831 0.052626856 0.07549259 0.02369674 -0.05474816 0.13319765 -0.07304731
00000000: 5bb1 133d 0546 883d 6dfb 2e3d 8f80 123e
00000010: dfaf 443d 9115 b2bd 963a 423e 7511 53bd
00000020: 082d 653d 77f4 54bd 2048 79bd 9656 b23c
00000030: 0d55 a3bd d491 a8bd 3d07 a4bd 9e0b 6cbd
00000040: 01f6 20bd 9900 aa3d 490f 993d 7ee1 d33c
00000050: a938 cbbc 8707 5e3c 59f0 073c bc0c cbbc
00000060: d9b6 c23c e942 1d3d 5b41 e83d 4506 f73c
00000070: 66a5 8f3d 35d7 cc3d 8236 503d 0c5f 8cbd
00000080: 4fd4 9cbc daeb 0ebd fa7e 023e 78f1 743c
00000090: 4e0d f8bc 5cb9 70bd 3c36 2fbb 1de1 e23d
000000a0: 9f25 7ebd eca3 8fbd f52f babb 4c6d d33d
000000b0: 66da 89bd f51e b33c cbb2 4bbb e328 a4bd
000000c0: a976 933d 61f7 c03d f059 4dbd 24c4 eb3d
000000d0: d326 a7bd bb67 d13c 63fa 033d 328a 743d
000000e0: b777 8bbd 01f7 b6bd 428f 573d dc9b 9a3d
000000f0: aa1f c23c 9b3f 60bd f764 083e d499 95bd

fc3.weight f4 [7, 64]
0.057605658 0.078661405 -0.014275328 0.012827739 0.036307096 -0.01777629 0.06861497 -0.08246614
-0.0069306777 0.21010691 -0.0034663684 -0.004548701 -0.098645896 0.064660005 -0.01799088 0.064767815
-0.07406318 0.16849996 0.05214616 0.061539445 -0.06218454 0.17032051 0.06266221 -0.03550562
-0.043346826 -0.08650496 0.17988086 0.06691466 0.1406563 0.07145449 0.12255285 -0.043070283
-0.11250906 0.10383185 -0.049596667 -0.04514781 0.031170933 -0.004434651 0.06494627 0.09429224
-0.08084906 -0.08546052 0.069134906 0.15213725 -0.032624375 0.034334008 -0.09127524 -0.05321227
-0.104033954 0.105654694 -0.0428697 -0.0032972947 0.06124834 0.0069074444 0.20991407 0.11764828
-0.013500659 -0.06996833 0.029866472 0.07151328 -0.093342945 0.11170919 0.037610974 0.049770243
0.14514638 0.059975468 -0.1082999 0.09550213 0.052916292 -0.040109217 0.122095264 -0.11111389
-0.06521527 -0.029206794 -0.025769059 -0.08177275 0.051732782 0.10893457 -0.10852926 -0.00019190757
-0.034436107 -0.037954867 -0.033179417 0.10455484 0.052332416 0.05969966 -0.05779424 -0.10879958
-0.08035758 0.0042827595 0.029130517 0.12501128 -0.01267726 0.11032936 0.16290918 -0.07738097
0.11956974 -0.023427047 0.17663369 0.04097895 -0.09551662 -0.0042535113 0.13165163 0.031699933
-0.10787915 -0.036592063 -0.04493636 0.095085554 -0.013656766 0.019744767 -0.04172908 -0.028817367
-0.05654964 0.10401394 0.039652504 0.09546464 -0.0222281 0.008726057 0.11861988 0.1574583
-0.0547395 0.06015361 0.14866774 0.12316613 0.08899257 0.044636007 0.04709695 0.13812725
-0.07708888 -0.041300807 -0.11993056 0.16569915 0.11722575 -0.044629216 0.07525105 0.11209796
0.14101882 -0.01246306 -0.0643397 0.046457686 0.1296174 -0.08163023 -0.021813318 -0.09759003
-0.020962432 0.13850951 0.14902832 0.06386695 -0.0637735 -0.028186366 0.015928607 0.010946933
0.09901411 0.04382713 -0.08581795 -0.072299115 -0.010333608 -0.008576883 -0.047171667 0.096457034
-0.091344036 -0.038912404 0.19272001 -0.030758971 0.124517865 -0.11526152 0.16470069 -0.0048389463
-0.10438734 -0.016923424 -0.07938127 0.09693552 -0.012424232 0.14405291 -0.03908867 -0.009140057
-0.10641276 -0.010129309 -0.00876211 0.12739742 -0.08930122 -0.037075844 0.016992597 -0.049701415
0.10419737 0.1451283 0.044661812 0.1612737 0.08710133 0.0076420153 0.17125103 -0.034199085
0.023155097 0.120318346 -0.0683839 0.114702776 -0.005841368 -0.028848305 0.19524734 -0.098709196
0.12736048 0.11513141 -0.1034773 0.01733856 -0.08678882 0.0052828654 -0.10047487 -0.12062258
-0.041758865 0.08613291 -0.10733488 -0.08135015 -0.034292944 0.15138471 -0.059442934 -0.115655944
0.098672934 0.022706069 0.15274774 0.048029073 0.014707325 0.0632793 -0.1747698 -0.02405231
0.08337261 0.023494912 -0.047346443 -0.08987916 -0.11070711 0.021739528 0.029396756 0.20353301
0.0972124 -0.082976766 -0.082038805 0.12154945 0.0016785121 -0.0104108695 -0.05100875 -0.04615611
-0.0046424265 -0.101986185 -0.013623421 -0.046594635 0.013168619 0.0150303645 -0.027320135 0.05871344
-0.079250224 0.04941273 -0.08066174 0.1694347 -0.061649095 -0.054733172 0.07482175 -0.13799481
00000000: e9f3 6b3d 3b19 a13d 11e3 69bc 702b 523c
00000010: c0b6 143d 959f 91bc 0186 8c3d 02e4 a8bd
00000020: bd1a e3bb 4426 573e 032c 63bb 450d 95bb
00000030: dc06 cabd 776c 843d 9c61 93bc fda4 843d
00000040: 70ae 97bd 418b 2c3e 3697 553d c910 7c3d
00000050: 37b5 7ebd 8068 2e3e 0b55 803d 576e 11bd
00000060: 718c 31bd 8329 b1bd b032 383e 8e0a 893d
00000070: 3508 103e bb56 923d fdfc fa3d 776a 30bd
00000080: 266b e6bd cba5 d43d e025 4bbd e9ec 38bd
00000090: 2f5a ff3c 8d50 91bb 8d02 853d 4a1c c13d
000000a0: 3194 a5bd ed05 afbd 9a96 8d3d dec9 1b3e
000000b0: 23a1 05bd d1a1 0c3d 83ee babd 1cf5 59bd
000000c0: c10f d5bd 7d61 d83d 2398 2fbd 6d17 58bb
000000d0: 8adf 7a3d d857 e23b b7f3 563e 95f1 f03d
000000e0: de31 5dbc 8e4b 8fbd 88aa f43c 8e75 923d
000000f0: 962a bfbd cac7 e43d f70d 1a3d e2db 4b3d
00000100: 41a1 143e d6a8 753d 57cc ddbd 9f96 c33d
00000110: c1be 583d 9049 24bd 150d fa3d ae8f e3bd
00000120: 958f 85bd 1643 efbc a219 d3bc 7978 a7bd
00000130: c1e5 533d 1619 df3d 9744 debd cc3a 49b9
00000140: e00c 0dbd 9076 1bbd 24e7 07bd d920 d63d
00000150: 845a 563d a187 743d a7b9 6cbd 50d2 debd
00000160: 8492 a4bd 6456 8c3b 1fa3 ee3c f502 003e
00000170: 48b4 4fbc 5cf4 e13d aad1 263e ea79 9ebd
00000180: fbe0 f43d 14ea bfbc 76df 343e 8bd9 273d
00000190: 389e c3bd 0a61 8bbb afcf 063e cad7 013d
000001a0: beef dcbd 8fe1 15bd 300f 38bd 37bc c23d
000001b0: a1c0 5fbc c7bf a13c 1dec 2abd 6612 ecbc
000001c0: 98a0 67bd 4305 d53d aa6a 223d f782 c33d
000001d0: b417 b6bc bcf7 0e3c fbee f23d c03c 213e
000001e0: 8736 60bd a263 763d 5b3c 183e 863e fc3d
000001f0: bd41 b63d 3fd4 363d bbe8 403d 3b71 0d3e
00000200: c6e0 9dbd 092b 29bd 279e f5bd 0aad 293e
00000210: 0e14 f03d 20cd 36bd 391d 9a3d 9e93 e53d
00000220: 3d67 103e dd31 4cbc 88c4 83bd 6a4a 3e3d
00000230: 6cba 043e c02d a7bd d8b1 b2bc 48dd c7bd
00000240: 68b9 abbc 70d5 0d3e e19a 183e adcc 823d
00000250: ae9b 82bd 18e7 e6bc b67c 823c c45a 333c
00000260: e9c7 ca3d 1484 333d 52c1 afbd 8f11 94bd
00000270: 4b4e 29bc 0e86 0cbc 1437 41bd 448b c53d
00000280: 9512 bbbd 9d62 1fbd 6558 453e 3dfa fbbc
00000290: 3903 ff3d 3b0e ecbd 4ca7 283e 0690 9ebb
000002a0: 08c9 d5bd fea2 8abc a692 a2bd 2186 c63d
000002b0: 028f 4bbc 9b82 133e 711b 20bd 2dc0 15bc
000002c0: efee d9bd 67f5 25bc f48e 0fbc 7874 023e
000002d0: 8fe3 b6bd d7dc 17bd 0f34 8b3c b693 4bbd
000002e0: 6e65 d53d 839c 143e 4eef 363d ef24 253e
000002f0: 2f62 b23d df69 fa3b 6e5c 2f3e 5714 0cbd
00000300: c2af bd3c 7769 f63d dc0c 8cbd 4ae9 ea3d
00000310: f268 bfbb 4853 ecbc ebee 473e 0c28 cabd
00000320: c96a 023e 04ca eb3d e8eb d3bd 9909 8e3c
00000330: 56be b1bd e31b ad3b c5c5 cdbd f908 f7bd
00000340: 580b 2bbd 7366 b03d 64d2 dbbd e89a a6bd
00000350: c276 0cbd 9804 1b3e 6f7a 73bd 06dd ecbd
00000360: 0915 ca3d 1402 ba3c e769 1c3e 22ba 443d
00000370: fef6 703c 9498 813d dbf6 32be 5a09 c5bc
00000380: 42bf aa3d 6778 c03c 58ee 41bd 9112 b8bd
00000390: 69ba e2bd 1817 b23c 77d1 f03c f56a 503e
000003a0: 4b17 c73d b9ef a9bd f603 a8bd ebee f83d
000003b0: 8501 dc3a 5a92 2abc 8dee 50bd 300e 3dbd
000003c0: 7f1f 98bb 22de d0bd c534 5fbc 04da 3ebd
000003d0: 31c1 573c eb41 763c 7ace dfbc 817d 703d
000003e0: f14d a2bd 0165 4a3d fb31 a5bd 4a80 2d3e
000003f0: c383 7cbd e42f 60bd 253c 993d 834e 0dbe

fc3.bias f4 [7]
0.11155003 0.00868784 0.12821543 0.09175144 0.1333664 0.102049746 -0.026023895
00000000: 5874 e43d 7157 0e3c e84a 033e 2ee8 bb3d
00000010: 3491 083e 75ff d03d 1030 d5bc
