rl_agent/output/dqn/episode_100/model_weights.pth (torch, 59972 bytes, 6 tensors)

fc1.weight f4 [128, 43]
00000000: ec0e f5bd 9e15 223e adb8 cdbd a2f0 6cbd
00000010: 0012 30bb 235f 8a3d 56c0 7e3d 60af c73b
00000020: f52b d23b c5a3 503d e75f cd3d 1152 9fbd
00000030: 420f d0bd ca3e 91bd 403f a63b 8a0c 953d
00000040: d5d6 083e 5e6b ef3d 711e c9bd 969c 91bb
00000050: 575e ee3d b26d dbbd 77ea b33c be58 eb3c
00000060: 19f4 163e 0d08 b3bd ba14 80bd 91bc f4bd
00000070: c037 5fbc d8ec 323d 961d f63c 2e56 84bd
00000080: 78f4 853d 5466 35bd 2797 2a3d e0a8 0ebc
00000090: 7f7e 2fbd 2365 b63a 7c8e 4abd db52 4abd
000000a0: 0a03 10be efb6 e0bd 468c 07be 678f 203d
000000b0: e4b8 893d fd89 00be bac6 02bd 91ac b1bd
000000c0: 266b 72be a497 b2bd b024 f2bd 33bc 22be
000000d0: 2ced 363c e194 fbbd d182 093d 8884 27bd
000000e0: 5614 853d 1072 e53d 0163 f03d 8da7 2c3e
000000f0: eccb be3d dab2 103e 1238 8b3d 00d6 e4bd
00000100: e04f 9c3b 84e6 e4bc 27c6 c73d 9ce2 943d
00000110: fab4 27bd d0d2 793d 4d97 863d 64df e33d
00000120: 37d2 cdbd 20a0 e13d 0630 023e c178 8fbd
00000130: 063c efbd 2022 f0bd f03d 323d 96ae 673c
00000140: 02cd a23d a6a0 f63d 8dab c9bc 2af1 8dbd
00000150: 5779 323e f06e 7f3d 8822 1bbe 03ce aa3d
00000160: f0e9 05be 4cd2 9abd 4ebb 233d 6855 1d3e
00000170: 7a91 c9bd 2c08 383d 1497 6fbd e36b c13d
00000180: f8a9 5fbd 9c9e 3d3e 02dc 093a 1a64 64bd
00000190: c467 543d 3c63 b23c d1fe 083e 592a e73c
000001a0: 977f 3a3e 761b 2b3e 45a5 47be 3fce b7bd
000001b0: 79f4 a63d 28ae 09be d4e7 2dbd 8cdf 06bd
000001c0: 7c00 ae3d 9ce9 1e3d 600f c03c 18a6 233d
000001d0: 4954 93bc a79e 583d fe98 ae3d 673c 943c
000001e0: 9b8f 243c 3039 1a3e 96d3 953d 421c 413d
000001f0: eadb f93d 4eaf 7c3d c1f0 073e d8fe 3e3c
00000200: 3205 56bd b0a6 073e 9256 133d 80ed ffbd
00000210: 3f01 f1b8 1b2d 803d 326e 26be 0ad8 b23d
00000220: 523c f8bd 4d5c 19be d097 df3d 58cb 8e3d
00000230: 2266 e0bd e743 e2bd 8a74 b83d 10f6 df3d
00000240: 3a25 26be bbd4 1b3d 680d f6bc 7546 a33d
00000250: 3b42 84bc a3c1 8d3d 882d d33d d372 073e
00000260: 2549 debd 2bf9 6c3d a213 d13d fdb9 373d
00000270: 8240 0e3e 128b 853d ba52 993d 8e2b 073e
00000280: faf6 0dbe b7fd e1bd d761 dbbd c573 b03d
00000290: 20c3 843d 0d96 9d3d d7fb f03d 654e f13c
000002a0: 33cf 9bbd 2270 db3c 5a7e 89bd ea8b 193e
000002b0: 1637 d03d 5492 38bd aede 04be a45b 343e
000002c0: 153e 2c3e 66d0 433c baf1 e0bd 78fa d9bc
000002d0: 0775 b13d 28ac e3bd 934b 24bd cbff 413d
000002e0: 2090 3b3d 3a84 27be 5453 71bd 9b66 0a3e
000002f0: 8b3c dfbd 902c 92bd 9f26 483d e721 453d
00000300: f744 4dbd 4c5b d83d 2e04 cbbc b516 5cbd
00000310: 716a e0bc 2a73 fa3d 5d0c d73d f4d8 b23d
00000320: 7c98 c93d 29d4 fbbd c7c0 9e3d 9d1d e23d
00000330: f710 143d 6e77 99bd 68d5 2aba 80c7 c03c
00000340: 2582 d0bd a556 a13d 1f52 91bd 1a67 133d
00000350: d940 f4bd 59d8 453e fc53 b8bd b474 17bd
00000360: 3089 0abe 77c2 3d3c 2c3e 7dbb 34f8 84bd
00000370: 4ad6 ffbc 5f33 2cbe 56fd cabd d873 22be
00000380: c4ee 45be afc1 e1bd c307 d23d 5530 02be
00000390: 56a2 813d 6026 e83c 7c5a 8dbc af77 63bc
000003a0: b7aa 1cbd 65fc d13d 113b 843d 2062 21be
000003b0: f8b8 fabc 62ed 97bd ae9f 063d 92ae f7bd
000003c0: d701 b73d 9db5 b63d f50c f33c f2ca fbbd
000003d0: 9c94 8dbd bc26 aebd 2d3f e8bd 04d1 4e3e
000003e0: 89e4 6dbd 5253 f43d a060 ec3b 417a a5bc
000003f0: 878c dcbd 6a77 723c 9b1a 263e 4f75 753e
-0.11965737 0.15828559 -0.1004499 -0.057846673 -0.0026866198 0.06756427 0.062195145 0.0060939044
0.0064139315 0.050937433 0.100280575 -0.07779325 -0.1015916 -0.07092054 0.005073458 0.07277782
0.13363202 0.116904005 -0.09820259 -0.0044437153 0.11639088 -0.10714282 0.021962387 0.028728839
0.14741553 -0.0874177 -0.06253953 -0.11950029 -0.013624132 0.043682903 0.030043405 -0.0646175
0.06540769 -0.04428704 0.041648056 -0.008707255 -0.042845245 0.0013915639 -0.04945229 -0.049395423
-0.1406366 -0.10972392 -0.13237104 0.03919926 0.06724718 -0.12552638 -0.0319278 -0.086754926
-0.23673686 -0.087203294 -0.11823404 -0.15892105 0.011164945 -0.12284256 0.033572022 -0.040897876
0.064980194 0.11203396 0.117376335 0.1686079 0.09316239 0.14130726 0.06797804 -0.1117363
0.004770264 -0.02794195 0.097545914 0.07269785 -0.040944077 0.060992062 0.06571827 0.11126593
-0.10049861 0.110168695 0.12713632 -0.07005454 -0.116813704 -0.11725259 0.0435161 0.014140746
0.079492584 0.1204236 -0.024617935 -0.06930764 0.174291 0.062361658 -0.15149891 0.08340075
-0.13077521 -0.07559642 0.03997355 0.15364611 -0.098422006 0.04492967 -0.05849369 0.09444406
-0.054605454 0.18517536 0.0005258919 -0.055759527 0.05185677 0.021775834 0.13378455 0.028218435
0.18212734 0.16709694 -0.19496639 -0.08974885 0.08152098 -0.13445342 -0.042457417 -0.032928035
0.08496186 0.038797006 0.023444831 0.03995332 -0.017984526 0.052885678 0.08525275 0.018095208
0.010044004 0.15060878 0.073157474 0.04714609 0.122001484 0.06169062 0.13275434 0.011657439
-0.05225105 0.1324718 0.03597123 -0.124964714 -0.000114920076 0.06258603 -0.16252974 0.087326124
-0.1212088 -0.14976616 0.10917628 0.069723785 -0.1095698 -0.110481076 0.09006603 0.109356046
-0.16225138 0.038044672 -0.03003569 0.07972423 -0.016144862 0.06921699 0.10311419 0.13227396
-0.10853795 0.057854813 0.10208823 0.044855107 0.13891795 0.06520666 0.07486482 0.13200209
-0.13863745 -0.110347204 -0.10712021 0.08615831 0.0648253 0.076946355 0.11766785 0.029456327
-0.076078795 0.026786868 -0.06713553 0.14994779 0.10166757 -0.045061424 -0.1297557 0.17613083
0.16820557 0.0119515415 -0.10983606 -0.02660869 0.08664899 -0.111168206 -0.040111136 0.047363084
0.045791745 -0.16359034 -0.05891736 0.13515703 -0.109002195 -0.07137406 0.048864957 0.048128035
-0.050114598 0.105642885 -0.024782266 -0.053732593 -0.027394505 0.12228997 0.10500405 0.08732787
0.09843537 -0.12296326 0.07751613 0.110408045 0.03614899 -0.074934825 -0.00065167854 0.023532629
-0.10181073 0.07877854 -0.070957415 0.035986997 -0.11926431 0.19320811 -0.09000394 -0.03697653
-0.13528895 0.011582009 -0.0038641794 -0.064926535 -0.03123011 -0.16816472 -0.09911601 -0.15864503
-0.19329363 -0.1102327 0.10255387 -0.1271375 0.06329791 0.028338611 -0.01725506 -0.013883515
-0.038248744 0.102532186 0.064565785 -0.15760088 -0.030605778 -0.07418324 0.032867126 -0.120938435
0.08935898 0.08921359 0.029669264 -0.12294568 -0.069131106 -0.08503482 -0.11340175 0.2019692
-0.058079276 0.119299546 0.007213667 -0.020199897 -0.10768991 0.014798978 0.16221087 0.23970531

fc1.bias f4 [128]
00000000: e678 9ebc 7e4e 293e bbc1 fd3d f8c7 3c3e
00000010: 1224 733d 209d 683c fe4e 213e d83b a3bd
00000020: fd7a 27bd c8ed 49bd 08de b83d 21e2 11bc
00000030: 3758 c1bd 26f1 c6bd 7e05 183e 92a8 d23d
00000040: 5e2f abbd 0901 ba3d 61b8 b2bc b86d 1cbc
00000050: 1dbc 7cba efc9 233e d98b 0b3d ccbf a43d
00000060: 55c3 c73d 24f8 ab3d 464a ecbd 65d2 06be
00000070: 618c 583b 0e35 273e c4bb f03d 030d d2bd
00000080: 0c97 aebd 538c 373e 13cf 25bd 1ab5 c33d
00000090: cf1a 983c 35cf 1c3d 7d4a b53d e667 66bd
000000a0: ec52 d13d a4f4 523d 9b91 6cbd bec9 1b3c
000000b0: 43fa c13c 647a 103d cde0 8fbc 44a4 96bd
000000c0: 12a4 06be 03e6 693d 2112 05be 3154 1cbd
000000d0: 8d33 a93d f7c3 dcbd 68e9 853d 3ce4 26be
000000e0: 601e 3cbc 5abf b1bd 5ec0 cd3b 9656 28bc
000000f0: 0142 77bc 0f02 cbbd 1f19 37bd 91b1 5b3d
00000100: 02b0 cfbd 0f3a 5a3d 79b6 78bd d620 32be
00000110: 2c84 f1bd 3772 353c 16a0 293d 2eac 5e3d
00000120: 240b 113d b1e0 833d b643 763d ad40 2e3e
00000130: 59ce ffbd e1fd a03c b674 45bd 141a 62bd
00000140: 6908 6ebd 49d9 f43d 03c1 13bd bf9d 233d
00000150: 4729 db3c f06c 253e 4a94 17bd 6dff 023e
00000160: 6394 45be df0c 303e 1c9f 03be 0061 823c
00000170: a1ae c9bc f22e ec3d 5476 313e a3d3 e83d
00000180: 0fe2 a83d b505 f7bd a34e 773d b331 1c3e
00000190: c636 5f3b 57aa 273d d580 c63d 7596 323d
000001a0: 80c1 82ba e0e5 cdbd 8fe5 1d3e 985e 283e
000001b0: a0d2 393c 881a a9bd 96c1 913d 543b b5bd
000001c0: 0407 d33d 193c 243e a5d4 f73d be42 a33d
000001d0: 73b4 1bbd 4bb6 943e ff4f a5bd 9245 7abd
000001e0: 724d d3bd acf1 92bc 28fe e3bd 69a2 64bd
000001f0: efee 583d 5250 d33d 80d0 9d3d 1fc9 01be
-0.019344758 0.16533849 0.12390467 0.18435657 0.05936057 0.014197618 0.1575279 -0.07970399
-0.040888775 -0.04929903 0.09026724 -0.008904011 -0.09440654 -0.09713964 0.14845845 0.102860585
-0.08358644 0.09082229 -0.021816434 -0.009547643 -0.0009641068 0.15995 0.034068916 0.08044395
0.097540535 0.083969384 -0.11537604 -0.13166197 0.0033042657 0.16328833 0.117545635 -0.10256388
-0.08524904 0.17924623 -0.040480684 0.09556027 0.01856747 0.038283546 0.08852098 -0.05625143
0.10220894 0.05150284 -0.057756048 0.009508548 0.023678904 0.03527297 -0.017563248 -0.0735555
-0.13148525 0.057104122 -0.12995197 -0.03816623 0.08261786 -0.10779565 0.06538659 -0.16298002
-0.011481851 -0.086790755 0.0062790355 -0.01027455 -0.01509142 -0.09912502 -0.04470169 0.053636137
-0.10140993 0.053278025 -0.060720894 -0.17395338 -0.11792788 0.011074594 0.041412435 0.054363422
0.035411015 0.06439341 0.060123168 0.1701686 -0.124905296 0.019652309 -0.048207007 -0.05520065
-0.05811349 0.11955506 -0.036072742 0.03994536 0.026753081 0.16154838 -0.037006654 0.1279275
-0.19294886 0.1719241 -0.12853664 0.015915394 -0.024619402 0.115323916 0.17330295 0.113684915
0.08246242 -0.120616354 0.06037773 0.15253334 0.0034059747 0.040933933 0.096925415 0.04360052
-0.000997588 -0.10053611 0.15419601 0.16442335 0.011341721 -0.082570136 0.07117002 -0.088492066
0.103040725 0.1603855 0.121011056 0.079717144 -0.038013887 0.29045328 -0.08071899 -0.061101504
-0.10317506 -0.017937504 -0.11132461 -0.05581895 0.05296224 0.10318054 0.07705784 -0.12674378

fc2.weight f4 [64, 128]
00000000: 5e26 84bd 5781 243d 2cc5 cf3c 29f7 773d
00000010: 8169 b7bd be47 373d ca2b fb3c 8ff3 ea3c
00000020: 3907 d33c 6b81 22bd 446d b4bd c028 db3b
00000030: 2044 9b3d 8c39 5ebd 4997 56bd 3186 9dbd
00000040: 533d 923c 8b39 6c3c ba99 703d dbec 02bc
00000050: a9b3 a63a 6246 41bd 8ef3 18bd a3e4 903d
00000060: 6a3e 883d 2a2e 593c 070b 063d f0b5 1fbc
00000070: c902 913d aa4b 533d a05a 2a3b 06b1 403d
00000080: ce11 d8bc be2a 63bd b48a ed3a 42a3 86bd
00000090: 67c0 acbd e06b b4bd 29d9 4cbd 3efc b6bb
000000a0: 93e4 86bc 64e0 71bd 7865 173d 1013 5cbd
000000b0: 5020 9fbc 20be 34bd d057 ac3c ef50 afbd
000000c0: 57c3 84bc fbc5 afbd 2d37 3bbc 8267 373d
000000d0: 1505 0b3d c8bd b6bd 496d 2abd 9ea2 7f3d
000000e0: 7288 99bd 4505 f73c 5229 61bd 54eb a13c
000000f0: 0f26 59bd db74 833d 5e8c 9bbd 4624 d53c
00000100: 7445 5fbd 2e4f 363d c14c 863c 47e0 aebd
00000110: 7e34 5c3d a2ce 363d 6735 2abc 236e 8ebd
00000120: dea8 103c c2b8 21bd a00a 37bd 81ab 29bd
00000130: 9ad0 2dbd 0ae1 81bd ee4c 013d 06f3 413c
00000140: 1275 1abd 1d55 4fbd 6fc8 ac3d cbd6 8cbd
00000150: a2ef 363d 6132 85bd 247d 163c 6094 b2bc
00000160: 0547 9ebd 7ef9 e3bc 12e7 7b3d edfb 27bd
00000170: 979a 7fbc 3b23 6cbd 8c3a 4b3d d832 a1bd
00000180: 6196 d2bb db32 05bd 7267 863d 2578 89bd
00000190: 67cd 93bd 5d5c 89bd 6d6c 873d 88a9 113c
000001a0: 8673 c3bd daf3 9f3d 0da2 b3bd f85f 323c
000001b0: 3a1c 3d3d 70af 06bd 2103 adbd ca95 18bd
000001c0: 2487 b7bd 04ec 69bd 20dd 2c3c db0c 36bd
000001d0: daa0 583d d227 5e3d f2b3 42bd b26c 3fbb
000001e0: 2130 77bc 3979 563d 6035 c53c 28bb babc
000001f0: 8735 643b 3113 093d dafe 063d e0db 1ebc
00000200: 5b5d 8e3d f46d 4eba a411 57bd 22cf 033e
00000210: 7a08 ef3c 99d6 2b3d 691b c23d a052 1f3d
00000220: 79e3 eb3c 97ce 85bc 6417 95bd 49c8 6bbd
00000230: c220 9dbc 1c32 a63c be5c 2cbc 95ba b83d
00000240: d458 35bd 88f4 5ebd 7fdd 85bd d930 f13d
00000250: a8d1 d23c 288a b13c 034a 07be b3ae 91bc
00000260: e70a 63bd c11d 92bd 6f6e 153d 753c c93c
00000270: daf4 e6bc 89f1 a1bd a13a c6bd 4223 4ebd
00000280: 0455 a73c 385e f63c 7153 763d a42c 3dbd
00000290: 2a39 9bbc f6b8 5dbd 02dc 4b3d 544e 0b3c
000002a0: 6d10 6d3d b9a5 9e3d a67e 3abd 6122 8abc
000002b0: fafc 1e3d 0766 253d 5668 93bc 51bb 59bd
000002c0: a5c4 44bc 8ce4 27bd be8d 52bc 8fff bb3c
000002d0: 17a9 51bc 04d3 4dbd cd9e 453d d27b 8bbd
000002e0: 790e f13c 2cee 873d 20c6 91bd 1db6 a33d
000002f0: 3c30 933d 68c0 b4bd 4187 bbbd cd27 333d
00000300: a53e dcbc 3e51 013e 3b2c 8fbd 5061 313d
00000310: f820 023c ffd6 983d 3ace 793c 7cee aebd
00000320: 9a3a 2ebc 4e7e 07bc 834f 423d bf9f a1bc
00000330: ac27 d03c b105 97bd fc47 b13d 0ca7 4bbb
00000340: 35fa 28ba 35ae f73c c085 d6bd 58af bb3d
00000350: e16d 8ebd 09f3 5c3d 7091 f6bc 8e22 ab3d
00000360: cfa0 673d 8ee0 d33d 53de 2f3d 24f1 8f3c
00000370: d9bb b63d 51b9 9d3d 4e2e cd3b 5d6f 8dbc
00000380: 7524 dd3c 87ed 4a3d 4692 c13c d598 ca3c
00000390: 0f0f 79bd a932 74bd f98e ef3c 069d f8bc
000003a0: 30ee 6f3d d485 dd3d 8215 57bb 6201 0bbb
000003b0: 9f4e a6bc 0cb0 bb3b 1581 643d 166a 48bd
000003c0: 1ada 2ebc f698 cf3d ec45 983b 3d72 743c
000003d0: fcc3 f23d a618 bdbd b15f 6e3c e90c 15bd
000003e0: e928 29bd 3f2c 81bd 50f7 c0bc 4ec3 69bd
000003f0: a0b7 cbbd 2537 45bd 495f 81bb 2be4 cbbc
-0.064526305 0.04016241 0.025362574 0.060538445 -0.0895567 0.044746153 0.030660529 0.02868059
0.02576028 -0.039674204 -0.08809903 0.0066882074 0.07581353 -0.0542541 -0.05239037 -0.076916106
0.017851507 0.014418016 0.058740355 -0.007991041 0.0012718338 -0.047186263 -0.037341647 0.07074859
0.066525295 0.013255635 0.03272536 -0.009747967 0.07080609 0.05158583 0.0025993958 0.047043823
-0.026375677 -0.055460684 0.0018123002 -0.06574108 -0.08435135 -0.08809638 -0.050011788 -0.005584269
-0.016466415 -0.059051886 0.036962003 -0.053729117 -0.019424587 -0.04412663 0.021037966 -0.08560359
-0.016206427 -0.08582684 -0.011426729 0.044776447 0.033940393 -0.08922917 -0.04160813 0.062410943
-0.07496728 0.03015388 -0.054971047 0.019765534 -0.05301481 0.06418773 -0.07595132 0.026018273
-0.054509595 0.044509105 0.016394021 -0.08538871 0.053760998 0.044630654 -0.010388709 -0.06954601
0.008829324 -0.03948284 -0.044687867 -0.041423324 -0.042435266 -0.06341751 0.031567506 0.011837726
-0.037709303 -0.05061828 0.08436667 -0.06876906 0.044662125 -0.0650375 0.009185109 -0.021799266
-0.0772839 -0.027828928 0.061499663 -0.04101174 -0.015600822 -0.057650786 0.04961638 -0.07871026
-0.006426618 -0.032519203 0.065626994 -0.06712369 -0.07216912 -0.0670707 0.066124775 0.008890517
-0.09543519 0.07810183 -0.08771143 0.010887139 0.046169497 -0.032882154 -0.084478624 -0.037252225
-0.08961323 -0.057109848 0.010550767 -0.044445854 0.052887775 0.054237194 -0.04753489 -0.0029209075
-0.015087158 0.0523617 0.024073303 -0.022794321 0.0034821944 0.033465568 0.03295789 -0.009695977
0.069514 -0.00078746607 -0.052507058 0.12871984 0.029178847 0.041952703 0.09477884 0.038897157
0.02879499 -0.016333861 -0.07279852 -0.057564054 -0.01918066 0.020287566 -0.010520158 0.09019963
-0.044274166 -0.054432422 -0.06536388 0.11776895 0.025734738 0.021672323 -0.13211827 -0.017783498
-0.05543032 -0.07134581 0.03648227 0.024564961 -0.028192926 -0.07907397 -0.09679151 -0.050326593
0.02042628 0.030074224 0.06013817 -0.04618515 -0.018948156 -0.05413147 0.049770363 0.008502562
0.057876993 0.07746453 -0.045530938 -0.016862096 0.038815476 0.040380504 -0.017994087 -0.053157154
-0.012009774 -0.040989444 -0.012851177 0.022949008 -0.012796662 -0.05025007 0.048247147 -0.06810726
0.029425846 0.066372246 -0.071178675 0.0799372 0.07186934 -0.08825761 -0.09156657 0.04373913
-0.02688534 0.12628648 -0.06990858 0.043305695 0.007942431 0.07462882 0.015246922 -0.08541581
-0.010634089 -0.0082698595 0.04743911 -0.019729493 0.025409542 -0.073741324 0.08656308 -0.003107491
-0.0006445975 0.030234436 -0.104747295 0.091643035 -0.069545515 0.053942714 -0.030098647 0.083562
0.056549843 0.10345565 0.042936634 0.01757104 0.08922548 0.07701362 0.0062616235 -0.017265016
0.026994923 0.04954293 0.023629319 0.02473108 -0.060805377 -0.059618626 0.02924298 -0.030348312
0.058576763 0.10816541 -0.0032819216 -0.002121054 -0.020301161 0.0057277735 0.055787165 -0.048929296
-0.010672117 0.10136597 0.004647007 0.014919815 0.11853787 -0.09233217 0.014549182 -0.036389265
-0.04129878 -0.063072674 -0.023555428 -0.057071023 -0.09947133 -0.048148293 -0.0039481265 -0.024889072

fc2.bias f4 [64]
00000000: d51b 49bd 7057 8fbd b65c a0bd 1f50 a63d
00000010: a8d5 39bd e2ec 0e3d 3c66 11bb a6d1 ea3c
00000020: e938 4ebd 539b 373d 5ede 5abd 8587 3e3d
00000030: e863 b03c 98dc 9e3c b14d 9f3d 4f5d 78bd
00000040: f190 843d b9a2 85bc 77f0 bf3d 1792 8abd
00000050: ee2d c83a 8b1b 80bd 1f36 d73c 326d 183d
00000060: 2cc8 24bd 9b54 5abd 12c8 f6bc e81b adbd
00000070: f38b 8e3d ad77 96bc f4c7 c4bd be8c 5d3d
00000080: baaa 48bb 5ffe 65bd 8d48 b73c 3675 a7bd
00000090: 293b c23c 233c 90bd 6ddf c13d c3aa 663d
000000a0: d2d2 91bd 3942 e73d 5409 a33b 132f 3f3d
000000b0: adcc 35bd f2c4 98bc 15f3 a23d 4d89 0bbd
000000c0: c92b 9ebd 59ca 133d c712 003d 4b7d c53d
000000d0: 6f54 abbd 204d 063c b4c9 043d 3559 673d
000000e0: bc45 af3d f06e b6bd 8190 7dbd db90 8e3d
000000f0: 2628 0a3c f82d 5a3d 1e61 32bd bfcb bc3d
-0.04909881 -0.06999099 -0.07830183 0.08120751 -0.045369774 0.034893878 -0.002218618 0.028664421
-0.050347243 0.044825863 -0.053434722 0.04651596 0.021532014 0.019392297 0.0777849 -0.06063586
0.06472958 -0.016312944 0.09372037 -0.06766146 0.0015272477 -0.062552534 0.026270924 0.03721351
-0.04022996 -0.053303342 -0.030124698 -0.08452588 0.06960287 -0.018367613 -0.096084505 0.0540893
-0.003061934 -0.05615079 0.022373462 -0.08176653 0.02370985 -0.0704272 0.09466443 0.056315195
-0.07120289 0.11291928 0.0049754772 0.046675753 -0.044384647 -0.018648598 0.079565205 -0.034066487
-0.07723195 0.036081646 0.031267907 0.09643038 -0.08365714 0.008197099 0.03241892 0.05648156
0.08558223 -0.089078784 -0.061905388 0.06961223 0.008432424 0.053266495 -0.04354965 0.09218549

fc3.weight f4 [7, 64]
00000000: 364d a73c 93e4 4fbd 6bf2 9bbb 016b d73c
00000010: 1a95 a93c a7b0 6cbd 8a32 493d 2bde 18bd
00000020: f093 9abd 4a72 d43d 3276 d13d 3959 873d
00000030: d56a cb3d d2fc f23b 77b3 e5bc feab d4bd
00000040: 66e8 ac3d 856c 2c3d 6f9c 303e 6675 11bd
00000050: b645 4abc c2ae adbc 7f96 ef3d c039 94bd
00000060: bf91 3c3c d463 173d 9dc7 a3bd 806b 97bd
00000070: e67d d4bd b8d6 a6bd 74af b6bd d131 df3d
00000080: f681 b83c 2716 3ebd 696b 2cbd 22dd bfbd
00000090: 6137 883c 048c b1bc bed1 123e 627d c93c
000000a0: f057 d33d e62e c7bd fd95 6dbd e3bd b83d
000000b0: 6dbf 223d 86ab ebbb e8a6 033e 29d5 043d
000000c0: 6bbf c6bd 68f6 88bd a04c fabc bd30 983d
000000d0: 97b6 a4bc ef41 883d 3803 58bd 9e1c d03d
000000e0: bb24 17bd f09c df3d 706a 4e3d f294 0c3e
000000f0: 3e3f c63d 6d11 c23d 8fe2 e23d a411 223e
00000100: e835 a2bc 0098 b93d fa09 6cbd 854f a53d
00000110: c40b 333b 9f6b 133e 25f3 ae3b 9ac0 423d
00000120: 4e41 523d 4b34 d33c f057 0cbd 0f8e 0a3e
00000130: 5428 163e 8d5a 7a3d 8802 c0bd 547b d2bb
00000140: ab57 0d3e 1dc2 db3d 6014 e1bd 3400 76bd
00000150: d61f e2bd 8932 1a3c 1943 923c 3da4 e03d
00000160: 9980 f83c e931 5cbb a58e 89bd 3a28 1cbd
00000170: 2750 073e c88c 9e3c a8a1 613d d261 53bd
00000180: 874a 0a3e d477 5cbc 7ef7 b4bd 0646 b23d
00000190: 54d1 60b9 94b8 81bd f5c8 2b3d e82c 0b3e
000001a0: f51e 173d e343 223e f58b b43d f220 823d
000001b0: 7b60 dd3d 4416 adbb b89e 973d 3419 4a3d
000001c0: 5b8b 71bd 2440 39bd 4115 c3bd bbb1 a53c
000001d0: 01fc e4bc e6dd 84bd 5815 6f3d 338f f53d
000001e0: ae85 793d bdf4 c2bd 7387 943b 0e35 b43d
000001f0: b318 f8bd 8f7e 38bc 7932 e53d 899e 803d
00000200: be12 cdbd f900 4ebc 82ff 993d 55d0 4f3d
00000210: b20c debd f8ce ce3d 0106 4d3d 36e3 563d
00000220: 5649 03be 084c 0e3e 001e 7dba f702 39bd
00000230: 24a4 c43d deb1 5a3d 98c2 203c 7b83 b6bd
00000240: c48a 7c3d 6a92 31bd ca54 733c 60cb fa3c
00000250: 0b28 bc3d 8ed6 603d 6620 16bb 107c 6a3e
00000260: 1ebe 0ebe e511 abbd 04da 89bc 8838 a63d
00000270: 3a72 62bb 49ee 7dbc e0c3 bdbb 1c53 b13d
00000280: 7609 0d3e 566f 363d cf2f f73c 4ef2 68bd
00000290: 122c 413d 7e91 b8bd f22d ee3d d1c7 dc3d
000002a0: c47f 763d 208c 85bd c21d a6bd 8f68 bcbb
000002b0: 8ea1 383d c492 873d 8518 fd3d 9b67 fdbc
000002c0: 4141 81bd 02d2 ea3c d84a 1bbb 8121 15bd
000002d0: 3614 f13d 9730 b93d 900f d1bc 8996 e93d
000002e0: a3fd ca3d be28 bb3d 2074 97bb c202 b73c
000002f0: a6bd f03d f8d2 bbbd 0b6c ff3d f230 cd3b
00000300: 20f8 c63b 168c 013e 24e9 123e 0ba2 253b
00000310: bdfe d9bb ea06 aa3d e022 f3bc 3335 a5bd
00000320: 144d 5cbd be7c b1bd 2e29 d1bc eb36 86bd
00000330: d035 143d cb15 ab3d 0640 9f3d d898 b03d
00000340: 035a f13d 74a7 003e aed5 8c3d 0816 ba3c
00000350: 40f5 91bc cc17 843d a7ee b63d 2dce 9c3d
00000360: 40db 94bd 9711 2f3d cbdf aabd 6aad b53d
00000370: f41e e53d 81bf 5b3c 5026 1abc 05f1 0ebd
00000380: c11b 2fbc 96e5 573b ccc1 75bd 8bf7 62bd
00000390: 9c96 85bc f767 06bd db19 7cbd e905 8b3d
000003a0: 10da 21be 37ed 343e c460 2f3c 0373 7b3d
000003b0: ac9c bdbd 716d 153e 8fc9 e0bd 4133 95bc
000003c0: d46c 99bd b81c 9cbd b3e7 aa3d bd88 993d
000003d0: cf1e 843c 1ce0 b6bd 0221 fb3c 5c1f d23d
000003e0: 9bb8 0d3e 0028 87bd b4e2 f93d 724f 9b3d
000003f0: a52e 02bd 99df 55bc 083b 23bd 9d9d da3d
0.02042256 -0.050755095 -0.004759123 0.02629614 0.02070098 -0.057785656 0.049120463 -0.03732125
-0.07547748 0.103733614 0.10227622 0.06608815 0.09932486 0.0074153924 -0.028039677 -0.103843674
0.08442764 0.04209568 0.17247175 -0.03551235 -0.012345722 -0.021201495 0.11698627 -0.072375774
0.011509358 0.036960438 -0.079970576 -0.07393551 -0.10375576 -0.08146423 -0.08920184 0.108981736
0.022522908 -0.046407845 -0.04209462 -0.093683496 0.01662797 -0.02167321 0.14337823 0.02459592
0.10319507 -0.09725742 -0.058004368 0.09020593 0.03973334 -0.007192078 0.12856638 0.032429848
-0.09704479 -0.06687623 -0.030554116 0.07431171 -0.020106597 0.06653201 -0.052737445 0.10161708
-0.036900263 0.10918605 0.050394475 0.13728693 0.09680031 0.0947598 0.11078369 0.15827042
-0.019801095 0.09062195 -0.057626702 0.08071808 0.0027320245 0.14396523 0.0053390437 0.04754696
0.05133181 0.025781771 -0.03426355 0.13530754 0.14663821 0.061121512 -0.09375483 -0.0064233933
0.13802974 0.107303835 -0.10990214 -0.060058787 -0.110412285 0.009411463 0.01785426 0.10968826
0.030334758 -0.0033599085 -0.067166604 -0.0381243 0.1321417 0.01935424 0.055085808 -0.05160696
0.13504992 -0.013456304 -0.08836268 0.08704762 -0.00021440285 -0.063340336 0.041939694 0.13591349
0.036894757 0.15846209 0.08815757 0.0635394 0.10809418 -0.0052821953 0.0740332 0.04934044
-0.05897079 -0.045227185 -0.09525538 0.02022635 -0.027952196 -0.06487636 0.058369964 0.11990204
0.060918503 -0.095193364 0.0045327484 0.08799182 -0.12114086 -0.011260643 0.111912675 0.06280238
-0.100133404 -0.012573474 0.075194374 0.05073579 -0.10842265 0.1009807 0.050054554 0.05246278
-0.12820944 0.13896191 -0.00096556544 -0.045168843 0.0960162 0.053392284 0.00981202 -0.08911797
0.061655775 -0.043352522 0.014851758 0.030614555 0.09187325 0.054892115 -0.0022907495 0.22898889
-0.13939711 -0.083530225 -0.01682759 0.08116251 -0.0034552948 -0.015498706 -0.0057911724 0.0865843
0.1377314 0.044539772 0.030174164 -0.056871705 0.04716117 -0.090121254 0.11629857 0.107802995
0.06018044 -0.06520867 -0.081111446 -0.005749769 0.045075946 0.0661979 0.12358192 -0.030933192
-0.06311274 0.028664593 -0.0023695733 -0.036408905 0.11771433 0.09042471 -0.025520116 0.114056654
0.099116586 0.0913863 -0.0046219975 0.022340182 0.117549226 -0.091710985 0.124717794 0.0062619383
0.0060720593 0.12651095 0.14346749 0.0025273587 -0.0066526816 0.083021 -0.029679716 -0.080667876
-0.053784445 -0.08666371 -0.025532331 -0.065534435 0.036184132 0.08353766 0.077758834 0.08622903
0.117847465 0.12563878 0.06876694 0.022715583 -0.01781714 0.064498514 0.08932238 0.076565124
-0.07268381 0.042741384 -0.08343466 0.08870967 0.111875445 0.013412357 -0.0094085485 -0.034897823
-0.010687769 0.003294324 -0.059999272 -0.055411857 -0.016307168 -0.032813992 -0.061548095 0.06788237
-0.1580584 0.17668615 0.010704223 0.06138898 -0.092583984 0.1459253 -0.10975944 -0.018212916
-0.074914604 -0.07622665 0.08344974 0.07496784 0.016127972 -0.08929464 0.030655388 0.102598876
0.13839953 -0.06599426 0.12201443 0.07583512 -0.031782765 -0.013053798 -0.03985122 0.106745936

fc3.bias f4 [7]
00000000: 48f1 03bb 77eb 15bd 5e9f 0abd 2895 053e
00000010: 2479 633d 1dd3 0cbd 3223 933d
-0.0020132829 -0.03660151 -0.03384339 0.1304518 0.05553545 -0.03438102 0.07184447
