rl_agent/output/dqn/episode_100/model_weights.pth (torch, 59972 bytes, 6 tensors)

fc1.weight f4 [128, 43]
0	0x3e25c797	0.16189419
1	0x3da60bdd	0.081077315
2	0xbd06b9c7	-0.032892015
3	0xbcb6478b	-0.022250911
4	0xbd42e914	-0.047585562
5	0xbd70c5a6	-0.058782242
6	0x3da2a0da	0.07940836
7	0x3c61145a	0.013737762
8	0xbc2e5ac2	-0.010641756
9	0xbd7d0632	-0.061773486
10	0xbd220285	-0.039553184
11	0x3d7d0b91	0.06177861
12	0x3ad6e309	0.0016394566
13	0x3dd6df0c	0.104917616
14	0x3d8dc6e3	0.069227
15	0x3dda5b78	0.106619775
16	0xbdeb446e	-0.11487661
17	0x3e636fd6	0.22210631
18	0x3c5d47c9	0.013505884
19	0xbde3c7a7	-0.11122065
20	0xbbc480e0	-0.0059968084
21	0xbcfa41ab	-0.030548891
22	0xbc209fed	-0.009803754
23	0x3db2efe5	0.087371625
24	0x3c88a9ed	0.01668259
25	0xbdd5c8d9	-0.10438699
26	0xbddb2e34	-0.10702172
27	0xbe080e55	-0.13286717
28	0x3ce54791	0.027988227
29	0x3e0c26d3	0.13686685
30	0x3e2970bf	0.16546915
31	0x3d41f2d3	0.047350716
32	0xbdf68cd0	-0.120385766
33	0x3d586f0a	0.05284027
34	0xbdddf02f	-0.10836827
35	0x3e47b282	0.19501689
36	0xbc9e42db	-0.019318989
37	0x3de9fa70	0.1142472
38	0x3cca1803	0.024669653
39	0xbc3fdf58	-0.011710964
40	0xbd2b99ba	-0.041894652
41	0x3d6bd7e0	0.05757892
42	0xbdc8b709	-0.09800536
43	0xbb88826a	-0.004165937
44	0x3cd985f2	0.026553128
45	0x3e25d3f9	0.16194142
46	0x3dd5ca45	0.104389705
47	0xbc99824b	-0.018738886
48	0x3d9a808f	0.07544052
49	0x3d9bda70	0.07610023
50	0xbcf52378	-0.02992414
51	0xbde5a35b	-0.11212798
52	0x3dcafbec	0.099113315
53	0xbd22c17f	-0.039735314
54	0xbdfa733c	-0.122290105
55	0x3d1a2839	0.037636016
56	0x3ceda790	0.029010564
57	0x3e203d30	0.15648341
58	0x3d5890f9	0.05287263
59	0x3e06634d	0.13123818
60	0x3e287ba5	0.16453417
61	0x3d05c9da	0.032663204
62	0x3dc61237	0.09671443
63	0xbdadc228	-0.08484298
64	0x3e126d9e	0.14299628
65	0xbe09cb65	-0.13456495
66	0x3d817b92	0.06322397
67	0x3d9f24ec	0.07770714
68	0xbe1e8522	-0.15480474
69	0x3d0f79c0	0.03502822
70	0xbd1c615a	-0.03817878
71	0xbe299359	-0.16560115
72	0x3dbd4ac5	0.09242777
73	0x3d6c6e27	0.057722237
74	0x3df68c54	0.12038484
75	0xbcfcad36	-0.030844312
76	0xbd3b8622	-0.045782216
77	0x3d853b7a	0.06505485
78	0x3d93b373	0.072119616
79	0xbddc62c2	-0.10761024
80	0xbd707b54	-0.058711365
81	0x3d754a6d	0.05988543
82	0x3dedb253	0.11606278
83	0x3e012575	0.12611945
84	0xbe0dc018	-0.13842809
85	0x3d86e0ee	0.06585871
86	0x3dec6430	0.11542547
87	0xbce69f3d	-0.028152103
88	0x3e387f3a	0.18017283
89	0x3d4b2864	0.049599066
90	0x3d5c39a9	0.053765927
91	0xbdfa20ec	-0.122133106
92	0x3ca2a218	0.019852683
93	0xbd842db2	-0.06454028
94	0xbccca9be	-0.024983283
95	0x3e23e61b	0.16005747
96	0x3ddf8dc3	0.10915711
97	0x3ddf3faf	0.109008186
98	0x3e3c945e	0.18415973
99	0x3cd25580	0.025675535
100	0xbdb5e243	-0.088810466
101	0xbddcdfa3	-0.10784843
102	0x3e4035d2	0.18770531
103	0xbd94ab2e	-0.072592124
104	0x3e0a41ee	0.13501713
105	0x3e245d1e	0.16051146
106	0x3dbee396	0.09320752
107	0x3d995fa8	0.07488948
108	0xbe2cd104	-0.16876608
109	0x3e0caefa	0.13738623
110	0x3d4a7b0a	0.049433745
111	0x3e161f71	0.14660431
112	0x3dfc33c1	0.12314559
113	0x3d8e4482	0.069466606
114	0x3e1c8bc8	0.15287697
115	0xbd6b9d62	-0.05752314
116	0x3c2396dc	0.009984698
117	0x3d46c3ce	0.048526578
118	0xbda5f44c	-0.081032366
119	0x3d0619d0	0.03273946
120	0xbdedd243	-0.1161237
121	0xbdd14a3d	-0.10219238
122	0x3e2af611	0.1669543
123	0xbd2b52fd	-0.04182719
124	0x3e09611c	0.1341595
125	0x3ab52329	0.0013819683
126	0x3df86e5c	0.121304244
127	0x3dea8cec	0.1145266
128	0xbddf5795	-0.10905377
129	0xbd6fd923	-0.058556687
130	0xbd06033a	-0.03271792
131	0x3d8ee075	0.069764055
132	0xbcc8268e	-0.024432447
133	0xbe40f0cc	-0.18841857
134	0x3e1efc11	0.15525843
135	0x3d4e2c64	0.050335303
136	0xbdabba2c	-0.08385119
137	0xbd0b4df1	-0.034009878
138	0x3d04b451	0.032398526
139	0xbe1602e2	-0.14649537
140	0x3e1c16b5	0.15243037
141	0xbe084c90	-0.13310456
142	0x3c12faf0	0.008970961
143	0x3c218cb8	0.00986021
144	0xbdff617f	-0.12469768
145	0xbddd2f87	-0.10800081
146	0x3e18a8dd	0.14908166
147	0x3d7132cf	0.058886345
148	0x3da8fe3e	0.08251618
149	0xbd99d211	-0.0751077
150	0x3dfac8ec	0.12245354
151	0x3db21db0	0.08697069
152	0x3ce71254	0.028206982
153	0xbd9d07bd	-0.076674916
154	0xbdf51ebf	-0.11968755
155	0x3da03802	0.07823183
156	0x3d820372	0.063483134
157	0x3dcba0dc	0.09942791
158	0x3e009fed	0.12561007
159	0x3e0cc835	0.13748248
160	0xbddc7a07	-0.10765462
161	0xbe09cced	-0.13457079
162	0x3db9c4f4	0.09070769
163	0xbde0ab6b	-0.109701954
164	0x3dea4246	0.11438422
165	0x3d057198	0.032579035
166	0xbdf200d1	-0.11816562
167	0xbd80ffb0	-0.062987685
168	0x3d4f6e5f	0.050642367
169	0x3bc01b05	0.005862596
170	0x3d857e5c	0.06518242
171	0x3e00771a	0.12545434
172	0xbd641af3	-0.055689763
173	0xbe1badd8	-0.15203035
174	0x3e289d59	0.16466273
175	0xbce8beb6	-0.02841125
176	0x3da80e73	0.08205881
177	0x3d82c8bf	0.063859455
178	0xbbad6320	-0.0052913576
179	0x3cc703c4	0.024293788
180	0x3e021b69	0.12705769
181	0xbd7e4b48	-0.062083513
182	0x3d28fa34	0.041254237
183	0x3ce0739c	0.027398877
184	0xbddd2ed4	-0.107999474
185	0xbe00d504	-0.12581259
186	0x3e34fb1d	0.17673917
187	0x3d563ee6	0.05230608
188	0x3cbeead9	0.023305343
189	0xbcf8ae1a	-0.030356456
190	0x3e0a5b44	0.13511378
191	0xbd9da831	-0.076980956
192	0xbd9e6bbf	-0.07735395
193	0x3d28686f	0.04111522
194	0x3dd9048e	0.10596572
195	0xbe0cba0c	-0.13742846
196	0x3d1c9bb6	0.038234435
197	0xbde5d593	-0.11222377
198	0xbcde8ec9	-0.027167695
199	0x3d3ffc6c	0.046871588
200	0xbc85ffa6	-0.016357254
201	0x3e06b990	0.13156724
202	0xbc99a701	-0.018756391
203	0x3c12eb9f	0.008967309
204	0xbe0325e9	-0.1280743
205	0x3e283cd1	0.1642945
206	0x3dd02e24	0.101650506
207	0x3c84c966	0.016209316
208	0x3cfd35a8	0.030909374
209	0x3d840ac2	0.064473644
210	0x3de1d4dd	0.110269286
211	0x3d30212b	0.04300038
212	0x3dc8a1a7	0.09796458
213	0x3dfccb5c	0.12343475
214	0x3d0548ef	0.032540258
215	0x3d749be4	0.05971898
216	0x3c855cd0	0.016279608
217	0x3d989ce9	0.07451803
218	0x3d78ab23	0.060710084
219	0xbdcacc39	-0.09902234
220	0xbda2e791	-0.07954324
221	0x3d1446a8	0.036200196
222	0xbdfbf7b4	-0.12303105
223	0x3dc8c7b8	0.09803718
224	0xbd396785	-0.04526474
225	0xbdd5d79d	-0.104415156
226	0x3e0b3bec	0.13597077
227	0xbd1bc8d2	-0.038033314
228	0x3e06fb9a	0.13181916
229	0x3ba34379	0.0049824086
230	0x3dd17f0c	0.102293104
231	0x3df8de4e	0.12151776
232	0xbcf71124	-0.03015954
233	0xbd65e632	-0.056127734
234	0xbdc88520	-0.097910166
235	0x3e003dd6	0.12523589
236	0xbca31204	-0.019906051
237	0xbdf4f1ae	-0.11960159
238	0xbc9b24aa	-0.018938381
239	0x3da2ab44	0.079428226
240	0xbe0908a0	-0.13382196
241	0x3cc1c339	0.02365266
242	0xbd84b084	-0.0647898
243	0xbb994972	-0.004677945
244	0xbd5a2998	-0.053262323
245	0x3d8da966	0.06917076
246	0xbce9a93b	-0.028523078
247	0xbe070425	-0.13185175
248	0x3bd3e453	0.0064664274
249	0xbd3cee2e	-0.046125583
250	0xbe177051	-0.14788939
251	0xbd99dfe5	-0.075134076
252	0x3a464cdd	0.0007564554
253	0xbe08b697	-0.13350902
254	0x3d43f252	0.047838517
255	0xbdd72a09	-0.105060644

fc1.bias f4 [128]
0	0xbdae3de8	-0.085079014
1	0x3d1a794c	0.037713334
2	0x3d1f6622	0.03891576
3	0x3daf4296	0.08557622
4	0xbc244f8a	-0.010028729
5	0xbe2ada30	-0.16684794
6	0xbda4a16b	-0.080386005
7	0x3db788ed	0.089616634
8	0x3e159a9b	0.14609759
9	0x3dbc7e5b	0.09203788
10	0x3d82882a	0.063736275
11	0xbd97d590	-0.07413781
12	0x3dabff76	0.08398335
13	0xbda0f2af	-0.07858788
14	0xbdfae17c	-0.12250039
15	0x3d8cc297	0.068730526
16	0x3e08e356	0.13367972
17	0x3d7c307a	0.06156967
18	0x3c25ac8d	0.01011194
19	0x3dc20326	0.09473257
20	0x3da5c1b9	0.0809359
21	0x3cb7b257	0.022423906
22	0xbe178e83	-0.14800458
23	0x3d6b4b78	0.05744502
24	0x3db5efb8	0.08883613
25	0x3d1b9e33	0.037992667
26	0xbdd5be2d	-0.10436664
27	0x3dd76eb2	0.1051916
28	0xbd774343	-0.06036688
29	0x3dbb42d1	0.091436036
30	0xbd1a39a5	-0.03765263
31	0x3dfed3a4	0.12442711
32	0xbd3f3ff1	-0.04669184
33	0xbe3c5763	-0.1839271
34	0xbd6b6bfd	-0.057476033
35	0x3e2832bb	0.16425602
36	0xbddb8755	-0.10719172
37	0xbd9354ea	-0.071939304
38	0x3e04022f	0.12891458
39	0x3d5c9a71	0.053858224
40	0x3dff6cf0	0.1247195
41	0xbdf83cf3	-0.12121
42	0x3ced5e28	0.028975561
43	0xbd011b19	-0.031519983
44	0x3d8a0c92	0.06740679
45	0x3d95490f	0.072893254
46	0xbd700f36	-0.058608256
47	0xbdb63c6f	-0.088982455
48	0xbc48ea90	-0.012262955
49	0xbdeb516f	-0.114901416
50	0xbd81923d	-0.06326721
51	0xbe0d35d4	-0.13790065
52	0xbdad82a7	-0.084721856
53	0xbdd4587f	-0.10368442
54	0xbdc0fbf4	-0.09423056
55	0x3e85e369	0.26150063
56	0x3d85f573	0.06540956
57	0xbdadd27f	-0.084874146
58	0xbc6636ea	-0.0140511785
59	0xbe111536	-0.14168248
60	0x3e055441	0.13020422
61	0x3d08114f	0.03321963
62	0xbe1279f0	-0.14304328
63	0x3e1b242c	0.15150517
64	0xbd8f4db8	-0.069972456
65	0xbda52d00	-0.08065224
66	0xbdd492c6	-0.10379557
67	0xbde55514	-0.11197868
68	0x3d2b2a3b	0.04178832
69	0x3da27938	0.07933277
70	0x3d60ee14	0.05491455
71	0xbe150079	-0.14550962
72	0xbd04a286	-0.032381557
73	0xbddd9fd1	-0.10821498
74	0x3dbc07e9	0.09181196
75	0x3d8a78f3	0.067613505
76	0x3cbf96ac	0.023387276
77	0x3e3ff2a2	0.18744901
78	0xbdd6a073	-0.10479822
79	0x3da854d6	0.08219306
80	0x3b73aee0	0.003718309
81	0x3c3a0295	0.011353155
82	0x3e47d1f8	0.1951369
83	0x3e0801d4	0.13281947
84	0x3e20ce7f	0.15703772
85	0xbe0ec331	-0.13941647
86	0xbdffb061	-0.124848135
87	0xbcf56e6b	-0.029959878
88	0x3db4d8a2	0.08830382
89	0xbdaf581d	-0.08561728
90	0xbcdfa904	-0.027302273
91	0x3c6d3563	0.01447806
92	0x3d766131	0.060151283
93	0xbe1a5e51	-0.15075041
94	0xbd2bc467	-0.04193535
95	0xbc3ad612	-0.011403577
96	0x3e2bb5d1	0.16768576
97	0xbc298f12	-0.010349052
98	0x3e8600a9	0.2617238
99	0x3d29de57	0.041471805
100	0x3dce9dc6	0.10088687
101	0x3e2de37c	0.1698131
102	0x3e1b19a2	0.15146497
103	0x3cd1c57b	0.025606861
104	0xbc88a003	-0.016677862
105	0xbd68a7dc	-0.05680071
106	0x3d082a99	0.03324375
107	0xbd89389b	-0.0670025
108	0xbd5d5d72	-0.054044195
109	0xbde35849	-0.111008234
110	0xbd7a8a68	-0.06116715
111	0xbe120733	-0.14260559
112	0xbd9305f0	-0.07178867
113	0x3de0f215	0.109836735
114	0x3ddcf76d	0.1078938
115	0x3d70602f	0.058685478
116	0xbe16f6cc	-0.14742583
117	0x3e2532d7	0.16132675
118	0x3e23bc33	0.15989761
119	0xbdf8a707	-0.12141233
120	0xbdae8c37	-0.085228376
121	0xbb79cc83	-0.0038116283
122	0x3b822dbb	0.0039727367
123	0x3da232ab	0.079198204
124	0x3e11e8b6	0.14248928
125	0x3e27e090	0.16394258
126	0x3d066c03	0.03281785
127	0xbddcff8d	-0.1079093

fc2.weight f4 [64, 128]
0	0x3d9b38f5	0.07579223
1	0x3d6027db	0.05472551
2	0x3d8a46d5	0.067517914
3	0x3d9eb77f	0.07749843
4	0xbd6a4d69	-0.05720273
5	0xbdaa567f	-0.08317279
6	0x3d8e969b	0.069623195
7	0x3d473e7c	0.048643574
8	0x3d14412a	0.036194958
9	0x3d28d5bf	0.04121947
10	0xbdbca36d	-0.092108585
11	0xbc835f40	-0.01603663
12	0x3c2e6567	0.010644293
13	0x3cd0424f	0.025422243
14	0xbd32792f	-0.0435726
15	0xbd960094	-0.07324329
16	0xbd2c31fd	-0.04203986
17	0x3ca2f092	0.019890103
18	0xbd3adad3	-0.045618843
19	0xbbed4f5c	-0.0072421264
20	0xbd49403f	-0.049133535
21	0xbd3b976f	-0.045798715
22	0xbcc41633	-0.023936367
23	0x3d8fe176	0.07025425
24	0xbd6434b6	-0.05571433
25	0x3d758be6	0.05994787
26	0x3c9674ec	0.0183663
27	0xbd7a252e	-0.061070614
28	0xbcef2c0b	-0.029195806
29	0x3bf766c0	0.0075500906
30	0x3c9301bf	0.017945169
31	0xbc87c331	-0.016572567
32	0x3c08b28c	0.00834335
33	0xbc233e59	-0.009963595
34	0xbd38307a	-0.044968106
35	0x3d1d34b6	0.038380347
36	0x3d92b51b	0.071634494
37	0x3d8ff9ce	0.07030068
38	0x3d92b482	0.071633354
39	0xbb8f3870	-0.0043707415
40	0xbd566fba	-0.052352645
41	0xbd72b474	-0.059254125
42	0xbd8db2e6	-0.06918888
43	0xbd224cff	-0.03962421
44	0xbd5a67ec	-0.053321764
45	0xbc9a6a13	-0.018849408
46	0x3d8273ab	0.06369718
47	0xbd5be396	-0.05368384
48	0x3d2af1b5	0.041734416
49	0x3db1839b	0.0866768
50	0xbda4943f	-0.08036088
51	0x3c95dd87	0.018294109
52	0x3b963040	0.0045833886
53	0xbd7f033c	-0.062258944
54	0xbda39492	-0.07987322
55	0xbd6e2c2c	-0.058147594
56	0x3c807257	0.015679521
57	0xbda66635	-0.08124963
58	0x3c1c3d68	0.009536125
59	0xbd28213b	-0.041047316
60	0xbd5e849f	-0.054325696
61	0x3c7982cf	0.015228941
62	0xbcb7bc72	-0.022428725
63	0x3d2a170e	0.041525893
64	0x3d91aef6	0.07113449
65	0x3c53f058	0.01293572
66	0xbdab1f82	-0.08355619
67	0xbd096654	-0.033544853
68	0xbda996e0	-0.0828073
69	0x3d49d23f	0.049272772
70	0xbd111cf8	-0.035428017
71	0x3d8785b7	0.06617301
72	0x3d77674a	0.06040124
73	0xbdb36338	-0.08759159
74	0xbd526f57	-0.051375713
75	0x3d497ede	0.049193256
76	0xbd4c47d2	-0.04987318
77	0xbd8d248c	-0.068917364
78	0xbd13abb9	-0.03605244
79	0xbcd560f6	-0.026047211
80	0xbd92fca2	-0.07177092
81	0xbd24a315	-0.04019459
82	0x3a514f81	0.0007984564
83	0xbd0757c1	-0.033042673
84	0x3d9e0edb	0.07717677
85	0x3bccff40	0.006256014
86	0x3d2e1a42	0.04250551
87	0x3cbf7270	0.023369998
88	0x3c869c1a	0.016431857
89	0x3c271f0b	0.010200272
90	0xbcef29db	-0.029194763
91	0x3c47c8ed	0.0121939005
92	0xbacaa4be	-0.0015460474
93	0xbd6a5e5a	-0.057218887
94	0x3ce986b4	0.028506614
95	0xbd8f5cad	-0.070000984
96	0x3d04e2e7	0.032442953
97	0x3d15bb2d	0.036555458
98	0xbd29d6fb	-0.041464787
99	0xbd1c1f8c	-0.038116023
100	0xbd3ee6c7	-0.046606805
101	0xbd0b6e8f	-0.034040984
102	0xbbe2cb6c	-0.0069212224
103	0x3d0195b2	0.0316369
104	0xbd500b77	-0.050792184
105	0xbd5cc6e1	-0.053900603
106	0x3da245df	0.07923483
107	0xbd947210	-0.07248318
108	0xbd9bccdf	-0.076074354
109	0xbd0e3750	-0.03472072
110	0xbcb0991d	-0.021557385
111	0xbd5e5a59	-0.05428538
112	0xbd5b32b1	-0.05351514
113	0xbd97b685	-0.0740786
114	0xbd0f599d	-0.03499757
115	0x3d9b288f	0.07576095
116	0xbcd235f6	-0.025660496
117	0x3d44b67e	0.0480256
118	0x3d13b377	0.036059823
119	0xbc38acd0	-0.01127167
120	0xbc148ee6	-0.009067273
121	0xbdbe6e3a	-0.09298368
122	0xbd7388aa	-0.059456505
123	0xbd881bcb	-0.06645926
124	0xbd95ee56	-0.073208496
125	0xbdaec301	-0.08533288
126	0x3d44d863	0.048057925
127	0xbd661ed6	-0.05618175
128	0xbc0941df	-0.008377521
129	0xbdd2e064	-0.10296705
130	0xbce53a47	-0.02798189
131	0xbd277dbf	-0.040891405
132	0x3b897067	0.0041943076
133	0x3dac5fc1	0.08416701
134	0xbd06b117	-0.03288373
135	0xbda2f4d8	-0.079568565
136	0x3cf9d4b5	0.030496934
137	0x3c2d2c7e	0.01056969
138	0xbcd08372	-0.025453303
139	0xbd20bcb1	-0.03924245
140	0x3d119c3e	0.035549395
141	0xbd1bcd14	-0.038037375
142	0x3d980e57	0.0742461
143	0xbd88d92c	-0.06682047
144	0xbd4c89a4	-0.04993595
145	0x3d642646	0.055700563
146	0x3d31758b	0.04332499
147	0xbd840e50	-0.064480424
148	0x3b093e19	0.0020941554
149	0xbd064220	-0.032777905
150	0x3cc4dddf	0.024031578
151	0x3cbb16dd	0.02283805
152	0xbab319b8	-0.0013664281
153	0x3d7de16c	0.061982557
154	0xbc6b8a90	-0.014376298
155	0xbc2dec36	-0.010615399
156	0xbd88fbcb	-0.06688651
157	0xbb2c185c	-0.0026259637
158	0x3be1308e	0.0068722432
159	0x3cf0a3de	0.029375013
160	0xbc78242c	-0.015145343
161	0x3ce41324	0.027841158
162	0xbd87aa07	-0.06624227
163	0xbd809220	-0.06277871
164	0x3bec8c0c	0.0072188433
165	0xbd3b5fd3	-0.045745682
166	0xbd82d2d5	-0.06387869
167	0xbd92e78f	-0.071730725
168	0xbd9cd1ac	-0.07657179
169	0xbda9ba22	-0.08287455
170	0x3cbc4084	0.022979982
171	0xbc8789c4	-0.016545184
172	0xbd838dce	-0.064235315
173	0xbcdcb00e	-0.026939418
174	0xbdadc27b	-0.0848436
175	0xbd224faa	-0.039626755
176	0xbc395d8d	-0.011313808
177	0x3bdb7881	0.006697715
178	0x3d19c21a	0.037538625
179	0xbdd7bd53	-0.105341576
180	0x3c6ee8f9	0.014581912
181	0x3c9c3fcd	0.019073391
182	0x3d353d1e	0.04424774
183	0x3d951432	0.072792426
184	0x3d52fecc	0.051512524
185	0xbccc3dc7	-0.024931801
186	0xbd0449a7	-0.032296803
187	0xbd04b949	-0.032403264
188	0xbc44aafb	-0.012003656
189	0x3b8ebe83	0.004356207
190	0x3cfa8342	0.030580167
191	0x3d802631	0.062572844
192	0xbdbc00f4	-0.09179869
193	0x3d309291	0.043108527
194	0xbd6a722f	-0.0572378
195	0x3d2376a4	0.039908066
196	0x39846671	0.00025253327
197	0xbd67147a	-0.056416012
198	0xbcc1a687	-0.023638977
199	0xbd8f02aa	-0.0698293
200	0xbc9c0323	-0.019044464
201	0xbdb93364	-0.09043005
202	0xbd9c4411	-0.0763017
203	0x3d3278d8	0.043572277
204	0xbdd668ca	-0.10469206
205	0xbd969107	-0.073518805
206	0x3d7389da	0.059457637
207	0xbd58b4d2	-0.05290682
208	0xbd3a6d25	-0.045514245
209	0xbde6d462	-0.112709776
210	0xbc80065f	-0.015628038
211	0x3c28c296	0.010300299
212	0x3cd78e1f	0.026312886
213	0xbba3515f	-0.0049840654
214	0xbc3dd788	-0.011587031
215	0xbcaacd61	-0.020849885
216	0x3d7e7192	0.062120028
217	0x3bbee8cc	0.0058260914
218	0xbd0e6269	-0.03476182
219	0xbc2d81d2	-0.010590034
220	0x3cb087e1	0.021549167
221	0xbc1a4638	-0.0094161555
222	0x3d78120d	0.06056409
223	0x3d7e9dca	0.062162198
224	0xbce5eaf9	-0.028066145
225	0x3c8b4250	0.016999394
226	0x3d86cccb	0.0658203
227	0xbd86df22	-0.06585528
228	0xbc9faeb1	-0.019492479
229	0xbd662409	-0.05618671
230	0xbda38282	-0.07983877
231	0x3dd859c1	0.10563994
232	0xbc980a4c	-0.018559597
233	0xbd9fd205	-0.0780373
234	0xbdb44e74	-0.08804026
235	0x3d42d532	0.0475666
236	0xbc8fc2fa	-0.017549027
237	0xbd0e03c9	-0.03467158
238	0x3d86aad0	0.06575549
239	0xbcfc072a	-0.030765135
240	0xbcc3dd37	-0.023909194
241	0x3d9fe025	0.07806424
242	0x3d466e2e	0.04844492
243	0xbd94ef6d	-0.07272229
244	0xbd407c64	-0.04699363
245	0xbd5de3bc	-0.054172263
246	0x3d4a0e3e	0.04932999
247	0x3cd9aff1	0.026573153
248	0x3d5d2dab	0.05399863
249	0xbd5141a0	-0.051087976
250	0x3dafbc3a	0.08580823
251	0xbd2d3cfd	-0.04229449
252	0x3d514558	0.051091522
253	0x3d62420b	0.055238765
254	0x3d4a0a7c	0.049326405
255	0x3c19f285	0.0093962

fc2.bias f4 [64]
0	0xbd56a3e3	-0.05240239
1	0xbd6118ab	-0.054955166
2	0x3bdcad40	0.00673452
3	0xbd731ce7	-0.059353735
4	0x3d715e36	0.058927737
5	0xbd855247	-0.06509834
6	0xbd970dab	-0.07375654
7	0x3c3fcfb9	0.01170724
8	0x3dcfb856	0.10142581
9	0x3cd587d9	0.026065754
10	0x3d93ca6e	0.07216345
11	0xbd108f76	-0.035293065
12	0x3c820752	0.015872631
13	0xbc75a6ec	-0.014993411
14	0xbc9241f8	-0.017853722
15	0x3d12b97c	0.035821423
16	0x3d6c8f85	0.05775406
17	0x3d76cc4d	0.06025343
18	0x3d462f19	0.04838476
19	0xbd83f5fb	-0.064434014
20	0xbd1f85ee	-0.038946085
21	0xbd449480	-0.047993183
22	0x3b118ae6	0.0022208034
23	0xbdbd7c21	-0.09252191
24	0x3cf6a368	0.030107215
25	0x3dd446c2	0.103650585
26	0x3cd5a956	0.026081722
27	0xbd49fbb8	-0.049312323
28	0xbd9b850a	-0.075937346
29	0xbda6310e	-0.08114825
30	0xbcecf6dd	-0.028926307
31	0xbdb8a4b6	-0.09015791
32	0x3d5c3c3e	0.05376839
33	0xbd1e38a7	-0.038628247
34	0x3d13d923	0.03609575
35	0xbd3e29c4	-0.04642655
36	0xbdc25c2e	-0.09490238
37	0x3dbe8d5a	0.093043044
38	0x3c5f96fa	0.013646835
39	0xbc3ebf4f	-0.011642291
40	0xbdb22418	-0.086982906
41	0x3df74fb4	0.12075749
42	0x3d0bad4a	0.03410081
43	0x3d0446b1	0.03229398
44	0x3cd8285d	0.026386434
45	0xbda9f885	-0.082993545
46	0xbda4d8c3	-0.080491565
47	0xbc03d247	-0.0080457395
48	0xbdcbcbb1	-0.099509604
49	0x3aba2a61	0.0014203304
50	0x3dc2e06b	0.095154606
51	0x3d11bff4	0.03558345
52	0x3ddce272	0.107853785
53	0xbdb2096a	-0.08693202
54	0x3cae97db	0.021312645
55	0x3d08d38e	0.03340488
56	0xbd46fdb4	-0.048581794
57	0x3dfd8e86	0.123807
58	0xbd33594c	-0.043786332
59	0xbd8829c9	-0.06648595
60	0x3dd710f3	0.1050128
61	0xbcf37b8c	-0.029721998
62	0xbd982f49	-0.07430894
63	0x3d3a3659	0.045461986

fc3.weight f4 [7, 64]
0	0xbdb73e3a	-0.08947416
1	0xbdcc7542	-0.09983303
2	0x3da9ac00	0.082847595
3	0x3b8575b1	0.004072868
4	0x3e0161c3	0.1263495
5	0x3de2d6c6	0.11076121
6	0x3cae74b0	0.021295875
7	0xbd0703b0	-0.0329625
8	0x3de9bb64	0.11412695
9	0xbd9c4b71	-0.07631577
10	0x3db0b64d	0.08628521
11	0x3d4eacf5	0.050457913
12	0x3d4db1d3	0.050218415
13	0x3d484c3c	0.048900828
14	0x3e0cb559	0.13741054
15	0xbdf71691	-0.12064851
16	0x3d876cb6	0.06612532
17	0xbc7e2ee5	-0.01551411
18	0x3da13ab8	0.07872528
19	0xbc297a55	-0.010344108
20	0x3de2a4f6	0.1106662
21	0xbd690ab4	-0.056894973
22	0x3d6279f7	0.055292096
23	0x3ba4fdec	0.0050351527
24	0xbd8ee6a3	-0.06977584
25	0x3ddd8803	0.10816958
26	0xbde25cdc	-0.11052868
27	0xbafc87ce	-0.0019266547
28	0x39453b7e	0.00018809547
29	0xbdef5d66	-0.11687736
30	0x3d7125a3	0.058873784
31	0x3dde2d49	0.10848481
32	0x3d462daa	0.048383392
33	0x3d91166e	0.07084356
34	0x3dbc9dfe	0.09209822
35	0x3da17d08	0.07885176
36	0x3d7bf533	0.061513137
37	0x3e48a1b2	0.19592932
38	0x3bfbbe25	0.007682579
39	0x3ca6d510	0.020365268
40	0x3dd7c4aa	0.105355576
41	0x3d620ef8	0.055190057
42	0xbd43b5d9	-0.047780845
43	0xbda95092	-0.08267321
44	0x3e0a1f53	0.13488512
45	0xbc0f5abd	-0.008749661
46	0x3dbdea94	0.09273258
47	0xbddf03cf	-0.10889398
48	0xbdd9f30e	-0.10642062
49	0xbdb3678e	-0.08759986
50	0x3e00d8e7	0.12582742
51	0x3dfddb9e	0.12395404
52	0x3d022c14	0.031780317
53	0x3d62b1bc	0.055345282
54	0xbd488564	-0.048955336
55	0xbde0361c	-0.109478205
56	0x3cf8e07a	0.030380476
57	0x3d768af3	0.060191106
58	0xbda28125	-0.079347886
59	0xbdb6f34e	-0.089331254
60	0xbd8f6900	-0.07002449
61	0xbd563527	-0.052296784
62	0x3dc519ec	0.09624085
63	0xbcd393bb	-0.02582728
64	0xbd716e2c	-0.05894296
65	0xbdd34bc9	-0.10317189
66	0xbb6c189c	-0.003602541
67	0x3dad31bc	0.08456752
68	0xbc7ff31b	-0.015621926
69	0x3dc81642	0.0976987
70	0x3d6483df	0.055789825
71	0x3e04e3a5	0.12977464
72	0xbcf9df42	-0.030501965
73	0x3e17a34b	0.14808385
74	0xbd66f10b	-0.05638222
75	0x3e127a4d	0.14304467
76	0x3d07bbda	0.033138134
77	0xbdca4339	-0.09876103
78	0xbdd91976	-0.106005594
79	0x3d89eb22	0.06734301
80	0x3cb23067	0.021751596
81	0x3d8c8df1	0.06863011
82	0x3cc23164	0.023705192
83	0x3d207c9a	0.03918133
84	0xbd1adac0	-0.037806273
85	0xbd153cec	-0.036435053
86	0x3df6f87c	0.120591134
87	0xbdcf499c	-0.10121462
88	0x3db0f1c9	0.08639867
89	0x3e18c9d0	0.14920735
90	0x3e2f50af	0.17120622
91	0xbd91b567	-0.07114678
92	0x3dbf0d91	0.093287595
93	0x3d6ee133	0.058320235
94	0x3dd6a877	0.10481351
95	0x3d73d600	0.05953026
96	0x3dbe7cca	0.093011454
97	0x3bf1c702	0.00737846
98	0x3e175213	0.14777403
99	0x3dfa4e61	0.12221981
100	0x3c8f23a3	0.017473048
101	0x3db5bf20	0.08874345
102	0x3dffcadf	0.124898665
103	0x3d3fc4b8	0.046818465
104	0xbd6b37b4	-0.05742617
105	0x3db28d07	0.08718305
106	0x3c785dbe	0.015159069
107	0x3dec6678	0.11542982
108	0x3dcce69f	0.10004925
109	0xbd4bcfa5	-0.049758572
110	0xbdbedb22	-0.0931914
111	0x3d836b6d	0.06416974
112	0x3d60604c	0.054779336
113	0x3da4961c	0.080364436
114	0x3ba4b6c1	0.005026669
115	0x3e11da06	0.14243326
116	0x3d4b34c7	0.04961088
117	0x3d83f186	0.06442551
118	0x3d8de63f	0.069286816
119	0xbdd8bc52	-0.10582794
120	0xbdcb6b15	-0.09932534
121	0x3d4df239	0.05027983
122	0xbda12721	-0.07868791
123	0x3dd2e77c	0.102980584
124	0x3d99a328	0.07501823
125	0x3cd3f85a	0.02587526
126	0x3d01e98c	0.03171687
127	0xbda3bd23	-0.07995059
128	0x3d539c44	0.0516627
129	0xbda738db	-0.08165141
130	0xbc97fdc5	-0.018553624
131	0xbcd1a558	-0.025591537
132	0x3d5a613b	0.053315382
133	0x3d662809	0.056190524
134	0x3bdf4779	0.00681394
135	0x3c2321b3	0.009956765
136	0x3e0d2f56	0.13787588
137	0x3dee2ad5	0.11629263
138	0xbd0ad2d5	-0.03389247
139	0xbd87cbcc	-0.06630668
140	0xbdee1391	-0.11624826
141	0xbd84eb1f	-0.06490158
142	0xbc5e02c6	-0.013550466
143	0xbb0bb1ad	-0.002131562
144	0x3e06a93c	0.13150495
145	0x3a3ca64b	0.00071964104
146	0x3cbd545b	0.023111513
147	0x3c6d5595	0.014485736
148	0xbd8d0943	-0.06886532
149	0x3b6ee5dd	0.0036452927
150	0x3d142af8	0.03617379
151	0xbd98fd55	-0.07470194
152	0x3d15790c	0.036492392
153	0x3c825bff	0.015913008
154	0xbd609f59	-0.054839466
155	0x3d8f7db7	0.070064
156	0xbc30cf11	-0.010791556
157	0x3d889cda	0.06670542
158	0xbb848bb7	-0.0040449756
159	0x3c740788	0.014894374
160	0x3da2a438	0.079414785
161	0xbd72df3d	-0.059294928
162	0xbd923fd4	-0.071410805
163	0x3ccf9e1f	0.025343953
164	0x3d48b850	0.0490039
165	0x3c8e4f88	0.017371908
166	0x3e1fb2ae	0.15595505
167	0xbcad3a58	-0.021145985
168	0x3d57a504	0.052647606
169	0xbd5a6d96	-0.053327166
170	0x3e05f83d	0.13082977
171	0x3e16392b	0.14670245
172	0x3dbffe4a	0.09374674
173	0x3c5f671b	0.013635422
174	0x3d99d732	0.075117484
175	0xbd70c281	-0.058779243
176	0xbd3a9ba0	-0.04555857
177	0xbb7068f8	-0.003668366
178	0x3d7c314c	0.06157045
179	0x3cbb3b5c	0.022855453
180	0x3da98ae9	0.08278448
181	0xbd810e90	-0.06301606
182	0xbdb1618b	-0.08661183
183	0xbc955f6e	-0.018233981
184	0xbd639d70	-0.055570066
185	0x3c828207	0.015931142
186	0x3de75d31	0.11297072
187	0x3bffcaad	0.0078061433
188	0x3ca92aee	0.020650353
189	0xbbf02c38	-0.00732949
190	0x3dd23932	0.102648154
191	0xbcc3e04a	-0.02391066
192	0xbde7059a	-0.11280365
193	0x3dc42493	0.095772885
194	0x3db5651d	0.088571765
195	0xbc3775d0	-0.011197522
196	0xbe0495b0	-0.12947726
197	0x3d4e48ab	0.05036227
198	0xbd5494a9	-0.051899586
199	0xbd903d09	-0.070428915
200	0x3d6673a6	0.056262635
201	0xbdd0feac	-0.10204825
202	0xbd054d61	-0.032544497
203	0xbc318499	-0.010834836
204	0xbd04bdfc	-0.032407746
205	0xbd8238f2	-0.06358518
206	0x3d81dc74	0.06340876
207	0xbdbbbcf9	-0.09166903
208	0x3d29a6b7	0.041418757
209	0x3da27be4	0.079337865
210	0x3dfbf2c5	0.12302164
211	0x3de64923	0.112444185
212	0x3b9dd065	0.0048161023
213	0xbda61826	-0.08110075
214	0xbba9986f	-0.005175642
215	0xbd8693b7	-0.06571143
216	0xbda5b783	-0.08091643
217	0x3dd8ecef	0.105920665
218	0xbd9d34e7	-0.07676106
219	0xbc04d092	-0.008106368
220	0xbda0684c	-0.07832393
221	0x3c84c71c	0.016208224
222	0x3d00bf53	0.03143246
223	0x3dc43c3c	0.09581801
224	0x3e096c35	0.13420184
225	0xbca02dde	-0.019553121
226	0xbd85ca61	-0.06532741
227	0xbd309152	-0.04310734
228	0x3dbe34f9	0.092874475
229	0x3dee58db	0.116380416
230	0x3c3bb290	0.011456147
231	0x3d20c674	0.03925176
232	0xbdb897f3	-0.09013357
233	0x3be83eb3	0.0070875525
234	0xbd6d5f2a	-0.057952084
235	0xbe09d997	-0.1346191
236	0x3d036f46	0.03208854
237	0x3deaa1b5	0.114566244
238	0xbd0a1976	-0.033715688
239	0x3dc4020e	0.095707044
240	0x3c01342a	0.007885972
241	0xbcff86df	-0.031192241
242	0x3bc4c9fd	0.006005524
243	0xbd88c1f5	-0.06677619
244	0x3ca548cb	0.020176312
245	0x3d39e450	0.04538375
246	0xbe0e188c	-0.13876551
247	0xbd896c2f	-0.067100875
248	0xbd9d6e35	-0.07687036
249	0x3e35b335	0.17744143
250	0xbd8a861d	-0.06763861
251	0xbd914bd6	-0.07094543
252	0xbb1fb419	-0.0024368821
253	0x3e2fb466	0.1715866
254	0x3df9b9da	0.121936515
255	0x3d346c25	0.044048447

fc3.bias f4 [7]
0	0xbd083ee5	-0.033263106
1	0xbc945ab6	-0.01810966
2	0x3d367dfe	0.04455375
3	0x3e143a63	0.14475398
4	0xbdbdc15f	-0.09265398
5	0xbd7d0255	-0.061769802
6	0xbd26e494	-0.040745333
